best_para_path/baseline_ciao100.10.20.70.250.251.020.00.5_p10_sum20diffnet_explicit_seed0_ex1_3_0.001_1e-05.pt (torch, 446715 bytes, 2 tensors)

user_embedding.weight f4 [2541, 20]
-0.1431303 0.30619076 0.35308468 0.27150774 0.41261584 -0.1557203 -0.24375859 -0.09058015
-0.17379326 -0.06362571 0.37325168 -0.12180838 0.40148947 -0.111447275 0.13659935 -0.11126233
0.09919966 0.22712554 0.3305899 -0.35711092 -0.1390136 0.30324444 0.3311695 0.31820747
0.08916147 -0.18675564 -0.21025799 -0.15160795 -0.21600862 -0.35124755 0.39136395 -0.15781163
0.20524758 -0.24412732 0.13497612 -0.13236132 -0.06137733 0.25520688 0.24275628 -0.30470496
-0.1865388 0.10540884 0.2530866 0.30799448 0.4835338 -0.2571125 -0.1777167 -0.0435049
-0.19306037 -0.3594494 0.33822918 -0.1343708 0.13934252 -0.19344755 0.17485276 -0.03984616
0.042156752 0.27882445 0.3481752 -0.30695271 -0.19551115 0.11938733 0.24011852 0.3240566
0.23820207 -0.30162856 -0.08871914 0.01926612 -0.1916627 -0.36673203 0.32769597 -0.3501067
0.06762172 -0.1797069 0.13232547 -0.071110345 0.14313413 0.3201073 0.31908885 -0.34807554
-0.19163793 0.18782748 0.22171164 0.2210548 0.37887847 -0.2712178 -0.23573488 0.017882168
-0.19128217 -0.39566058 0.26005426 -0.14422883 0.12104513 -0.18770777 0.37679905 -0.18196994
0.16643015 0.2843135 0.3701175 -0.375622 -0.10657534 0.23967925 0.23696381 0.32073066
0.29583386 -0.18973093 -0.19891965 -0.16075973 -0.120203145 -0.28981623 0.31036985 -0.2831764
0.17343375 -0.2905899 0.11887369 -0.124726005 0.061621625 0.34560716 0.262327 -0.38559988
-0.10137529 0.22413607 0.2327312 0.2699794 0.49493453 -0.22032432 -0.09827598 -0.104850076
-0.13122883 -0.3170092 0.20785801 -0.10017528 0.1674119 -0.20688392 0.16996191 -0.14221463
0.18453906 0.27775759 0.28447807 -0.3746953 -0.28044093 0.20192024 0.23826605 0.33528838
0.49280387 -0.16986628 -0.17124748 -0.31479725 -0.16087075 -0.36322418 0.30374014 -0.31362787
0.17218451 -0.18270385 0.23679091 -0.1434962 0.13999812 0.3743338 0.37088767 -0.26844242
-0.20617594 0.27215075 0.16450112 0.28125727 0.4578226 -0.22784747 -0.18669881 -0.09750703
-0.2699543 -0.3132809 0.2799955 -0.3462254 0.22220321 -0.2556542 0.36282492 -0.16645078
0.025157658 0.30565825 0.38631466 -0.39487478 -0.33578482 0.23653477 0.22370577 0.37281144
0.13378514 -0.14929512 -0.12950256 -0.11056556 -0.20013414 -0.32768196 0.4396686 -0.24849172
0.19416367 -0.3532487 0.19893733 -0.018776868 0.102954045 0.36241877 0.23743467 -0.47195354
-0.21805918 0.3336737 0.32225266 0.16089736 0.40452677 -0.23386484 -0.31468025 -0.061558988
-0.15100685 0.042991754 0.2067447 -0.086457 0.32356164 -0.17726803 0.036921218 -0.014857542
-0.084468044 0.2663949 0.36865363 -0.34238583 -0.22642016 0.20815895 0.20706908 0.12861528
0.2713021 -0.103271164 -0.25494766 -0.24239752 -0.08836208 -0.2881097 0.20959665 -0.3066092
0.12313727 -0.18533592 0.3419352 -0.119155265 -0.10235331 0.26530924 0.13600187 -0.29162163
-0.22216164 0.2336994 0.2824862 0.36512306 0.2699892 -0.22788745 -0.23987764 -0.15242134
-0.17803852 -0.20330235 0.3686954 -0.29147646 0.3164051 -0.36067063 0.31260654 -0.21387914
00000000: c090 12be 09c5 9c3e 84c7 b43e 1003 8b3e
00000010: 6242 d33e 2475 1fbe da9b 79be 1682 b9bd
00000020: dcf6 31be 324e 82bd d81a bf3e ac76 f9bd
00000030: 0790 cd3e 783e e4bd b3e0 0b3e 81dd e3bd
00000040: 3129 cb3d 9993 683e 1443 a93e 3ed7 b6be
00000050: 9559 0ebe db42 9b3e 0c8f a93e 17ec a23e
00000060: 4a9a b63d df3c 3fbe df4d 57be 1d3f 1bbe
00000070: 5d31 5dbe b8d6 b3be db60 c83e 5f99 21be
00000080: 6c2c 523e 83fc 79be 2e37 0a3e ba89 07be
00000090: cc66 7bbd 7aaa 823e 1a95 783e 4a02 9cbe
000000a0: 0704 3fbe 97e0 d73d 9194 813e 74b1 9d3e
000000b0: be91 f73e 40a4 83be 5efb 35be 3232 32bd
000000c0: 9eb1 45be c009 b8be 602c ad3e 8098 09be
000000d0: ceaf 0e3e 1d17 46be 9a0c 333e ba35 23bd
000000e0: 8fac 2c3d 14c2 8e3e 0544 b23e e828 9dbe
000000f0: 1334 48be 5881 f43d a1e1 753e bfea a53e
00000100: 3eeb 733e 0f6f 9abe 61b2 b5bd fbd3 9d3c
00000110: 3a43 44be 4dc4 bbbe c4c7 a73e 2f41 b3be
00000120: 427d 8a3d 1605 38be 5480 073e 4da2 91bd
00000130: c191 123e 1be5 a33e 9d5f a33e f536 b2be
00000140: bc3c 44be d955 403e 6008 633e 315c 623e
00000150: 5cfc c13e 0fdd 8abe 7c64 71be a07d 923c
00000160: 79df 43be 0694 cabe d525 853e b9b0 13be
00000170: 82e6 f73d 7736 40be ceeb c03e 5456 3abe
00000180: aa6c 2a3e 8a91 913e 0a80 bd3e 8751 c0be
00000190: 2c44 dabd 7a6e 753e a4a6 723e cf36 a43e
000001a0: 8977 973e d348 42be 98b1 4bbe 339e 24be
000001b0: 112d f6bd cb62 94be cce8 9e3e 7ffc 90be
000001c0: 9e98 313e 33c8 94be 0d74 f33d 5970 ffbd
000001d0: f566 7c3d 6cf3 b03e b94f 863e 596d c5be
000001e0: d99d cfbd ed83 653e 1651 6e3e bd3a 8a3e
000001f0: 0f68 fd3e b39c 61be eb44 c9bd a3bb d6bd
00000200: da60 06be 084f a2be bbd8 543e b228 cdbd
00000210: 066e 2b3e 61d9 53be 7f0a 2e3e b6a0 11be
00000220: cff7 3c3e 3e36 8e3e 1ca7 913e 10d8 bfbe
00000230: f495 8fbe 2ec4 4e3e 04fc 733e ebaa ab3e
00000240: ca50 fc3e 6df1 2dbe 805b 2fbe 1b2d a1be
00000250: 4dbb 24be 85f8 b9be d483 9b3e d593 a0be
00000260: 2351 303e b816 3bbe 5179 723e abf0 12be
00000270: ab5b 0f3e aea8 bf3e fde4 bd3e 4971 89be
00000280: c91f 53be 5857 8b3e fb72 283e f400 903e
00000290: b967 ea3e d950 69be f92d 3fbe c4b1 c7bd
000002a0: 7337 8abe 5b66 a0be 925b 8f3e 7544 b1be
000002b0: 3d89 633e 1be5 82be 30c4 b93e 1372 2abe
000002c0: 6f17 ce3c 3d7f 9c3e 09cb c53e 072d cabe
000002d0: fdeb abbe 2c36 723e 2013 653e 24e1 be3e
000002e0: f9fe 083e d2e0 18be 529c 04be 3270 e2bd
000002f0: f7ef 4cbe eec5 a7be 3e1c e13e 9d74 7ebe
00000300: d7d2 463e 03dd b4be 3ab6 4b3e f2d1 99bc
00000310: 92d9 d23d f48e b93e 1322 733e e5a3 f1be
00000320: e84a 5fbe 47d7 aa3e 4dfe a43e 47c2 243e
00000330: 221e cf3e 447a 6fbe c51d a1be 4725 7cbd
00000340: 8aa1 1abe 1f18 303d e2b4 533e 5e10 b1bd
00000350: dfa9 a53e c085 35be b43a 173d 0c6d 73bc
00000360: 95fd acbd ea64 883e 2bc0 bc3e 324d afbe
00000370: b0da 67be 9f27 553e eb09 543e b9b3 033e
00000380: 1ce8 8a3e d57f d3bd 8088 82be 0e37 78be
00000390: 2ef7 b4bd 1d83 93be 81a0 563e e2fb 9cbe
000003a0: 652f fc3d b3c8 3dbe 2112 af3e ad07 f4bd
000003b0: 9d9e d1bd 9dd6 873e 1344 0b3e 6e4f 95be
000003c0: 577e 63be e54e 6f3e 08a2 903e 69f1 ba3e
000003d0: 063c 8a3e 545b 69be 7ca2 75be 5714 1cbe
000003e0: bb4f 36be 7e2e 50be a5c5 bc3e 673c 95be
000003f0: d9ff a13e d2a9 b8be f70d a03e 2203 5bbe

item_embedding.weight f4 [3019, 20]
0.2999777 -0.29103386 -0.31856948 -0.20611739 -0.3000879 0.26123935 0.22205172 0.21843724
0.21924682 0.32922253 -0.14748538 0.201437 -0.27403805 0.08536408 -0.2079399 0.31345356
0.2486855 -0.17639175 -0.2362095 0.16441925 0.28976467 -0.2771475 -0.30702072 -0.120893724
-0.3546536 0.29079777 0.27975643 0.22413404 0.30375302 0.15621516 0.03431964 0.25960264
-0.25354025 -0.107932284 -0.309269 0.33484772 0.2926975 -0.22548139 -0.2642273 -0.09741109
0.2392894 -0.23281348 -0.25981048 -0.2338579 -0.21093635 0.24110626 0.20912142 0.24763894
0.22939795 0.2494906 -0.25967225 0.19403073 -0.25491908 0.2512929 -0.26482138 0.25560787
0.2569069 -0.2040787 -0.2881461 0.09803626 0.17319219 -0.26142305 -0.23399287 0.022450292
-0.2943807 0.22749284 0.23228918 0.15181679 0.25232026 -0.061017003 0.03967247 0.04238924
-0.19174412 -0.14739813 -0.12978849 0.22773561 0.2908172 -0.10287334 -0.22935396 -0.30469325
0.23187691 -0.23543097 -0.24800034 -0.21308397 -0.25237724 0.2471073 0.24148093 0.27150005
0.23161598 0.24423936 -0.2396178 0.1912579 -0.24505948 0.1641196 -0.21293643 0.24587211
0.24297342 -0.22005095 -0.22658612 -0.17826155 -0.31221908 0.050838187 0.30180305 -0.11264951
0.4674701 -0.11245944 -0.2720276 -0.33922482 0.0025608144 0.5016259 -0.137428 0.28597474
0.42418122 -0.12216065 -0.093415484 -0.35023338 -0.51098627 -0.27023914 0.06962274 0.5277544
-0.3295332 0.2178118 0.28029418 0.30541784 0.21971077 -0.35351512 -0.28205854 -0.27576354
-0.29968855 -0.3230327 0.34637576 -0.26967353 0.329388 -0.3476573 0.21972077 -0.25983307
-0.21724969 0.28577605 0.22745907 -0.28870845 0.07182674 -0.32253557 -0.17694677 -0.106299154
-0.20571178 -0.03187102 0.31529918 0.11924061 0.31514022 0.3011567 -0.181799 0.26192245
-0.30235484 -0.10701645 -0.08814146 -0.17496127 0.28084534 -0.33464855 -0.36723253 -0.18543017
0.27080882 -0.25506067 -0.24007204 -0.21734434 -0.22298291 0.257795 0.23934206 0.24300237
0.25902778 0.20823646 -0.2318028 0.22299002 -0.20213686 0.13972607 -0.24731112 0.23299988
0.24641205 -0.25604403 -0.2868943 0.02517977 0.22273287 -0.25271744 -0.25768757 0.24282196
-0.27045625 0.26100785 0.2757251 0.12541628 0.25622326 -0.022162832 0.2908507 0.147204
-0.1885563 -0.3085739 -0.24835047 0.29246342 0.24436595 -0.12166079 -0.27960297 -0.2963314
0.015930954 -0.12499603 -0.29978693 -0.04928137 -0.41267475 0.2655548 0.0025056028 0.08673215
0.07371207 -0.015645923 0.10797286 0.10974545 -0.26129457 0.05976642 -0.30756402 0.13037665
0.26222974 -0.20746762 -0.27781928 -0.033553425 0.20136108 -0.23289555 -0.23390046 -0.33409026
-0.05320562 0.27887663 0.3108915 0.09971705 0.31257868 -0.015497303 -0.01879286 0.33073798
-0.3210787 0.109616175 -0.28115144 0.25132355 0.15797251 -0.2609624 -0.13489114 -0.12444609
0.22809848 -0.24084847 -0.24696837 -0.27275786 -0.22993137 0.21782048 0.24063194 0.26855317
0.2521238 0.2553095 -0.28266093 0.24872263 -0.2769866 0.24850644 -0.21267991 0.21205074
00000000: ad96 993e 6402 95be 8a1b a3be 7010 53be
00000010: 1fa5 99be 2ac1 853e 8761 633e 03ae 5f3e
00000020: 3d82 603e db8f a83e 6806 17be 8045 4e3e
00000030: b74e 8cbe 5dd3 ae3d 32ee 54be fc7c a03e
00000040: 69a7 7e3e 0aa0 34be e7e0 71be 855d 283e
00000050: 095c 943e 47e6 8dbe d231 9dbe 2197 f7bd
00000060: 2895 b5be 72e3 943e 3c3c 8f3e 6583 653e
00000070: 8485 9b3e def6 1f3e c092 0c3d a3ea 843e
00000080: 07d0 81be 9a0b ddbd 8258 9ebe 2971 ab3e
00000090: 72dc 953e 98e4 66be cd48 87be 777f c7bd
000000a0: 4808 753e a866 6ebe e105 85be 7278 6fbe
000000b0: b3ff 57be 8fe4 763e ed23 563e 1095 7d3e
000000c0: 4ce7 6a3e 777a 7f3e c3f3 84be feaf 463e
000000d0: c184 82be 77a9 803e ab96 87be 09df 823e
000000e0: 4d89 833e 02fa 50be e387 93be 3cc7 c83d
000000f0: 4b59 313e 3ed9 85be d49b 6fbe ade9 b73c
00000100: 11b9 96be e2f3 683e 37dd 6d3e dc75 1b3e
00000110: 1f30 813e f7ec 79bd 9a7f 223d 57a0 2d3d
00000120: 9258 44be 89ef 16be 46e7 04be 8633 693e
00000130: fee5 943e 42af d2bd c4db 6abe c100 9cbe
00000140: 2471 6d3e d114 71be cdf3 7dbe af32 5abe
00000150: 9737 81be b209 7d3e c746 773e 0e02 8b3e
00000160: bd2c 6d3e e219 7a3e 5e5e 75be 1cd9 433e
00000170: dff0 7abe f80e 283e 020c 5abe e6c5 7b3e
00000180: 06ce 783e 0955 61be 3106 68be 328a 36be
00000190: 2edb 9fbe b43b 503d ee85 9a3e c9b4 e6bd
000001a0: 3e58 ef3e 2351 e6bd 3447 8bbe e0ae adbe
000001b0: 56d3 273b 8e6a 003f edb9 0cbe 486b 923e
000001c0: 482e d93e 5d2f fabd 9e50 bfbd ca51 b3be
000001d0: ffcf 02bf c95c 8abe 5e96 8e3d ea1a 073f
000001e0: 93b8 a8be 0e0a 5f3e b882 8f3e ba5f 9c3e
000001f0: dcfb 603e efff b4be fa69 90be e130 8dbe
00000200: c770 99be 8b64 a5be 2a58 b13e a612 8abe
00000210: 8ba5 a83e 2300 b2be 7bfe 603e d708 85be
00000220: b476 5ebe 3d51 923e 08eb 683e 98d1 93be
00000230: e619 933d 6223 a5be 8931 35be 5fb3 d9bd
00000240: 1ca6 52be 308b 02bd e56e a13e 6c34 f43d
00000250: 0f5a a13e 3631 9a3e 8429 3abe b31a 863e
00000260: 41ce 9abe 712b dbbd 8383 b4bd 0c29 33be
00000270: f6ca 8f3e 0e57 abbe e705 bcbe 68e1 3dbe
00000280: 74a7 8a3e 5097 82be 72d5 75be 848f 5ebe
00000290: a255 64be b5fd 833e 1616 753e 9dd5 783e
000002a0: 4a9f 843e f03b 553e b75d 6dbe 7f57 643e
000002b0: f7fc 4ebe 5a14 0f3e 203f 7dbe 8597 6e3e
000002c0: 7153 7c3e 3418 83be cfe3 92be ce45 ce3c
000002d0: 1614 643e 2e64 81be a0ef 83be 52a6 783e
000002e0: 3e79 8abe d2a2 853e d72b 8d3e 206d 003e
000002f0: b22f 833e d48e b5bc 62ea 943e a5bc 163e
00000300: e714 41be 66fd 9dbe 964f 7ebe c4bd 953e
00000310: 113b 7a3e 4b29 f9bd 1f28 8fbe c0b8 97be
00000320: a281 823c ebfd ffbd ac7d 99be 43db 49bd
00000330: 1b4a d3be ccf6 873e 0a35 243b a0a0 b13d
00000340: 5bf6 963d e12b 80bc e020 dd3d 39c2 e03d
00000350: 67c8 85be a2cd 743d 0879 9dbe 7581 053e
00000360: fa42 863e 6472 54be 543e 8ebe 516f 09bd
00000370: 9931 4e3e 2c7c 6ebe 9a83 6fbe e10d abbe
00000380: 23ee 59bd ebc8 8e3e 2c2d 9f3e 7438 cc3d
00000390: 500a a03e 66e8 7dbc 7cf3 99bc 7d56 a93e
000003a0: 6d64 a4be 727e e03d 15f3 8fbe 7bad 803e
000003b0: 8cc3 213e dd9c 85be e720 0abe 97dd febd
000003c0: a692 693e fba0 76be 47e5 7cbe eba6 8bbe
000003d0: 2173 6bbe 550c 5f3e 3868 763e cd7f 893e
000003e0: 5f16 813e edb7 823e efb8 90be 25b1 7e3e
000003f0: 30d1 8dbe 7978 7e3e c3c8 59be d423 593e
