best_para_path/baseline_ciao100.10.20.70.250.251.01.00.5_p10_sum20diffnet_explicit_seed0_ex1_1_0.001_1e-05.pt (torch, 446711 bytes, 2 tensors)

user_embedding.weight f4 [2541, 20]
00000000: f871 f63e 9344 483f f29b 783e 815e 11bf
00000010: f0dc 1fbf dcc8 e3be 0028 4ebf bcc1 fbbe
00000020: 7d68 19bf 9cec 3f3f 8fcb 443f 741f 87bb
00000030: e6f5 c83c c412 293e 2df2 9ebe 6f94 aabd
00000040: fd37 2bbf ccdd 1d3e 66a5 4c3f 7f49 25bf
00000050: 1174 27bc 6e93 5b3f 9e80 423f ceda f2be
00000060: af17 28bf 6799 03bf e16a 29bf 52d5 43be
00000070: d7e0 afbe ba58 433e 2c1e 453f 2b2c 8a3e
00000080: 9a93 073f ccf6 e8bd 5296 b73e ac3c 2a3e
00000090: 77cc 69be 2504 583e 964d 363f 8459 00bf
000000a0: b9b2 84be db84 f43e 7111 033f 0a28 c4be
000000b0: d31c ec3d 3c6e 22bf 8a9d 1bbf 0d5e 00bf
000000c0: 75a4 fbbe cbd7 c9be 02bf 383f fad6 493d
000000d0: 920c 1b3e 8982 a1be 4fed 8e3e bbb5 acbc
000000e0: 9f02 e43e e4a6 0c3f 947b 323f d5aa 70be
000000f0: 5da9 893c ccc0 1f3f 325e 223f f6da 02bf
00000100: 84d6 38be d922 11bf 881a f3be b741 f0be
00000110: b983 03bf 4aeb 803e fa4f 183f 5f1c aabe
00000120: 5fc3 babe 2da5 75bd 21fa ab3e bca6 f9be
00000130: 7224 cb3e 1dc3 203f f3c4 323f 2e21 99be
00000140: a9e9 3abf f1f1 7e3d 251a bc3e ba54 083f
00000150: f808 833e 5e53 3dbf d0ae d8be f79b 533d
00000160: 3420 e3be 9bd7 27bf 0b1b 903e c9f0 a2be
00000170: 6175 1c3f 3cb7 42bf 8cc7 283f 3f00 2cbe
00000180: aabb 433f d2f7 363f 7fd5 053f 1d9d ccbe
00000190: 808a 273e 941d 343f 648d 233e a364 b13e
000001a0: 7d91 47bf 7f1d 4abf 7eff c0be a3d7 bfbe
000001b0: 8f4d 3ebe 2212 b43e a367 fd3e c900 dd3e
000001c0: a1d4 9cbd a651 bbbe efe3 b9be 173c 593d
000001d0: 241b a7be 0681 4f3f fff1 393f 69d8 1ebf
000001e0: c916 943e 20ed c73d 1849 19bf 5792 643f
000001f0: b41f d9bd 4345 49bf efd5 16bf 6cdb c1be
00000200: c711 3c3e 0b9e 54be 8c71 443f b2f1 cd3e
00000210: 5cee 1dbe 8c15 fc3c dc27 7fbe cb7b 74bc
00000220: 70a1 21bf 36c8 443f a1cf 4a3f 6258 3ebf
00000230: 1a82 dbbe ea20 f73e 9943 de3e 9da4 243f
00000240: 6309 dd3e c038 abbe ddb0 efbe 1daa 15bf
00000250: 5c23 febe 62ee 28bf bf76 373f fc87 02bf
00000260: 0b0d c0bd 0cd1 a3be c665 fd3e fcae f1be
00000270: 5dbe f63e ff91 373f ac47 4c3f de37 0fbf
00000280: 568c 40be 6055 7ebe 475f 2bbf 859c 763f
00000290: a30c 4e3f bbca 183f e339 dd3e 82f1 ee3e
000002a0: d92c 39bf 81b0 45bf 7a18 b4be 88f0 43bf
000002b0: 9bb3 303f 6df7 e13e 8a6f 333f b756 2dbf
000002c0: c3ac 77be 982d 25be fa31 a0be 1821 e53e
000002d0: 5baf 2cbf 9954 e43e 24b6 b5bd ef37 753f
000002e0: 9fac e73e 401e 45bf 086c 70be 9ffc 7d3e
000002f0: aa92 29bf 6283 c4be 4f8a 503f 3ec8 00bf
00000300: 4e23 c23e ecb0 13bf d1a6 033f dad7 abbd
00000310: 5ace ab3e 7bcd 163f 061b eb3e 1ac4 993c
00000320: 2a63 febe a9c1 3a3f 55c2 ec3d c555 f0bd
00000330: 6b66 38bf 89e1 8f3c 28a1 42bf 62b9 1cbf
00000340: 3c3c 483e 65ce 9b3e eec7 4b3f ea7c 203e
00000350: d71b 6d3e 2a52 92be fff6 b9be 1bfe c73e
00000360: e34f e53e 8988 4b3f dff2 553f 6f49 43bf
00000370: 4880 a4be 8a56 1a3f 39d8 273f 7956 6bbf
00000380: 16f5 85bd 8e06 efbe 9d0d f4be e50f 39bf
00000390: aa4c a43d 217e bbbe 89ed 3a3f 86eb 04be
000003a0: 2ce1 eb3e c5ef adbe 3cec a93e 22a7 373e
000003b0: eda2 8cbe 08f8 de3e d145 2a3f 170a 4abf
000003c0: b7b4 febe 0a8e ab3e b928 4d3f 1483 8fbe
000003d0: 9520 4e3e 89bd 17bf 6817 bebe 3216 ffbe
000003e0: 7527 bcbe abdf 51be 4c05 373f bf37 183d
000003f0: 5763 043f fbeb 2cbf c4f7 df3e c12d f8bd
0.48133826 0.78229636 0.24278238 -0.56784827 -0.624465 -0.4448918 -0.80529785 -0.49171245
-0.5992506 0.7497041 0.76873106 -0.0041236226 0.024531316 0.16511065 -0.3104414 -0.08329093
-0.66882306 0.1541664 0.7993988 -0.6456527 -0.0102205435 0.85771835 0.75977504 -0.4743256
-0.6566114 -0.5140595 -0.6617871 -0.19124344 -0.34351227 0.19076815 0.76999164 0.26986822
0.529596 -0.11375198 0.35856873 0.16624707 -0.22831903 0.21095331 0.71212137 -0.5013659
-0.25917605 0.4775761 0.5119849 -0.38311797 0.11528935 -0.63449454 -0.6078726 -0.5014351
-0.49148908 -0.3942245 0.72166455 0.049277283 0.15141514 -0.31544903 0.27915427 -0.02108275
0.4453325 0.54942155 0.69719815 -0.23502667 0.016804392 0.6240356 0.6342498 -0.5111536
-0.18050581 -0.566938 -0.4748118 -0.46925136 -0.5137287 0.2517951 0.59497035 -0.3322477
-0.3647718 -0.059971977 0.3358927 -0.4876002 0.39676243 0.6279772 0.6983177 -0.29908127
-0.7301279 0.062242452 0.36738697 0.5325428 0.2559278 -0.73955333 -0.4232087 0.05166241
-0.44360507 -0.6556336 0.28145632 -0.3182433 0.61116606 -0.76060843 0.65929484 -0.16796969
0.7645823 0.71471894 0.52278894 -0.39963618 0.16361427 0.7035763 0.15971905 0.34647092
-0.7795637 -0.7895126 -0.37694925 -0.37469205 -0.18584274 0.35170084 0.4949313 0.43164662
-0.07657743 -0.3658573 -0.36306712 0.05303582 -0.32637894 0.8105625 0.7263488 -0.62048966
0.28923634 0.09762025 -0.5987716 0.89285797 -0.1060175 -0.7862131 -0.58920187 -0.37862718
0.18366157 -0.20763414 0.7673576 0.4022346 -0.15422958 0.030771993 -0.24917549 -0.014922093
-0.6313696 0.76868 0.79223067 -0.7435361 -0.42872697 0.482673 0.43410948 0.6431368
0.43171224 -0.33441734 -0.46814623 -0.584627 -0.49636352 -0.65988743 0.7166557 -0.50988746
-0.09377488 -0.31995428 0.4949171 -0.47203815 0.4819211 0.7170715 0.7979686 -0.5594462
-0.18803534 -0.24837255 -0.66942257 0.9633258 0.8048803 0.5968434 0.43208227 0.4666863
-0.7233406 -0.7722245 -0.35174924 -0.76538897 0.69024056 0.44134083 0.7009207 -0.6771044
-0.24186997 -0.16130674 -0.3128813 0.4475181 -0.6745507 0.44595793 -0.08872631 0.9578847
0.45248887 -0.7699928 -0.2347871 0.24803399 -0.66239417 -0.38381487 0.8146104 -0.50305545
0.3791756 -0.57691836 0.51426417 -0.0839078 0.3355587 0.5890729 0.45919055 0.018770266
-0.4968503 0.7295175 0.115605034 -0.11735109 -0.7203128 0.017563598 -0.76027155 -0.6122037
0.19554228 0.30430904 0.79601943 0.15672651 0.23155151 -0.2857831 -0.36321256 0.39061055
0.4478751 0.7950521 0.83573717 -0.76283926 -0.3212912 0.602883 0.65564305 -0.9192882
-0.06540887 -0.46684688 -0.47666636 -0.7228988 0.08022435 -0.36619666 0.730187 -0.1298047
0.4607023 -0.33971992 0.33188045 0.1793485 -0.27468053 0.43548608 0.6651278 -0.78921646
-0.4974725 0.33506805 0.8014026 -0.28029692 0.20129617 -0.5927358 -0.37127233 -0.4982162
-0.36748853 -0.20495479 0.7149246 0.03716254 0.5171408 -0.6754758 0.43743718 -0.12118102

item_embedding.weight f4 [3019, 20]
00000000: bc19 c03e 0f0e 9cbe 332c b1be acfe dfbe
00000010: 294b 8dbe f126 703e e0da 923e 4fc1 233e
00000020: 8a34 b53e 01f9 3d3e 0d56 01be 1969 c23e
00000030: c2e5 dbbe 5bf8 873e 0831 dcbe 739d da3e
00000040: 1a21 733e f2d9 13be 23ec 81be 6a29 0c3e
00000050: 4024 a0bc b608 7abe 8bcc 6ebe 4db3 07be
00000060: 38eb eabe 94e4 4a3e 6b15 d13e 9170 0dbd
00000070: df7e 8d3e c7d5 863e 0191 953e f092 f63e
00000080: a694 c2be c027 96bd bc88 f8be b4e2 003f
00000090: b9c2 c63e ed12 b4bd 8405 6abd fce9 2ebe
000000a0: e0e7 be3e 2790 0fbe 17f5 9ebe d5bd 63bd
000000b0: 55cf b6be 62ce 933e 3a0d 593e 79ae 823e
000000c0: eb35 bb3e 3ecc 9e3e f9a0 3ebe f1cf aa3e
000000d0: f605 dbbe 386c 953e ac5f c2be 11ae c33e
000000e0: 0365 a03e 86cb 90be 6afa 69be 1212 ba3d
000000f0: 7670 c1bd a271 a7bd 801f 96be bfd7 933e
00000100: 4dbc 8fbe 2e7c ae3e 9e95 ac3e 18bc 1c3e
00000110: 3f67 8f3e e7a8 a0be 9f99 083e 9c67 603d
00000120: edee 923c 0cd7 a4be 4971 703d 9f75 643e
00000130: 48f5 8c3e 7da9 85bc eb2d 78be e01d 2cbe
00000140: 08e8 a23e ff14 92bd 1260 67be e14e 3cbe
00000150: 3b6f d2be 015e 513e b5af fb3d 6ebb 7f3e
00000160: a813 a33e 1164 d33e e8e0 2bbe 8bf3 b83e
00000170: 834d bebe 8284 6a3e 6dd0 bfbe cbdb bb3e
00000180: e707 323e 9863 1ebe 4e06 c9bd 0cfc d33d
00000190: 96fe 56bf b311 d2bd de95 d0be 362f 5abf
000001a0: 5bdb b4be 2b5d 21bf f192 afbe c314 b8be
000001b0: 7fed 4a3f 9082 473f e334 563f ce1e 313f
000001c0: 2b53 cd3e a741 33bf 575f 1dbf 9209 a23e
000001d0: a2c8 4a3e 0008 433f c977 533f cade 49bf
000001e0: d7e4 1fbf e863 b43e be58 093f 7ea5 48bf
000001f0: 2cc4 793e 0a49 d4be e59c d43e ddb3 10bf
00000200: db08 4fbe 87e4 2a3e cbd5 3e3f 02d9 6b3e
00000210: 7d5a 993b 1d02 49bf e266 79be 6151 223e
00000220: 1060 523e 7cdf 263f 2f5d 2b3e b27d 41bf
00000230: 377a 193e f0cc 98be 326e 8a3d 4482 5ebe
00000240: 9073 90bd 52fb 20bd d159 933e 64a4 803e
00000250: 7599 f63e 578a 3a3e 3522 263d 34a2 903e
00000260: 4942 fabe 2727 20be a662 c1be b7f4 32be
00000270: 9f55 8bbe d7c1 a7be 797a 823d fedb 1fbe
00000280: 8429 b23e f45c c2be a4e1 ccbe 3c4f 0e3e
00000290: 3b15 66be ef19 d73e bb92 633e 572f bf3e
000002a0: 14f5 cd3e 6653 ca3d 658b abbe d6dd 7d3e
000002b0: 02fd 2fbe 2832 cf3c 2563 6bbe b0ef b63e
000002c0: 0dd0 9f3e 25d4 bfbe a5f0 cabe 4143 573d
000002d0: 5621 e1bd ef9d 81be c269 b93d 4727 5e3e
000002e0: 5d30 07bd 5b2b b03e 78e3 a93e 44c1 97be
000002f0: 8af3 9c3e 58c7 27bd 62aa cd3e 5063 803e
00000300: 4703 013e a0fb b9be 9c40 aebe 34d4 d03e
00000310: 2f1f a73e b30b a23d 90d7 f8bd b157 d3be
00000320: 0b01 39bd ac89 b93d 493e 5abc fcdb ffbe
00000330: 5b54 ebbe 749c dc3e 4b6a 14be 560b 353e
00000340: a1d5 783d 0e7a 71bd 16e8 b63e a4b8 3f3e
00000350: 1612 90be 2c93 4c3e e865 cbbd 11e8 813e
00000360: 5a52 e73d efe0 443d a422 a23d 70ab 373e
00000370: 29bd 53be 0800 1cbe 2eb4 4dbe c501 c2bd
00000380: f625 08be 2486 873e 6b38 7d3e ae47 31bb
00000390: 75bb e83e a69b e4bc 1fde 003f b02f f03e
000003a0: a9ed babe 75c7 07bd 6bbc 76be 237c d13e
000003b0: 7c7a b13e 83a4 ecbc 61e7 f5bb 0425 22be
000003c0: a5f1 bf3e 6acb 45be eea5 8fbe e8fd c6bd
000003d0: ed39 f7be 97a1 7f3e 2fad 6c3e 2bec a43e
000003e0: 9a48 b33e ac71 a53e 970c acbe c335 cb3e
000003f0: 2b11 e8be c714 9f3e 44df d6be f47b ab3e
0.37519634 -0.30479476 -0.34604034 -0.43748987 -0.27596405 0.23452355 0.28682613 0.1599171
0.35391647 0.18552019 -0.12630482 0.37970808 -0.4294873 0.26556668 -0.43006158 0.4269825
0.23743096 -0.14438608 -0.2537547 0.13687673 -0.019548535 -0.24417385 -0.23320214 -0.13251992
-0.45882583 0.19813758 0.40836653 -0.03453118 0.27635857 0.26334974 0.29212192 0.4815898
-0.38004035 -0.073318005 -0.4854182 0.5034592 0.38820437 -0.08792672 -0.057134166 -0.17081445
0.37286282 -0.14019834 -0.31046364 -0.05560096 -0.35705057 0.28868395 0.21196452 0.25523737
0.36564574 0.310152 -0.18616094 0.33361772 -0.42777985 0.29184127 -0.37963617 0.3821874
0.31327066 -0.28280276 -0.22849432 0.09085478 -0.09445278 -0.081759706 -0.29320908 0.2887554
-0.2807335 0.34079117 0.337079 0.15306127 0.28008458 -0.31378862 0.13339852 0.05478631
0.017936194 -0.32195318 0.058701787 0.22310494 0.27530885 -0.01631617 -0.24236266 -0.16808271
0.3181765 -0.07132911 -0.22595242 -0.18389465 -0.41100487 0.20446016 0.12289373 0.24973843
0.31850934 0.41287282 -0.16785014 0.3612331 -0.37168512 0.2290211 -0.37463704 0.36691126
0.17385827 -0.1546768 -0.09815656 0.103508085 -0.8398222 -0.10257282 -0.4073934 -0.8522829
-0.35323605 -0.6303279 -0.34291795 -0.3595334 0.7926864 0.779336 0.8367445 0.6918763
0.40102515 -0.7002205 -0.614736 0.31647927 0.19803098 0.7618408 0.8260465 -0.78855574
-0.62458557 0.35232472 0.53651035 -0.7837752 0.2439124 -0.41461974 0.4152595 -0.5652445
-0.20218222 0.16688739 0.7454497 0.23032 0.0046799765 -0.7851885 -0.24355653 0.15851356
0.20544457 0.6518476 0.16734765 -0.7558242 0.14988028 -0.29843855 0.06759299 -0.2172938
-0.07053292 -0.039302178 0.28779462 0.2512542 0.48163953 0.18216835 0.040559966 0.2824875
-0.48878697 -0.15639935 -0.37770575 -0.17476164 -0.2721376 -0.32765076 0.06371016 -0.15611264
0.347973 -0.37961543 -0.400159 0.13897413 -0.22469036 0.42011973 0.22223942 0.37340805
0.40226042 0.09879188 -0.33504787 0.24791655 -0.17186359 0.025292471 -0.2298704 0.35729742
0.31213418 -0.3746654 -0.39636722 0.052554373 -0.109926865 -0.25315806 0.09053375 0.2169467
-0.033005107 0.34408078 0.33181357 -0.29639637 0.30654556 -0.040961593 0.40169054 0.2507577
0.12598906 -0.36324787 -0.34033668 0.40786898 0.3264098 0.07912388 -0.1215049 -0.4127784
-0.04516701 0.09059462 -0.013320514 -0.49972522 -0.45962796 0.43088114 -0.14493673 0.17680106
0.060750607 -0.05895429 0.35723943 0.18722779 -0.28138798 0.19978017 -0.099315464 0.25372365
0.11295004 0.048066076 0.079167634 0.17936492 -0.20677628 -0.15234387 -0.20088264 -0.09472994
-0.13295731 0.2646953 0.24728553 -0.002705078 0.45455518 -0.02790625 0.5033893 0.46911383
-0.36509445 -0.0331492 -0.24095313 0.4091502 0.3466376 -0.028887039 -0.007504389 -0.15834433
0.37489048 -0.19315878 -0.28056282 -0.097163975 -0.4828638 0.24963985 0.2311294 0.32211432
0.35016328 0.32313287 -0.33603355 0.39689454 -0.45325598 0.3107054 -0.41967213 0.33493006
