best_para_path/baseline_ciao100.10.20.70.250.251.010.00.5_p10_20mf_explicit_seed0_ex1_0.001_1e-05.pt (torch, 446483 bytes, 2 tensors)

user_embedding.weight f4 [2541, 20]
0	0xbeb58fcc	-0.3546127
1	0x3f0b6d30	0.5446348
2	0x3ef415db	0.47672924
3	0x3f032ef2	0.5124351
4	0x3e830e7f	0.25596997
5	0x3ef41ba4	0.47677338
6	0xbf0e8f08	-0.55687
7	0xbc2eb9d4	-0.010664422
8	0xbee1e1b9	-0.44117525
9	0xbf0d9dee	-0.55319107
10	0x3f1f747c	0.62287116
11	0x3da5632a	0.08075555
12	0x3f19ca6c	0.60074496
13	0x3ebd566d	0.3698
14	0x3e9791ac	0.29603326
15	0xbeeb3c94	-0.45944655
16	0xbecd955e	-0.4015302
17	0x3ed6005e	0.41797155
18	0x3eade689	0.33964947
19	0xbf202bef	-0.6256704
20	0xbf1105bf	-0.5664939
21	0x3e3b3233	0.18280868
22	0x3f19a7ac	0.6002147
23	0x3eed7168	0.46375585
24	0xbe14f1cd	-0.14545365
25	0xbe9952ba	-0.29945928
26	0xbf0b3b84	-0.5438769
27	0xbf0ba231	-0.5454436
28	0xbf0ca626	-0.5494102
29	0xbe3110f9	-0.17291631
30	0x3f204147	0.62599605
31	0xbea7e65c	-0.32792938
32	0x3e38e7f5	0.18057235
33	0xbf0b2494	-0.5435269
34	0x3e833ebd	0.25633803
35	0xbecea80d	-0.40362588
36	0xbefcc002	-0.4936524
37	0x3e915f5a	0.2839306
38	0xbe988c55	-0.29794565
39	0x3de59e7e	0.112118706
40	0xbebc6117	-0.36792824
41	0xbf3dcb0c	-0.7413795
42	0x3eafe2b9	0.34352663
43	0x3e907b0d	0.2821888
44	0x3eb32ab5	0.3499352
45	0xbdc3d5b3	-0.09562244
46	0xbf06cb70	-0.5265417
47	0xbed84055	-0.4223658
48	0xbe9e79be	-0.30952257
49	0xbe048dfb	-0.12944786
50	0x3eb55d96	0.35422963
51	0xbebbaf1d	-0.36657038
52	0x3f08a7a7	0.5338082
53	0xbef82ec2	-0.48473173
54	0x3e206915	0.15665086
55	0x3e3d49b6	0.1848515
56	0xbef66cda	-0.48129922
57	0x3ee0b22a	0.43885928
58	0x3eb6d72d	0.3571104
59	0x3ece8e59	0.40342978
60	0xbefdc579	-0.49564722
61	0x3f0d5ca2	0.5521947
62	0x3f1fe159	0.6245323
63	0xbf225edb	-0.6342599
64	0xbebadb18	-0.3649528
65	0xbecc435a	-0.39895135
66	0x3f052c81	0.5202103
67	0xbee23ea8	-0.44188428
68	0xbf0ce7a7	-0.55040973
69	0xbed1ef32	-0.41002804
70	0xbe30d6b4	-0.17269403
71	0xbf190c9a	-0.59784853
72	0xbeb1f96c	-0.34760606
73	0xbece496f	-0.402904
74	0x3e90776f	0.2821612
75	0xbec9f149	-0.39441898
76	0x3ad862bd	0.0016508918
77	0x3dabae08	0.08382803
78	0x3f0bfc21	0.54681593
79	0x3f0fb8a6	0.56141126
80	0xbee0676c	-0.43828905
81	0x3ede4c88	0.43417764
82	0x3e8cdd48	0.27512574
83	0xbf09f71b	-0.5389268
84	0x3e8ddaa5	0.27705875
85	0xbebf3e1e	-0.3735208
86	0xbee01a59	-0.43770102
87	0x3ee80cf6	0.45322388
88	0xbedff7b7	-0.4374368
89	0xbf283615	-0.6570752
90	0xbdfcd66d	-0.12345586
91	0xbeff1929	-0.49823883
92	0x3e82338c	0.25429952
93	0xbeae01bf	-0.33985707
94	0x3f20577d	0.62633497
95	0xbef863c8	-0.48513627
96	0x3e90672d	0.28203717
97	0x3f09e86d	0.5387028
98	0x3ea59c21	0.3234568
99	0xbd6c7c9a	-0.057736017
100	0xbeebfdbf	-0.4609203
101	0x3f0ac4aa	0.54206336
102	0x3f0deff2	0.5544425
103	0x3efd5c53	0.494845
104	0x3e301909	0.1719705
105	0xbe0117d2	-0.12606743
106	0xbef79bc9	-0.48361042
107	0xbf0e5b34	-0.55607915
108	0xbefa7eaa	-0.48924762
109	0x3f3468f0	0.7047262
110	0xbf0a289c	-0.53968215
111	0x3e12711c	0.1430096
112	0x3ef9771b	0.48723683
113	0xbeded609	-0.4352267
114	0xbf018d8b	-0.506066
115	0xbec09edc	-0.376212
116	0xbf09dbc3	-0.53850955
117	0x3eee5205	0.4654695
118	0x3e821333	0.25405273
119	0xbf0b1398	-0.5432677
120	0xbe7078fe	-0.23483655
121	0x3f10d3d6	0.56573236
122	0x3f0db8a2	0.5535985
123	0x3eac0063	0.33594045
124	0x3ec5a95e	0.3860578
125	0xbeb321e5	-0.34986797
126	0xbec805cf	-0.39066932
127	0xbe9ac29f	-0.3022661
128	0x3ec032fd	0.375389
129	0x3e050b8a	0.12992683
130	0x3f178c8e	0.59198844
131	0xbe80022e	-0.25001663
132	0x3eb67b43	0.35640916
133	0xbe0bb4d5	-0.136432
134	0x3d65961c	0.05605136
135	0xbf0e6020	-0.55615425
136	0x3de37b09	0.111074515
137	0x3f142347	0.5786633
138	0x3ec6d4b8	0.38834167
139	0xbe9f0298	-0.31056666
140	0xbf1139cb	-0.5672881
141	0x3e9a9780	0.3019371
142	0x3efda228	0.49537778
143	0x3ef494c0	0.47769737
144	0x3f0f4dd8	0.55978155
145	0xbf04909b	-0.5178315
146	0xbeb1719b	-0.34656987
147	0xbf06414a	-0.52443373
148	0xbe680a6e	-0.22660229
149	0xbf09f2e6	-0.5388626
150	0x3eb0f7f8	0.34564185
151	0xbed53cf9	-0.4164808
152	0x3e688d2f	0.22710107
153	0xbed17fed	-0.40917912
154	0x3eabb6e6	0.33537978
155	0xbf08d971	-0.5345679
156	0xbe1fc6bf	-0.1560316
157	0x3f05c70d	0.5225685
158	0x3f0d73d7	0.5525488
159	0xbeec2567	-0.46122286
160	0xbed2585a	-0.41083032
161	0x3f1bdc86	0.6088337
162	0xbb2fb1a4	-0.0026808763
163	0x3f1bca44	0.6085551
164	0x3f0c4514	0.54792905
165	0xbef6fb1d	-0.4823846
166	0xbedccdae	-0.4312567
167	0xbeabfd1e	-0.3359155
168	0xbee02b56	-0.43783063
169	0x3e5c0541	0.21486379
170	0xbf16835f	-0.58794206
171	0xbf0ba87a	-0.5455395
172	0x3e446cd6	0.19182143
173	0xbe974221	-0.2954264
174	0x3f123493	0.5711147
175	0xbef2f871	-0.4745517
176	0xbebf1ab3	-0.37325057
177	0x3f02409c	0.50879836
178	0x3f01420c	0.50491405
179	0xbeb1d1b6	-0.3473031
180	0xbf0739b4	-0.52822423
181	0x3ef38622	0.47563273
182	0x3f00cbd7	0.50311035
183	0x3f1fc9fd	0.62417585
184	0x3ececa14	0.40388548
185	0xbefd22f7	-0.4944074
186	0xbee2effc	-0.4432372
187	0xbe439a15	-0.19101746
188	0xbf01b9d7	-0.50674194
189	0xbea02a2d	-0.31282178
190	0x3dfd70d5	0.123750366
191	0xbec8173c	-0.39080226
192	0x3ebd84a7	0.37015268
193	0xbf0612c2	-0.5237237
194	0x3e9eca05	0.31013504
195	0xbe3a017e	-0.18164632
196	0xbe1ec553	-0.1550496
197	0x3f04416c	0.51662326
198	0x3eb8e92b	0.36115393
199	0xbf18bf32	-0.5966674
200	0xbef464f1	-0.47733262
201	0x3f0271c9	0.5095487
202	0x3edda6bf	0.4329128
203	0x3e40b38e	0.18818495
204	0x3ea7275a	0.3264721
205	0xbf039529	-0.51399475
206	0xbeb6997b	-0.3566397
207	0xbeb3ee5d	-0.35142794
208	0xbe874bb5	-0.26424947
209	0x3f15bf20	0.5849476
210	0xbf01eb01	-0.5074921
211	0xbf0addb1	-0.54244524
212	0x3e6113f5	0.21980269
213	0xbee044d8	-0.43802524
214	0xbee80804	-0.45318615
215	0x3e08a32d	0.13343497
216	0xbead6b73	-0.3387104
217	0x3ee2797e	0.44233316
218	0x3f00c49e	0.50300014
219	0xbf175376	-0.59111726
220	0xbed1d1ad	-0.40980282
221	0x3f11d6f8	0.5696864
222	0x3ee89a57	0.45430252
223	0xbf051a9a	-0.51993716
224	0x3e5005af	0.20314668
225	0xbebbd0ce	-0.36682743
226	0xbecabddf	-0.39597985
227	0xbefec148	-0.49756837
228	0x3ec70c77	0.38876697
229	0xbed1bd70	-0.40964842
230	0x3e858f81	0.26086047
231	0xbf088002	-0.53320324
232	0x3e9d9771	0.30779603
233	0xbec55ed5	-0.38548914
234	0x3ee77c9d	0.4521226
235	0xbe81cb2b	-0.25350317
236	0xbeeb4fd3	-0.4595934
237	0x3f0445ad	0.51668817
238	0x3ebbc29e	0.3667192
239	0xbef8a403	-0.4856263
240	0xbe786b45	-0.2425967
241	0x3f070ccc	0.527539
242	0x3efaec42	0.49008375
243	0x3e84453e	0.25834078
244	0x3ea303e3	0.31838903
245	0xbecb62f4	-0.39723933
246	0xbefd0e4b	-0.49424967
247	0xbed8e5f3	-0.42362937
248	0xbf014695	-0.50498325
249	0x3f117a79	0.56827503
250	0x3d878624	0.06617382
251	0x3ddcbd21	0.10778261
252	0x3eccca69	0.39998177
253	0xbf094ac0	-0.53629684
254	0x3ef72131	0.4826751
255	0xbee0d56a	-0.43912822

item_embedding.weight f4 [3019, 20]
0	0x3ecf406d	0.4047884
1	0xbe256b77	-0.16154276
2	0xbec35db7	-0.38157436
3	0xbef4da05	-0.47822586
4	0xbeb172d3	-0.34657916
5	0x3ebfdbb7	0.37472317
6	0x3ea61fce	0.3244614
7	0x3ed1121c	0.4083413
8	0x3eb3b62c	0.35099924
9	0xbe0894ab	-0.13337962
10	0xbda2cf0e	-0.07949649
11	0x3efe3197	0.4964721
12	0xbdb6db05	-0.089284934
13	0x3eef3006	0.46716326
14	0xbee77473	-0.4520603
15	0x3edae40f	0.4275212
16	0x3e3432b4	0.17597467
17	0xbeea3a8b	-0.4574779
18	0xbec12146	-0.37720698
19	0x3ec2ef2f	0.38073108
20	0x3ee8afcf	0.4544663
21	0xbd37a0b1	-0.04483098
22	0xbd488e40	-0.048963785
23	0xbc418644	-0.011811797
24	0xbee2f0f4	-0.44324458
25	0x3ee4029c	0.4453324
26	0x3effd32b	0.49965796
27	0xbdc0bb7d	-0.094107606
28	0x3e9240aa	0.2856496
29	0x3e942ec1	0.2894192
30	0x3ebd2b6a	0.36947185
31	0x3eef9e76	0.46800584
32	0xbed49ec4	-0.4152738
33	0xbecd21d6	-0.40064877
34	0xbeefc0ef	-0.46826884
35	0x3f0ecb6d	0.55779153
36	0x3f0a6b1c	0.54069686
37	0x3bae65e4	0.005322205
38	0xbea1fea6	-0.31639594
39	0xbec8868d	-0.39165154
40	0x3edbb7ab	0.42913565
41	0x3e62a15e	0.22131869
42	0xbeeb2160	-0.459239
43	0x3d895b9b	0.067069255
44	0xbedcd4e0	-0.4313116
45	0x3ed7fd45	0.42185417
46	0x3ec16410	0.37771654
47	0x3ea6084c	0.32428205
48	0x3edc1d69	0.42991188
49	0x3ce13f33	0.027495956
50	0xbe89620a	-0.2683261
51	0x3da2c0ba	0.07946916
52	0xbeeba4f4	-0.46024287
53	0x3e89ecef	0.26938578
54	0xbeccbeb9	-0.3998926
55	0x3ee062d2	0.43825394
56	0x3edfce58	0.43712115
57	0xbea40c51	-0.32040647
58	0xbef44a7d	-0.4771308
59	0xbd80a853	-0.06282105
60	0x3e3e42aa	0.18580118
61	0xbeb001ba	-0.34376317
62	0xbd15cfb0	-0.03657502
63	0x3eccdae5	0.40010753
64	0xbd8a1975	-0.06743137
65	0x3e14a460	0.14515829
66	0x3ec04494	0.3755232
67	0x3ebb59f8	0.36592078
68	0x3de62cfc	0.11239049
69	0x3c42727d	0.011868116
70	0xbd529bc3	-0.051418077
71	0xbeb3c99a	-0.35114747
72	0xbe8465cc	-0.25858915
73	0xbed83315	-0.42226472
74	0x3e9dcf2f	0.3082213
75	0x3e8a99af	0.27070376
76	0x3e146f0c	0.14495486
77	0xbea388ee	-0.31940407
78	0xbe695286	-0.22785386
79	0xbc06ba19	-0.00822308
80	0x3ecd389a	0.40082246
81	0xbe723926	-0.23654613
82	0xbebbd7e7	-0.36688158
83	0x3cd6a359	0.026200937
84	0xbea71de7	-0.3264
85	0x3ef9f9a5	0.48823276
86	0x3e49c109	0.19702543
87	0x3ed76785	0.42071167
88	0x3ef6cbde	0.48202413
89	0x3e4fa8fc	0.20279306
90	0xbe7181f0	-0.23584723
91	0x3c6410d1	0.013920025
92	0xbefdd6e5	-0.49578014
93	0x3eb930ef	0.36170146
94	0xbe90da99	-0.28291777
95	0x3e4696e7	0.19393502
96	0x3ee400aa	0.44531757
97	0xbec6a8bb	-0.38800606
98	0xbeaacba5	-0.33358493
99	0x3e4792e6	0.19489631
100	0xbea51928	-0.32245755
101	0xbe2afd78	-0.16698253
102	0x3f11dd5a	0.5697838
103	0x3d9241ff	0.07141494
104	0x3ee39681	0.44450763
105	0x3d4b84e2	0.049687274
106	0xbea53c81	-0.32272723
107	0xbebcf0aa	-0.36902362
108	0xbe790259	-0.24317302
109	0x3f2888eb	0.6583392
110	0x3f0e67ae	0.5562695
111	0x3f2d1e47	0.67624325
112	0x3ee9e6d8	0.45683932
113	0xbdb6de78	-0.08929151
114	0x3e08da0d	0.1336443
115	0xbeb962f3	-0.36208305
116	0xbeb00a58	-0.34382892
117	0xbed734b4	-0.42032397
118	0x3e349218	0.17633855
119	0xbf0fba79	-0.5614391
120	0xbefb2fa4	-0.49059784
121	0x3f04080d	0.51574785
122	0x3f0f5d17	0.5600142
123	0x3e65aae8	0.22428477
124	0x3eb26683	0.34843835
125	0xbf02947b	-0.51007813
126	0xbf02aa75	-0.51041347
127	0xbf058972	-0.5216285
128	0xbf040fd5	-0.5158666
129	0xbe6b4003	-0.22973637
130	0x3ec34c8f	0.38144347
131	0xbf01fd63	-0.5077726
132	0x3f036645	0.51327926
133	0xbe457412	-0.19282559
134	0x3ea9ac70	0.33139372
135	0xbef5bc88	-0.479954
136	0xbeee021c	-0.46485984
137	0x3efa4ba0	0.48885822
138	0x3ee05df9	0.43821695
139	0xbe7a822c	-0.24463719
140	0x3dc5dd1d	0.09661315
141	0x3ee1ea4f	0.44124076
142	0xbed32927	-0.41242334
143	0x3e507579	0.20357312
144	0xbea67faf	-0.3251929
145	0xbce39de6	-0.027785253
146	0xbd4fb0e8	-0.05070582
147	0xbe2bedb3	-0.16789894
148	0x3e5beff8	0.2147826
149	0xbd9bcd32	-0.07607497
150	0xbef30684	-0.4746591
151	0xbe38488b	-0.17996423
152	0x3ca3a37e	0.01997542
153	0x3d1fcbc8	0.0390127
154	0xbed4a750	-0.415339
155	0xbe086498	-0.13319623
156	0xbe8a7c97	-0.2704818
157	0xbe775f4b	-0.24157445
158	0xbebb1cd1	-0.36545423
159	0x3e9bb696	0.3041274
160	0x3ecc7d46	0.39939326
161	0xbebe68f2	-0.37189442
162	0xbecb6276	-0.39723557
163	0x3e756d26	0.23967418
164	0xbec077fd	-0.37591544
165	0x3eca7830	0.3954482
166	0x3eb75d01	0.35813144
167	0x3e7c32a8	0.24628699
168	0x3ecfbbc2	0.40572935
169	0xbdf9119f	-0.12161564
170	0xbedcdfce	-0.431395
171	0x3e17dcfe	0.14830396
172	0xbe20f801	-0.15719606
173	0x3d2b4ccf	0.041821297
174	0xbe930084	-0.2871133
175	0x3ea8b782	0.32952505
176	0x3ed3fdca	0.41404563
177	0xbeae457b	-0.34037384
178	0xbeddb473	-0.43301734
179	0xbe03c5e1	-0.12868454
180	0x3e79c8ab	0.24392955
181	0xbe8432f2	-0.25820118
182	0x3d9b6c7f	0.07589053
183	0x3efe1d74	0.49631846
184	0x3ea2581f	0.31707856
185	0x3ec0b620	0.3763895
186	0x3f01fe9f	0.50779146
187	0xbea36300	-0.31911469
188	0x3ecd6f1a	0.40123826
189	0x3deabf74	0.11462298
190	0x3ce1037a	0.027467478
191	0x3efb0ac1	0.49031642
192	0x3ef810fd	0.4845046
193	0xbf08dded	-0.5346363
194	0x3de682cd	0.11255417
195	0x3edeeca9	0.43539932
196	0x3efe6385	0.49685302
197	0x3eabe4ac	0.335729
198	0xbeedf667	-0.46477053
199	0xbedf1f28	-0.43578458
200	0xbe267d52	-0.16258743
201	0xbef100ea	-0.4707101
202	0x3e5e7669	0.21724857
203	0xbe9799a8	-0.29609418
204	0xbec82a18	-0.39094615
205	0x3ed3a3ca	0.413359
206	0xbdf23e30	-0.118282676
207	0x3ebe751c	0.37198722
208	0x3b967600	0.0045917034
209	0x3d197753	0.037467312
210	0x3e6fed87	0.23430453
211	0x3ea5d8ef	0.3239207
212	0xbdb2f126	-0.08737402
213	0x3ef3d519	0.47623518
214	0xba818d51	-0.0009884035
215	0x3df8d101	0.12149239
216	0x3e1707c9	0.14749064
217	0xbe30f5fa	-0.17281333
218	0x3ca7be20	0.0204764
219	0x3e53cdde	0.20684001
220	0x3eb0a095	0.34497514
221	0xbe2e9bf4	-0.17051679
222	0xbec2f3e5	-0.38076702
223	0xbe0066d8	-0.12539232
224	0xbe604b9b	-0.21903841
225	0x3e82fbae	0.2558264
226	0x3ef655d0	0.48112345
227	0x3e286496	0.1644462
228	0x3ec15cbb	0.3776606
229	0x3e194954	0.14969379
230	0xbc93a91d	-0.018024975
231	0x3eef13aa	0.4669469
232	0xbe3c4e02	-0.18389133
233	0x3eddee93	0.4334608
234	0xbedf251c	-0.43583
235	0x3e9b4ddb	0.30332837
236	0x3e970a88	0.29500222
237	0xbe059803	-0.13046269
238	0xbd1ba95f	-0.03800332
239	0xbe2c9b78	-0.16856182
240	0x3ed3bc1d	0.41354457
241	0xbe452bb5	-0.19254954
242	0xbee9f0f8	-0.45691657
243	0xbea4d228	-0.32191586
244	0xbedb4502	-0.42826086
245	0x3eb41a7d	0.3517646
246	0x3edfd404	0.43716443
247	0x3eef6c1d	0.4676217
248	0x3ed24b0c	0.4107288
249	0xbe877199	-0.26453856
250	0xbe85452f	-0.26029345
251	0x3eb8df57	0.36107895
252	0xbef744c9	-0.48294666
253	0x3e5f7d80	0.21825218
254	0xbee6910f	-0.45032546
255	0x3eccfc5f	0.40036294
