best_para_path/baseline_ciao100.10.20.70.250.251.01.00.5_p10_sum20lightgcn_explicit_seed0_ex1_2_0.001_1e-06.pt (torch, 446715 bytes, 2 tensors)

user_embedding.weight f4 [2541, 20]
00000000: bed3 963f f7b7 983f 510b aa3e 38c0 acbe
00000010: 233f 9fbf 1e92 16bf 99c0 bebf c55d d4be
00000020: 9ce5 d7bf d1d7 913f 9b21 563f 1a39 793f
00000030: d9e2 c8bf 59fe d3be 7a03 a9bf 4061 98bf
00000040: 875f b0bf 392e 913f bb68 b03f 71d0 aabf
00000050: 2e52 c43d d695 e63f 506b c93f 147f c1bf
00000060: 82c8 cfbf 3d38 ddbe b1ef 6fbf e386 863e
00000070: 4dde 8dbf 3212 bb3e 01a5 283e 8d5a 3f3f
00000080: d9cf a0bf 1d0c d7bf 642d 00bf 799d 81bf
00000090: 5991 f7be 9b50 1a3f 9229 f53e 8638 75bf
000000a0: cd5c 85bf e630 6e3f cbd5 a93f 5e11 a5bf
000000b0: 27fa f7bf a2d9 adbf 9532 eabe 16ff 89bf
000000c0: eae8 c9bf fc90 be3e 8db3 6b3f e77d be3f
000000d0: cb63 28bf d279 71bf 329a da3e de33 39bd
000000e0: aa12 c73f dfdc e13d 072d be3f 9311 9bbf
000000f0: 41ef 04be b6ec d23f b3fb 8c3f bcec b3bf
00000100: 4825 b2bf ad10 b8bf 584c 5ebd 5c49 c7bf
00000110: a702 c6bf 6923 673f 85d6 873f 132e 813f
00000120: 0dbf f1bf ceab 913f 42bb 50bf 6861 8abf
00000130: fb90 1fbf 80c9 05bf 58f1 f53e 1836 02bf
00000140: 7bbf c1bf 5394 ea3e f1c4 1b3f 7832 833e
00000150: 0bf6 bf3f 9304 a0bf f404 da3e 855e d83e
00000160: c607 36bf 78aa ccbf de5e c03f 29d2 ccbe
00000170: 5fe1 eabf 49dc b4bf 3260 aa3f 11b1 b8bf
00000180: b81f d33f 32d0 1040 410b 5e3e eedb a1be
00000190: b84c b0be f136 b43f f3c7 b03f 70e8 b0be
000001a0: dd73 ebbf 2b13 79bf 6773 d3be 8478 8e3d
000001b0: e2c2 d6bf 87fc 03be 6596 82bf 33df b03f
000001c0: 22dc a9bf da0b e4bf 8249 89bf 6241 8dbf
000001d0: ce41 96bf 1268 ca3f d8e9 3c3f 0466 4ebf
000001e0: e061 3c3f 8d45 b73f 5ac5 063e 447a 7fbf
000001f0: d1c6 6fbf fd83 acbf be6e 8a3c 96e5 103f
00000200: a3fa 3bbe ea81 0ebf 1ca8 a4bf 00b4 4f3f
00000210: 3c34 e5bf bf7e 00c0 e9b5 a53e 6f71 cabf
00000220: b18d 96bf 3e46 fb3f 9a0a be3b c13f 82bf
00000230: be15 c4bf 75cc 253e 5258 973f 3d19 983f
00000240: 38d4 e93f d1df cdbf c665 9cbf 4d9b 203e
00000250: 0ac0 81bf f36b 163f 0ca2 e23f 3178 213e
00000260: 1cda c4bf 4ead c2bf c44b 88be b330 d1bf
00000270: dd91 e73f e8fe 0840 05e5 a03f 4614 22bf
00000280: 6c10 bfbf 560a 303f 1a0d 493f d3da 873f
00000290: 5de3 ff3f c4c9 4dbe 2fcb 623e c1ef a93f
000002a0: 054e 98be 6e81 05c0 6f8a 833f 0bc9 12c0
000002b0: 9596 d3bf 1462 c2bf f285 ae3f 69af a7bf
000002c0: d8ec 0740 d362 6abf d5b4 0cc0 69f2 ef3f
000002d0: 871e 5ebf b038 e33f e281 be3f 59d9 c83f
000002e0: a712 af3f d7c8 79bf 2b85 7f3f 9a00 b03f
000002f0: 31bd 443f 1ad8 0e3f 48cf 953f 70b1 5ebe
00000300: 8fb3 eebf 784f b0bf dc07 c33f ff2b b8bf
00000310: 4674 663f 257f 40bf 2aa9 bc3e cb64 9d3f
00000320: 1dc3 8dbf eff4 8e3f 34d5 a83f f628 453f
00000330: 2fc3 dcbf 507f 26bf 3097 78bf 45a3 5dbf
00000340: 1f56 15bf 11ec 993f 397a c53f 93c7 b13f
00000350: d97e 41bf 6696 07bf 5833 cdbf ce22 b33e
00000360: 8a29 843f cd3e d73f b02f c93f bc80 c9bf
00000370: 27f5 4abf 1369 7d3f a3b6 b53f 49d7 9cbf
00000380: 1bce c5bf 8e73 83bf 4459 bbbe a0f0 93bf
00000390: 213c 11bf 184f 933f f92f 553f bdb2 cd3f
000003a0: d800 bbbf c4e5 5bbf 8d19 903d 0628 80bf
000003b0: 35be c63f 1c51 8f3e 688b d03f cf90 c5bf
000003c0: 005c 74bf d16b a43e 581a e33f 0902 0ebf
000003d0: 90a6 8e3e 5f5e 98bf a118 1abf 8091 96bf
000003e0: 8adb c73e 0754 3f3f f826 a63f d3b4 993f
000003f0: e7d3 9bbf 24dc 9dbf c4be 88bd f1e8 a5bf
1.1783369 1.1931142 0.3321176 -0.337404 -1.2441143 -0.5881671 -1.4902526 -0.4147779
-1.6866946 1.1393987 0.8364503 0.97352755 -1.5694228 -0.4140499 -1.3204186 -1.1904678
-1.3779153 1.1342231 1.3781961 -1.3344861 0.09585987 1.8014476 1.5735874 -1.5116906
-1.6233065 -0.4320697 -0.93725115 0.26274785 -1.1083466 0.3653732 0.16469194 0.74747545
-1.256343 -1.6800572 -0.5006926 -1.0126182 -0.4835308 0.60279244 0.47883278 -0.9578937
-1.0418946 0.93043363 1.326837 -1.2895925 -1.9373215 -1.3582041 -0.45741716 -1.0780971
-1.5774205 0.3721999 0.9207085 1.4882172 -0.6577727 -0.9432651 0.42695767 -0.04521548
1.5552571 0.11028456 1.4857491 -1.2114738 -0.12981893 1.6478488 1.1014313 -1.4056621
-1.3917627 -1.4380089 -0.054272026 -1.5569263 -1.546956 0.90288407 1.0612341 1.0092186
-1.8886429 1.1380556 -0.8153573 -1.0810976 -0.623306 -0.5226059 0.48035693 -0.5086379
-1.513656 0.45816287 0.60847384 0.25624442 1.4996961 -1.2501396 0.42581904 0.42259613
-0.7110561 -1.5989523 1.5028951 -0.4000409 -1.8350028 -1.4129726 1.3310606 -1.4429036
1.6494055 2.2627072 0.2168398 -0.31613106 -0.34433532 1.4079267 1.381102 -0.34552336
-1.8394734 -0.97294873 -0.41298983 0.0695658 -1.6778224 -0.128893 -1.0202147 1.3818115
-1.3270304 -1.7816117 -1.0725558 -1.1035578 -1.1738832 1.581301 0.7379432 -0.80624413
0.73586845 1.43181 0.13161221 -0.9979594 -0.93662745 -1.347778 0.01689851 0.5660032
-0.18357329 -0.55666983 -1.2863803 0.81134033 -1.7906566 -2.007736 0.3236535 -1.5815867
-1.1761991 1.9630811 0.0057996036 -1.0175706 -1.5319135 0.16191275 1.1823828 1.1882702
1.8267889 -1.6083928 -1.2218559 0.15684243 -1.0136731 0.5875847 1.7705703 0.15768506
-1.5379062 -1.5209138 -0.26620305 -1.6342987 1.8091389 2.1405582 1.2569891 -0.63312185
-1.4926887 0.6876577 0.78535616 1.0613655 1.9991261 -0.20096499 0.22147821 1.3276292
-0.29747024 -2.0860248 1.0276622 -2.2935207 -1.6530329 -1.5186181 1.3634627 -1.3100406
2.1238308 -0.91557044 -2.198537 1.8745853 -0.8676533 1.7751675 1.4883387 1.5691329
1.3677567 -0.9757208 0.99812573 1.3750184 0.76851183 0.55798495 1.1703882 -0.21747375
-1.8648547 -1.3774252 1.5236773 -1.4388427 0.9002117 -0.7519401 0.36847812 1.2296385
-1.1075169 1.1168498 1.3190064 0.77015626 -1.7247065 -0.65038013 -0.97105694 -0.86577255
-0.58334535 1.2025167 1.5427924 1.388903 -0.7558418 -0.52963865 -1.6031294 0.3498749
1.0325177 1.681604 1.5717678 -1.5742412 -0.7928032 0.98988456 1.4196361 -1.22532
-1.5453523 -1.026964 -0.36591542 -1.1557808 -0.56732374 1.1508512 0.83276325 1.6070172
-1.4609632 -0.8589747 0.070361234 -1.0012214 1.5526797 0.2799157 1.6292543 -1.5434817
-0.9545288 0.32113507 1.7742414 -0.55471855 0.27861452 -1.19038 -0.6019383 -1.1763153
0.39034683 0.7473759 1.2980642 1.2008308 -1.2174042 -1.2332807 -0.06677011 -1.2961713

item_embedding.weight f4 [3019, 20]
00000000: 3abe c83f 5266 82be 3c9d 26bf af2e dd3e
00000010: 6b15 9fbe a983 953f 2eb2 a53f 7115 963f
00000020: 4c91 49be a525 09bf 6024 c0bf 22e3 143f
00000030: 8f89 a33f b847 c63f 68ac 453f 2ae1 dc3f
00000040: 15d2 c9bf a4dd 74be 7ae1 c3bd 5c34 303f
00000050: 3a55 153f d991 dfbf ba89 99bf 3485 dfbd
00000060: 7cef 36bf e536 b23f e04f be3f fb64 9ebe
00000070: d98d 173f 5228 943f 8a7b 47be 6796 d23f
00000080: 91f0 6f3f 4520 7e3f a0af 6d3e 5208 ce3f
00000090: fef5 89bf d853 1b3f 684e c53f 6413 9cbf
000000a0: a6db b73f 3f6b fbbe a3d9 b4bf c07d 3d3f
000000b0: 7b73 6cbf 01b3 7e3f 7180 313f 985c ea3e
000000c0: 6cda e03e a8f7 e2be 1716 bfbf ab69 7fbd
000000d0: 077d c03f 4930 be3f 5bfa 8b3d 3c35 c73f
000000e0: 4453 b4bf 150d 8ebf d8c2 1ebe 5327 c33e
000000f0: d209 0ebf ec7d 4fbf 2354 debe 6998 473f
00000100: 7688 223f 810d 7e3f 541b 883f bf9d 013e
00000110: 05ee 833f 3f06 86bf 26c5 143f f046 3abe
00000120: bf6b d93d a1e4 63bf d93d 853f 19ad db3d
00000130: 4504 7e3f c447 363e 1f52 df3e 07c5 acbe
00000140: 3108 a93f 45af bfbe b2ea 42bf 71c5 41be
00000150: 92fa adbf c0de 423f 0f95 16be 2a45 243f
00000160: ff7c 06be 5508 323f 1381 b2bf 308e 9d3e
00000170: 4f60 b13f 5a6f b13f 58d6 2dbf ce3a b33f
00000180: a65a b6bf ed0a c0be 7acb 843e 57a6 543e
00000190: a62e 293f 1ee2 55bf 932e 4bbf f515 473f
000001a0: 800c e2bf 5fe2 7c3f 331b 0c3f 5cb3 7e3f
000001b0: db90 2f3f 0273 943f 360c 27bf 2cec f53f
000001c0: 55f7 8b3f 64d2 8d3f 9234 8bbe 9f1f 8a3f
000001d0: e0e0 8abf af62 5a3f 2186 c63f eb7d bbbf
000001e0: 8fa5 b1bf c35a fcbe 1992 893f 09e7 f13e
000001f0: b8cf 97bf 9c19 e13e 98fa 0b3f 9d43 8fbf
00000200: b397 6dbd fdb9 b63f 1182 7d3f ca08 ca3f
00000210: ce98 a8be 25f3 73be e63f c03d c8cd 3fbf
00000220: d64b 783f c11f ae3f 36ce 933f fcb6 bfbf
00000230: 7037 3f3f fde1 c7be 41c4 acbf e778 8c3d
00000240: 2415 bcbf de6c a03f 1f72 8fbe 06ff 2dbe
00000250: 5c90 a23d bdd1 2c3f 4d60 2dbf 1b20 0b3f
00000260: 313a e33e 1429 973e 9938 b0bf d519 0a3f
00000270: 4517 82bf 2961 b1bf f34e b73e eda7 afbe
00000280: c25e e13f aa6a 86bf 58b0 82bf 5f3f 8a3f
00000290: c425 dd3d 0d11 a23f 4a26 fa3e bd8f 153f
000002a0: 90ce 7d3f 9485 88bf ba6b e7bf 34a3 6cbf
000002b0: 5dba a23e 7ddd 593f d3df 7a3f a933 c23f
000002c0: a6ea b8be d820 75bf f98a 12bf 276f b93e
000002d0: 4cee 56bf 8e8f 65be 8e7e 163f 23c1 4e3f
000002e0: 9487 303f 6b18 793f 391c a33f dccc 7fbf
000002f0: 4369 b13f 8bf9 273f 57a3 683f d6e8 ab3f
00000300: 46a2 25bf f364 53bf 8538 6f3f c1b5 343e
00000310: 58ba 4b3f 47f0 603f 122c a73f 7e54 8cbf
00000320: 1a92 f4be b8da 6cbe 37bb 74bf d9f7 76bf
00000330: ad1b 77bf 9aa6 253f d9ef fbbe 1060 9e3f
00000340: bcf0 c3be 973f 43bf 20fb e83e 5673 7cbd
00000350: 1ace a43f 5200 ab3f 08eb 8bbf 80a3 853e
00000360: 4654 d13e a09d c7be 226d 833f b9e1 3e3f
00000370: 8780 a2be e9ff 66bf b034 a6be 1357 143f
00000380: 8e97 7c3f 8cb3 913f 7fb1 823f fc47 00be
00000390: 5a87 e63e bbe0 bbbc e5ad 393f ce37 d63f
000003a0: 5e92 5b3f 7a98 293f fd83 983f 0acb 9d3f
000003b0: 56c4 973e c3f2 ad3e 78bc 333f 40c7 44bd
000003c0: e64a cd3f df38 21bf 38e5 a4bf 3eb2 a53e
000003d0: a629 9dbf 3e5b 013f edd2 abbd cc3f 923f
000003e0: 6ea6 5abe 8abd 5cbd 2170 cfbf 9b12 2bbf
000003f0: af2c c53f 1af5 c83f f4de e1be 0511 a83f
1.5683053 -0.2546869 -0.6508367 0.4319968 -0.31071028 1.1680804 1.2945001 1.1725293
-0.19684333 -0.53573066 -1.5011101 0.5815908 1.2776355 1.5490637 0.77216196 1.7256215
-1.5767237 -0.23912674 -0.095644906 0.68829894 0.5833317 -1.7466384 -1.1995156 -0.10914078
-0.71459174 1.3923002 1.4868126 -0.30936417 0.5920082 1.1574805 -0.1948072 1.6452149
0.9372645 0.9926799 0.23211527 1.6096289 -1.0778196 0.6067481 1.5414553 -1.2193418
1.4363906 -0.4910526 -1.4128917 0.74020004 -0.9236371 0.9949189 0.6933661 0.45773768
0.43916643 -0.44329572 -1.4928616 -0.062356632 1.5038155 1.4858485 0.06834861 1.5563121
-1.4087911 -1.1097742 -0.15504014 0.3811594 -0.55483735 -0.81051517 -0.43423566 0.77966934
0.6348947 0.99239355 1.063334 0.12657832 1.0307013 -1.0470656 0.58113325 -0.18191123
0.10616254 -0.89020735 1.04095 0.10726375 0.99225265 0.17800814 0.4361734 -0.3374407
1.3205625 -0.37438408 -0.76139367 -0.18922974 -1.3592093 0.7612114 -0.14705299 0.64168036
-0.1313362 0.69543964 -1.394564 0.30772543 1.3857516 1.3862107 -0.6790519 1.4002321
-1.4246414 -0.37508336 0.2593649 0.20766579 0.66086805 -0.8354815 -0.7936794 0.7776788
-1.7660065 0.98782915 0.54729 0.9949243 0.68580407 1.1597598 -0.6525301 1.9212699
1.0934855 1.1079831 -0.27188545 1.07909 -1.0849876 0.8530683 1.5509683 -1.4647802
-1.387865 -0.49287996 1.074771 0.47246578 -1.1860266 0.4396485 0.5467925 -1.1192509
-0.058006 1.4275509 0.9902659 1.5783932 -0.3292908 -0.23823221 0.09387188 -0.7492337
0.96990716 1.360344 1.1547306 -1.4977717 0.74693966 -0.39039603 -1.3497392 0.06858998
-1.4693952 1.2533224 -0.28016755 -0.16991815 0.079376906 0.67507535 -0.6772507 0.54345864
0.44380334 0.29523528 -1.3767272 0.53945667 -1.0163351 -1.3857776 0.3580242 -0.34307805
1.7607043 -1.0501301 -1.0210066 1.0800589 0.10798219 1.2661453 0.48857337 0.5842245
0.99143314 -1.0665765 -1.807975 -0.9243653 0.3178281 0.8510359 0.9799778 1.5172015
-0.36116523 -0.9575324 -0.57243305 0.36217615 -0.8395736 -0.22418043 0.5878686 0.80763453
0.68956876 0.97302884 1.2742988 -0.99921966 1.3860248 0.6561515 0.90874237 1.3430431
-0.64700735 -0.8257591 0.93445617 0.17647459 0.79581213 0.87866634 1.3060324 -1.0963285
-0.47767717 -0.2313031 -0.9559817 -0.96471936 -0.96526605 0.6470734 -0.49206427 1.2373066
-0.38269603 -0.76268905 0.45504093 -0.06163343 1.2875397 1.3359473 -1.0931101 0.26101303
0.40884608 -0.38987446 1.026768 0.74563175 -0.31738684 -0.9023424 -0.32462072 0.57945365
0.98668754 1.1382918 1.0210418 -0.1252746 0.4502514 -0.022934308 0.72530967 1.673578
0.85770214 0.66248286 1.191528 1.2327588 0.2964198 0.33974275 0.70209455 -0.048041582
1.6038482 -0.62977403 -1.2882452 0.3236255 -1.2278335 0.5052985 -0.0838984 1.1425719
-0.2135255 -0.053891696 -1.6206094 -0.66825265 1.5404261 1.5699799 -0.44115412 1.3130194
