best_para_path/baseline_ciao100.10.20.70.250.251.030.00.5_p10_20mf_explicit_seed0_ex1_0.001_1e-05.pt (torch, 446483 bytes, 2 tensors)

user_embedding.weight f4 [2541, 20]
0	0xbe890517	-0.26761696
1	0x3f0a4cf8	0.54023695
2	0x3e725ca2	0.23668149
3	0x3f00e573	0.5035011
4	0xbeb2741d	-0.34854212
5	0xbe63ff74	-0.22265416
6	0xbed7dc3c	-0.42160213
7	0xbeee44a7	-0.46536753
8	0xbeed2e8d	-0.46324578
9	0xbe8b298f	-0.27180144
10	0x3f18936e	0.5959996
11	0x3f2aba83	0.66690844
12	0x3f0f2dce	0.5592927
13	0x3ed9ea63	0.42561635
14	0x3de49142	0.11160518
15	0xbe51e55f	-0.20497654
16	0xbef42ef0	-0.4769206
17	0x3ee21702	0.4415818
18	0x3edd9e62	0.432849
19	0xbf19a138	-0.60011625
20	0xbea38ea2	-0.31944758
21	0xbe3cf77d	-0.18453784
22	0x3f0427c3	0.5162317
23	0x3f032827	0.5123314
24	0xbe03c5f9	-0.1286849
25	0xbecc5175	-0.39905897
26	0xbefcf344	-0.49404347
27	0xbef3653e	-0.4753818
28	0xbef8fe60	-0.48631573
29	0xbf04b16e	-0.51833236
30	0x3f15688b	0.58362645
31	0x3ed87d3c	0.42283046
32	0x3e1d09fc	0.1533584
33	0xbee1f04b	-0.4412864
34	0x3e6a4bce	0.2288048
35	0xbed145e9	-0.4087365
36	0xbefaff63	-0.4902297
37	0x3ed7f7ae	0.42181152
38	0x3e876011	0.2644048
39	0x3ee2ea4c	0.4431938
40	0xbe9e7a2f	-0.30952594
41	0xbf215b24	-0.63029695
42	0x3eeab69e	0.4584245
43	0x3edaa450	0.42703485
44	0x3ee6215e	0.44947332
45	0xbe9b39d4	-0.30317557
46	0xbeefd61f	-0.4684305
47	0x3d6686ac	0.056280777
48	0xbe56e2a7	-0.20984899
49	0xbee0bf08	-0.43895745
50	0x3f007649	0.5018049
51	0xbeaa4a00	-0.33259583
52	0x3f0a6038	0.5405307
53	0x3d1c4ab9	0.0381572
54	0x3e439370	0.19099212
55	0x3eb93eb3	0.36180648
56	0xbecebad2	-0.40376908
57	0x3eb0e8c8	0.34552598
58	0x3ed4778a	0.4149745
59	0xbe67b640	-0.22628117
60	0xbeeab9f6	-0.45845002
61	0x3ed4f360	0.4159193
62	0x3e0ff3b6	0.14057812
63	0xbf167870	-0.58777523
64	0xbeac6e33	-0.33677825
65	0xbeccefa0	-0.4002657
66	0x3d8a425a	0.06750937
67	0xbf0d28b2	-0.5514022
68	0xbf1a11fa	-0.6018368
69	0xbef15759	-0.47136953
70	0xbede35d3	-0.4340044
71	0xbf0eccf4	-0.55781484
72	0x3e0497ba	0.12948504
73	0xbee06847	-0.43829557
74	0x3eb523e8	0.35378957
75	0xbeeaee89	-0.45885113
76	0x3e2fe24d	0.1717617
77	0x3f04ce00	0.5187683
78	0x3f1ecb7f	0.6202926
79	0x3f075732	0.52867424
80	0xbecddec0	-0.40209007
81	0x3ec8d3f9	0.39224222
82	0xbd7b3086	-0.061325572
83	0x3ed5e39d	0.41775218
84	0x3ec7462a	0.38920718
85	0xbf0c0648	-0.54697084
86	0xbefecbc3	-0.49764833
87	0x3ef3a1d1	0.47584394
88	0xbed200dd	-0.41016284
89	0xbf150fd2	-0.58227265
90	0x3efa15da	0.48844796
91	0x3f1cb73f	0.6121711
92	0x3dccc8c8	0.099992335
93	0xbe16a689	-0.14711966
94	0x3f134325	0.5752433
95	0xbeffa248	-0.49928498
96	0xbd16972d	-0.036765266
97	0x3ef76558	0.48319507
98	0x3ecd0610	0.40043688
99	0xbe96c203	-0.29444894
100	0x3e9fdae2	0.31221682
101	0x3f018d91	0.5060664
102	0x3f0e37ed	0.55554086
103	0x3e8dceee	0.27696937
104	0x3e38c8b8	0.18045318
105	0xbe0b0244	-0.13575083
106	0xbed3c818	-0.41363597
107	0xbef0732e	-0.46962875
108	0xbee2e650	-0.4431634
109	0x3f110db3	0.5666153
110	0x3e8a69b3	0.27033767
111	0xbf0de9e8	-0.5543504
112	0x3ef0c14c	0.47022474
113	0xbe78bbca	-0.24290386
114	0x3eb59161	0.35462478
115	0xbed46449	-0.41482762
116	0xbeea4ea6	-0.4576313
117	0x3f0c0b8d	0.54705125
118	0x3ea37448	0.31924653
119	0x3f337012	0.7009288
120	0xbd844d28	-0.06460029
121	0x3f045920	0.51698494
122	0xbf091e3e	-0.5356177
123	0x3ef41e21	0.47679237
124	0x3d505871	0.050865594
125	0xbedf5bf0	-0.4362483
126	0xbe24cbe7	-0.16093408
127	0x3b8139b6	0.0039436473
128	0xbef3d320	-0.47622013
129	0x3f0d3d64	0.551718
130	0x3f16ca56	0.5890249
131	0x3eac1f83	0.33617792
132	0x3ed88192	0.42286354
133	0xbccf5e35	-0.025313476
134	0x3e98f053	0.29870853
135	0xbf09b580	-0.5379257
136	0xbeca0d1e	-0.39463133
137	0x3f07b3f1	0.53008944
138	0x3ebc09e1	0.36726287
139	0x3f270f04	0.6525729
140	0xbf0303d2	-0.51177704
141	0x3e16681b	0.1468815
142	0x3ebd31dd	0.36952105
143	0x3efa03ad	0.4883093
144	0x3f045163	0.51686686
145	0xbf0485d8	-0.5176673
146	0xbedf3b48	-0.43599916
147	0xbefef5c7	-0.49796888
148	0xbeda7d02	-0.42673498
149	0xbf11428a	-0.56742156
150	0x3ebb236e	0.36550468
151	0xbc33a12d	-0.01096372
152	0xbe948f67	-0.29015657
153	0xbed066ab	-0.4070333
154	0x3ede2d49	0.43393925
155	0xbf07df33	-0.5307495
156	0xbe935128	-0.28772855
157	0x3f0b8fab	0.54516095
158	0x3f07f3bb	0.5310628
159	0xbe276e59	-0.16350688
160	0xbed093fa	-0.40737897
161	0x3f108814	0.5645764
162	0x3d110c44	0.035412088
163	0x3f0feb6c	0.562186
164	0x3f02a681	0.51035315
165	0xbf01bda9	-0.50680023
166	0xbefdabb5	-0.49545065
167	0xbeb8ac9e	-0.36069196
168	0xbedc3c60	-0.43014812
169	0x3ecb75cc	0.3973831
170	0x3e5d8140	0.21631336
171	0xbef57f27	-0.47948572
172	0x3e98f884	0.29877102
173	0xbebe9331	-0.37221673
174	0x3f0b9ed0	0.54539204
175	0xbec7fdd4	-0.39060843
176	0xbefc0760	-0.49224377
177	0x3f017b82	0.5057908
178	0x3f072aee	0.5279988
179	0x3eca6c04	0.39535534
180	0xbf095c7e	-0.53656757
181	0x3f03771e	0.51353633
182	0x3f023462	0.5086118
183	0x3f054a33	0.52066344
184	0x3e717d88	0.23583043
185	0xbef5ddf8	-0.4802091
186	0xbeb572e3	-0.35439214
187	0xbdcf63ed	-0.10126481
188	0xbef2262f	-0.47294757
189	0xbe4b8297	-0.19874035
190	0x3ed6d5eb	0.4196008
191	0x3e41aea3	0.18914275
192	0x3ed62803	0.41827402
193	0xbef4603c	-0.4772967
194	0x3ee558a2	0.44794184
195	0xbe603276	-0.2189425
196	0xbe28b1db	-0.16474096
197	0x3f00c628	0.5030236
198	0x3ebf51a5	0.37366977
199	0xbee181a5	-0.44044223
200	0xbee8a81c	-0.45440757
201	0x3ee2ec4b	0.44320902
202	0x3eea1857	0.45721695
203	0x3debd535	0.115152754
204	0x3dc99732	0.09843291
205	0xbef6b4db	-0.48184857
206	0xbf0536f7	-0.52036995
207	0xbecbe058	-0.39819598
208	0xbeecba28	-0.46235776
209	0xbed94e79	-0.42442682
210	0xbd041cb9	-0.032253955
211	0xbe98d036	-0.29846352
212	0x3ee5661b	0.44804463
213	0xbe6b1a5b	-0.22959273
214	0x3e47a0d9	0.19494952
215	0xbe217931	-0.15768887
216	0xbee3c3bd	-0.44485274
217	0x3ef01005	0.46887222
218	0x3ee960fe	0.45581812
219	0xbf0954e1	-0.5364514
220	0xbed6911a	-0.4190758
221	0x3ec8d467	0.3922455
222	0x3ed705c2	0.4199658
223	0xbddbe5e7	-0.1073721
224	0x3ec0ac24	0.37631333
225	0xbece9675	-0.40349165
226	0xbed36f8c	-0.4129604
227	0xbef4bd8d	-0.47800866
228	0xbce05097	-0.027382178
229	0xbedec5f4	-0.435104
230	0x3d7adffb	0.06124876
231	0xbeeb2528	-0.45926785
232	0xbd21b718	-0.039481252
233	0xbeba15d6	-0.36344784
234	0x3eefbc78	0.46823478
235	0xbeb04ff2	-0.34435993
236	0xbefcf9a5	-0.49409214
237	0x3ed9fe7e	0.42576975
238	0xbd3d10a4	-0.046158448
239	0xbeed62ee	-0.4636454
240	0xbe85d176	-0.2613637
241	0x3ebb3bb0	0.36568975
242	0x3eec2b28	0.46126676
243	0x3f0c9c61	0.54926115
244	0x3ea41163	0.32044515
245	0xbed63cf2	-0.41843373
246	0xbee8d884	-0.45477688
247	0xbeab9199	-0.3350952
248	0xbf000f2b	-0.50023144
249	0x3e9629d0	0.29328775
250	0x3f08d701	0.5345307
251	0x3e92fc19	0.2870796
252	0x3e9d306e	0.3070101
253	0xbf07f87c	-0.5311353
254	0x3ee07d2d	0.43845502
255	0xbec9c894	-0.3941084

item_embedding.weight f4 [3019, 20]
0	0x3ece2bdf	0.40267846
1	0xbebaac04	-0.36459363
2	0xbee7e24a	-0.45289832
3	0xbeddeb83	-0.43343744
4	0xbec0906d	-0.37610188
5	0x3ec3c569	0.3823655
6	0x3e9fef67	0.31237337
7	0x3edc7e63	0.43065175
8	0x3eb56136	0.3542573
9	0x3e06f3a5	0.1317888
10	0xbd717730	-0.058951557
11	0x3ef60392	0.480496
12	0xbe60db84	-0.21958739
13	0x3edc3ad2	0.43013626
14	0xbed412f6	-0.41420716
15	0x3ec44d0b	0.3834003
16	0x3d8797f9	0.06620783
17	0xbec49f36	-0.38402718
18	0xbec06a18	-0.37580943
19	0x3ee3a20f	0.44459578
20	0x3efd4b5c	0.49471557
21	0xbe795dc7	-0.2435218
22	0xbcb02c46	-0.021505486
23	0xbeb186c8	-0.34673142
24	0xbf088980	-0.5333481
25	0x3f028f76	0.51000154
26	0x3edd2786	0.43194216
27	0xbda64b38	-0.081198156
28	0x3debd0d2	0.11514439
29	0xbe625339	-0.2210206
30	0xbecc4894	-0.39899123
31	0x3ecaeca6	0.39633673
32	0xbed5cd88	-0.4175837
33	0xbe06bfad	-0.13159056
34	0xbec4f91f	-0.38471314
35	0x3f062660	0.52402306
36	0x3f0a70be	0.5407828
37	0xbe665e64	-0.22496945
38	0xbec04308	-0.3755114
39	0xbee74e64	-0.45176995
40	0x3ed435b6	0.41447228
41	0xbe232a52	-0.15934113
42	0xbed9f343	-0.42568406
43	0xbe44920b	-0.19196336
44	0xbed5a3a3	-0.41726407
45	0x3ecad856	0.39618176
46	0x3eb27365	0.34853664
47	0x3ea7dcaf	0.32785556
48	0x3ecb0861	0.3965483
49	0x3d600c2f	0.05469912
50	0xbee2b359	-0.44277456
51	0xbe99c4a5	-0.3003284
52	0xbedaf060	-0.42761517
53	0x3ed5f7a1	0.41790488
54	0xbeb6f620	-0.35734653
55	0x3ed582d5	0.4170138
56	0x3ed83411	0.42227224
57	0xbe8266a8	-0.25468946
58	0xbeedb159	-0.46424368
59	0x3e86b908	0.26313043
60	0x3e3e71b0	0.18598056
61	0xbe8039d3	-0.25044116
62	0xbea81bc9	-0.32833698
63	0x3e9afeb6	0.30272454
64	0xbe0e6803	-0.13906865
65	0x3e013d0a	0.12620941
66	0x3ebfbfb7	0.37450954
67	0x3ec0e156	0.37671918
68	0x3e23e166	0.16003951
69	0xbe069146	-0.13141355
70	0xbe117743	-0.14205651
71	0xbedf2241	-0.4358082
72	0xbdfa4718	-0.12220591
73	0xbe1f03ae	-0.15528747
74	0x3ebcadbf	0.36851308
75	0x3ce00091	0.02734402
76	0x3e39e34f	0.18153118
77	0xbeba0678	-0.3633306
78	0xbec067b6	-0.37579125
79	0x3deaad01	0.11458779
80	0xbe2a851b	-0.16652338
81	0xbe5e6f9a	-0.2172226
82	0xbe807d98	-0.2509582
83	0xbd98e8f9	-0.07466311
84	0xbea69775	-0.32537428
85	0x3efdc438	0.49563766
86	0x3e8cbf73	0.27489814
87	0x3ed9d728	0.42546964
88	0x3ee174c0	0.44034386
89	0xbe02295b	-0.12711088
90	0xbedee1fc	-0.43531787
91	0xbecd24c9	-0.40067127
92	0xbed3b882	-0.41351706
93	0x3e174e28	0.14775908
94	0x3c961598	0.018320844
95	0x3e32d632	0.17464522
96	0x3e98304e	0.29724354
97	0xbeebd4f3	-0.46060905
98	0xbef4b8bd	-0.47797194
99	0x3ea6ce97	0.3257949
100	0xbe9e4958	-0.30915332
101	0xbed9f420	-0.42569065
102	0x3f17042a	0.5899073
103	0x3e70a154	0.23499042
104	0x3ed4518d	0.41468468
105	0xbea6f263	-0.326068
106	0xbe80764c	-0.25090253
107	0xbe2a01bf	-0.16602229
108	0xbea0bb7e	-0.31393045
109	0x3ef51944	0.4787084
110	0x3f0fd075	0.56177455
111	0x3f262cb4	0.6491196
112	0x3f010c57	0.50409454
113	0x3d054eca	0.032545842
114	0x3eb4109d	0.35168925
115	0xbeb7815d	-0.35840884
116	0xbd540911	-0.05176646
117	0xbf0d35b1	-0.5516005
118	0xbeab1be5	-0.3341972
119	0xbf083eac	-0.5322063
120	0xbf00021f	-0.50003237
121	0x3ed73d90	0.42039156
122	0x3ef0ff01	0.47069553
123	0x3d9ba554	0.07599893
124	0x3eb5aeea	0.3548501
125	0xbf084fc1	-0.53246695
126	0xbf052116	-0.5200361
127	0xbef2d2e5	-0.47426525
128	0xbef61df9	-0.48069742
129	0xbeb6d56d	-0.35709706
130	0x3f02c23c	0.5107763
131	0x3ee6b64f	0.45060965
132	0x3ef209f7	0.47273228
133	0xbef84961	-0.48493484
134	0x3ec41365	0.38296047
135	0xbef8333a	-0.48476583
136	0xbec5b6e1	-0.38616088
137	0x3f033867	0.5125794
138	0x3ed10dcf	0.40830848
139	0x3e9b56bf	0.3033962
140	0x3df24fb6	0.1183161
141	0x3ea532cb	0.32265314
142	0xbeb4ce5d	-0.35313693
143	0x3e0296b8	0.12752807
144	0xbed18eca	-0.40929252
145	0x3aa56f04	0.0012621586
146	0xbea735cf	-0.3265824
147	0x3e38f4f1	0.18062188
148	0x3e872074	0.26391947
149	0xbcf95eb8	-0.030440673
150	0xbe9e5a29	-0.30928162
151	0x3ed7adf2	0.42124897
152	0x3de37eb2	0.111081496
153	0x3dc63785	0.09678558
154	0xbeb58ae9	-0.35457543
155	0xbe32595f	-0.17416905
156	0xbd147b54	-0.036250427
157	0x3e94cb12	0.2906118
158	0xbef76e89	-0.4832652
159	0x3dd6626b	0.104679905
160	0x3e901af7	0.28145573
161	0xbed6f2cf	-0.41982123
162	0xbe7ab705	-0.24483879
163	0xbe39c9df	-0.18143414
164	0xbec74720	-0.38921452
165	0x3ecd45af	0.40092227
166	0x3eaa9c3a	0.33322316
167	0x3ec0a84d	0.37628403
168	0x3ecc0a84	0.39851773
169	0xbd2e0fbd	-0.042495478
170	0xbeda4cc6	-0.42636698
171	0xbe43f9c0	-0.19138241
172	0xbe8a5d91	-0.2702451
173	0x3deb8b59	0.11501188
174	0xbeb1ad2c	-0.34702432
175	0x3eb9f68d	0.36320916
176	0x3ec1bb0a	0.37838012
177	0xbecce484	-0.40018094
178	0xbedbe001	-0.4294434
179	0xbe27ec47	-0.16398726
180	0x3ee965f9	0.4558561
181	0x3dbccda4	0.0921891
182	0x3e84bbd3	0.25924549
183	0x3efe9212	0.49720818
184	0x3d6c27f7	0.0576553
185	0x3e92e878	0.28692985
186	0x3ed06c84	0.4070779
187	0xbeaeb441	-0.34121898
188	0x3eb0e1e2	0.34547335
189	0x3dbee02d	0.09320102
190	0xbeb32441	-0.34988597
191	0x3e955b1c	0.29171073
192	0x3e4d3347	0.20039092
193	0xbf04a37d	-0.51811963
194	0xbeb2dfaf	-0.34936282
195	0x3f05ee74	0.52316976
196	0x3efb1ce7	0.49045488
197	0x3dda5d59	0.10662336
198	0xbef60ba0	-0.48055744
199	0xbf059e7d	-0.5219496
200	0xbe026b9d	-0.12736364
201	0xbe64f7ff	-0.22360228
202	0xbd80177f	-0.062544815
203	0xbec8dcdd	-0.39231005
204	0xbeb6851d	-0.35648432
205	0x3ed5cacc	0.41756284
206	0xbcdc69ad	-0.026905859
207	0x3e8bbcf6	0.27292603
208	0x3d80737b	0.06272026
209	0xbe8b385d	-0.2719144
210	0x3e27b361	0.16377021
211	0x3ea73ab1	0.32661965
212	0xbac46a19	-0.0014985233
213	0x3ebbe35c	0.366969
214	0xbd9979a3	-0.074939035
215	0x3d0f5ec6	0.035002492
216	0x3e879870	0.26483488
217	0xbdbbaf41	-0.091642864
218	0x3ee4037a	0.44533902
219	0x3eda674c	0.42656934
220	0x3eb9bc34	0.362764
221	0xbe904c46	-0.28183192
222	0xbec0c915	-0.37653413
223	0xbedd91bc	-0.4327525
224	0xbdf8d601	-0.12150193
225	0x3e412eab	0.18865459
226	0x3ee0ad4f	0.43882224
227	0x3e567c34	0.20945817
228	0x3eb70b99	0.35751036
229	0xbe6e9d96	-0.23302302
230	0xbdad8c33	-0.084740065
231	0x3ee91563	0.4552413
232	0x3d949aa1	0.072560556
233	0x3e866782	0.26250845
234	0xbeacf8d3	-0.33783588
235	0x3e988298	0.29787135
236	0x3ea94be6	0.33065718
237	0xbea8385d	-0.32855502
238	0x3d82879e	0.06373523
239	0xbd53808d	-0.051636267
240	0x3eba57bf	0.3639507
241	0xbe5d1774	-0.21590978
242	0xbee4e16e	-0.4470324
243	0xbec6c577	-0.3882253
244	0xbed6a0dc	-0.419196
245	0x3e9f350e	0.31095165
246	0x3edcea25	0.43147388
247	0x3eedfe27	0.46482965
248	0x3edb8724	0.42876542
249	0xbd0a4b4c	-0.033763215
250	0xbedb3b90	-0.4281888
251	0x3e4f6ffe	0.20257565
252	0xbef1de80	-0.47240067
253	0x3e72f4f9	0.23726262
254	0xbed9bf98	-0.42528987
255	0x3ec8f76d	0.3925127
