best_para_path/baseline_ciao100.10.20.70.250.251.020.00.5_p10_sum20lightgcn_explicit_seed0_ex1_2_0.001_1e-06.pt (torch, 446719 bytes, 2 tensors)

user_embedding.weight f4 [2541, 20]
00000000: 954d 44bf 06ba 313f f6be 483f 2d69 a53e
00000010: 325b 303f 9ddf 17bf 1bad 23bf 5e50 35bf
00000020: 01dc 45bf fba1 2d3f d23a 6a3f d9a9 933f
00000030: 1f7e da3c eca5 47bf 884f 62bf 974f edbe
00000040: af0b 41bf 3853 833f c1d5 f43e 75fb 71bf
00000050: 1861 43bf 3528 f03e c0ca c03e f70c 753e
00000060: 068a 793e 4212 33bf 0325 8dbe f7ee 4bbf
00000070: e4f7 3fbf 248c 923e aa8d 773f 27e8 34bf
00000080: e8b3 42bf ce0a 61bf a00f 8ebf faba 16bf
00000090: 9a89 fdbe a461 133f ff63 323f 463f 3abf
000000a0: 888a 85bf fc0f 3d3d 405c 463f 8f68 8f3e
000000b0: cf5d 7f3f cb82 57bf 69a3 47bf fa8c 35bf
000000c0: 8db3 adbe b54d 38be 2852 693f fcfc ab3f
000000d0: f301 a5bd 849f 7dbf 4cc6 76bf 7eb4 22be
000000e0: 8d53 7dbf c9b0 673f 0f39 363f 7152 6cbf
000000f0: 9cc4 46bf 2192 433f b353 353f 58c6 82bf
00000100: 0770 e63e d80e 33bf 61ed 86be dba9 ccbe
00000110: c284 4bbf 75d1 393f c195 773f 2d6c 8bbf
00000120: 0cc5 4dbf 62e3 63be 4ea8 8dbe 28aa 46be
00000130: 273d 213f c1f3 c93e 927e e23e 4cf5 30bf
00000140: 71df acbe b91b 0f3f de6d d53e a7de 58bf
00000150: 0a37 063f fe79 43bf e74c 3fbf a8cb 9bbe
00000160: 554c e7be b359 563f ed59 753e e069 a03e
00000170: e8d1 4ebf 4420 42bd ff22 363f 3b12 6abf
00000180: 4aed 00bf 0e78 103f 5f47 3e3f aa80 2bbf
00000190: 6742 4cbf e80d 343f 6d8b c83e 87c3 213e
000001a0: c354 d13e ad14 d5be 7bd2 f0be 2e1e d1be
000001b0: 034e 39bf 0543 8a3e 1bc1 3d3f 8c90 2fbf
000001c0: d0f7 5ebe a9ae 5dbf 27e5 53bf c19e 49bd
000001d0: dbfc 27bf a26d 783f 59f7 ef3e 007f 2abf
000001e0: d2f2 263e eae5 4c3f c41d 8c3f 3b9f 86bf
000001f0: 52a5 493f bc95 c3be c007 4bbf 583b 12bf
00000200: 90a8 8dbe a9ca 763f d6b0 ac3e cc93 4abe
00000210: cf2e 19bf abc6 913e 48ce 95bf bcb0 6cbf
00000220: 6e98 69bf 8249 7f3f daf9 033f 18fd c8be
00000230: a87c 56bf e6c4 5b3f 231f 653f 6c5d 3ebf
00000240: 37bd 703f b116 6fbf 003d 57bf 6e56 74bf
00000250: 5a03 49bf 0174 283f 9311 563f 1c8c 93bf
00000260: 8fd5 7bbf a2b5 c9be 0c61 89bf be5a 49bf
00000270: 4b78 29bf 68d9 7e3f 41bf 653f e261 53bf
00000280: d6a0 35bf cdc5 663f 72b1 4e3f 5fc7 4ebf
00000290: 35b3 5d3f 2743 43bf 7d9a 4abf d1c8 3abf
000002a0: 9915 58bf 9d1b 793f c8d4 ee3e b328 82bf
000002b0: cc38 81bf 6077 3bbf a841 5c3f ba15 47bf
000002c0: 38df 52bf d042 443f 5273 683f 83af 16bf
000002d0: 0b9b 54bf f4f9 503f 0c24 af3e 52ea b73e
000002e0: b0b9 353f fa38 20bf c406 5fbe 63a3 13bf
000002f0: 386e 60bf 4917 333f b62d 5d3f 7398 71bf
00000300: 2c8f 00bf 0282 80bf 7213 323f e3e1 87be
00000310: 9628 053e 4e5e 4e3f aad3 a63e fad1 43bf
00000320: 0980 39bf b4ee 2f3f 3b68 833f f174 4abf
00000330: 39a3 e63e ef39 25bf 19d6 55bf 7822 3abf
00000340: d39c 3dbf 1a0d 343f 4199 383f 7cc0 e23d
00000350: ccfc 6abe b329 80bf 351a a3bf 9e5a 41be
00000360: b44d 7bbf a5bc 5d3f a962 553f 9983 35bf
00000370: 2855 22bf 28f1 183f bec7 db3e 86f6 63bf
00000380: 4e2a 063e bd88 f5be d705 1fbf cdac 1dbf
00000390: 2810 91be 8427 b43e 5831 aa3d df65 7dbf
000003a0: e097 19bf 3bd8 c2be aa84 11be f5e3 5ebf
000003b0: 4c33 21bf f520 333f c238 e33e 731f 39bf
000003c0: da7f 1abf d94a 313f 884e 363f 269d e7be
000003d0: b99a 1e3f 2437 24bf c929 3dbf b782 2fbf
000003e0: f7c9 16bf ed85 5c3f da56 543f ae4c 46be
000003f0: 9546 49bf 5a0e 89bf 5ca8 44bf d25a 4abf
-0.7668088 0.69424474 0.78416383 0.32306805 0.68889153 -0.5932558 -0.63936013 -0.70825756
-0.77288824 0.6782529 0.91496 1.1536208 0.026671467 -0.7798755 -0.88402605 -0.46349785
-0.7540845 1.0259771 0.4781933 -0.9452432 -0.7632003 0.46905676 0.37654686 0.23930727
0.24369058 -0.69949734 -0.275673 -0.79661506 -0.74987626 0.28622544 0.9670054 -0.70666736
-0.76055765 -0.8790711 -1.1098518 -0.58879054 -0.49519044 0.5757086 0.6968383 -0.727528
-1.0432901 0.046157822 0.7748451 0.2800946 0.99752516 -0.8418395 -0.7798372 -0.7091824
-0.3392605 -0.17998393 0.91140985 1.343658 -0.080570124 -0.99071527 -0.96396327 -0.15889165
-0.98955613 0.9050413 0.71180815 -0.92313296 -0.7764375 0.7639485 0.7083084 -1.021678
0.45007345 -0.69944525 -0.2635298 -0.3997334 -0.7949945 0.7258523 0.9671288 -1.0892388
-0.80378795 -0.22254708 -0.2766747 -0.19400847 0.62983936 0.39443782 0.4423719 -0.69124293
-0.33764222 0.55901676 0.41685385 -0.8471474 0.5242773 -0.7635802 -0.7472672 -0.30428815
-0.45175424 0.8373062 0.23960085 0.31330776 -0.8078904 -0.047394052 0.7114715 -0.9143407
-0.50362074 0.5643319 0.74327654 -0.669932 -0.7978882 0.7033372 0.39168873 0.15797244
0.4088498 -0.41617337 -0.47035584 -0.40843338 -0.7238466 0.27004257 0.7412278 -0.68579936
-0.2177422 -0.86594635 -0.82771534 -0.049223665 -0.656202 0.97042286 0.468684 -0.66600037
0.16303566 0.8003832 1.0946584 -1.0517343 0.78767884 -0.38200176 -0.793087 -0.571218
-0.27667665 0.96402985 0.33728665 -0.19782943 -0.5983705 0.28471884 -1.1703577 -0.92457175
-0.91248214 0.9972154 0.5155312 -0.39255595 -0.8378396 0.8584732 0.89500636 -0.743613
0.9403872 -0.93394 -0.84077454 -0.9544438 -0.7852074 0.6580201 0.83620566 -1.1527133
-0.9837274 -0.39396387 -1.0732741 -0.78654087 -0.6619918 0.99550486 0.89744955 -0.8257123
-0.7094854 0.9014557 0.8073951 -0.80772966 0.86601573 -0.7627434 -0.7914198 -0.7296267
-0.84407955 0.9730776 0.46646714 -1.016867 -1.0095458 -0.73229027 0.86037683 -0.7776753
-0.82371855 0.7666445 0.90800965 -0.5886156 -0.83049077 0.816314 0.3420719 0.3592096
0.7098646 -0.6258694 -0.21779925 -0.57671183 -0.8766818 0.69957405 0.86397874 -0.94373244
-0.5021846 -1.0039675 0.6956092 -0.26539525 0.13003764 0.8061265 0.32583362 -0.76492274
-0.7246099 0.6872361 1.0266184 -0.7908469 0.45046404 -0.64541525 -0.8352981 -0.72708845
-0.7406742 0.7033249 0.72108847 0.1107187 -0.22947997 -1.0012726 -1.2742373 -0.18882224
-0.9816544 0.86615974 0.8335367 -0.7090393 -0.6341119 0.59742975 0.4292583 -0.8904804
0.13102075 -0.47955886 -0.62118286 -0.615918 -0.2833264 0.35186398 0.08310193 -0.9898357
-0.5999737 -0.38055596 -0.14210764 -0.87066585 -0.629689 0.69972163 0.4437924 -0.7231361
-0.60351336 0.69254833 0.7121358 -0.45237082 0.6195484 -0.6414664 -0.73891884 -0.6855883
-0.58901924 0.86141855 0.82945025 -0.19365188 -0.78623325 -1.0707505 -0.76819396 -0.7904483

item_embedding.weight f4 [3019, 20]
00000000: bd22 5f3f a6eb 49bf ff0c 6fbf f932 573f
00000010: c288 67bf 8520 593f 2435 353f 35ce 783f
00000020: 26f5 403f 4e19 52bf 896d 41bf f797 943f
00000030: b8fd 593f 3aa1 5e3f cab5 613f 269d 463f
00000040: 7677 1c3f 7815 5bbf a9e5 53bf a490 383f
00000050: d2f9 3a3f 164f 84bf c0a9 87bf df18 8c3f
00000060: ca34 4fbe 7cd6 793f 31ad 883f d134 133f
00000070: df63 593f 3bee 6ebf fb79 193d 25bc d8be
00000080: 3bca 8d3f 05cd 2bbf cfe6 6b3f 6d06 7c3f
00000090: 78bc 7f3f 28a7 983e 4796 88bf ba55 21bf
000000a0: 7145 663f d673 5fbf 13c4 5cbf cc6a 553f
000000b0: bad0 64bf 4b0f 5f3f cb38 503f 5033 683f
000000c0: cbcd 693f b6d9 67bf 48c8 71bf d1dc 973e
000000d0: de1f 683f 36ef 513f c923 5d3f 1576 663f
000000e0: 24ea 4f3f e0ad 59bf 4ec1 74bf dee0 593f
000000f0: 9c9a 3bbe a629 41bf 0b88 74bf 93e1 7d3f
00000100: a74a 0bbe d015 093f 5340 5a3f 0523 2b3f
00000110: 2a9f 11be 4fb2 55bf 3644 013f 7744 8bbf
00000120: d404 9ebe a250 85bf 991f 883f 8ce2 3d3e
00000130: dc1c 7f3f 36d6 a3be a7c7 3cbf 9549 77be
00000140: ec1b 223f 24c1 56bf b814 28bf 9b89 d63e
00000150: 130c 09bf d658 873f c0ca 763f 0cd4 883f
00000160: dbdd 343f 2e92 1ebf 40a0 81bf 020d db3e
00000170: ef32 2c3f 3b4c 163d 785c 923f fb20 0a3f
00000180: c498 163f 37eb 7cbf 6b12 5abf d95e 3f3f
00000190: 1329 7a3e c5c7 16bf e38f bbbe fa06 3f3f
000001a0: a01b abbe 907b 923e 9cf1 9c3e efce a93e
000001b0: a2f7 d13e 5387 663d 8a4a d9be 612d b93f
000001c0: c5bc 273f 7fc0 f73d de0b b0be d2f1 c23d
000001d0: c197 bd3e d879 3cbf 7eb0 a6be 5e84 be3e
000001e0: 8962 4cbf 0a68 193f a56d 233f 9600 37bf
000001f0: c782 363f 66af 1bbf 41c8 27bf c8a5 3ebf
00000200: 0842 38bf b087 1c3f 6124 533f f23e ba3e
00000210: 552b 20bf 1823 30bf 0196 2dbf 701e 1cbf
00000220: db06 14bf 6d70 4b3f 48d3 353f 9944 35bf
00000230: 274e 4d3f 6c71 2ebf 1830 32bf ec0d 77bf
00000240: 779e d7be c7ad 633f 700c df3d 0de3 2e3f
00000250: 13b8 513f e3c2 01bf 1d0d 00bf 15f3 52bf
00000260: 9b61 a03e 019a 0d3e 6c37 293f 9300 813e
00000270: 2210 bb3d 12f1 32bf 44be 66bf acf1 853f
00000280: 4c5f 5f3f a988 67bf 196e 55bf e347 573f
00000290: bc1d 54bf 063c 5c3f f66a 5e3f fc57 543f
000002a0: eec7 543f 6e6c 68bf b3c3 4cbf f104 acbe
000002b0: e69c 6d3f 46ca fa3e e5c8 5b3f 1bb3 5b3f
000002c0: c01f 603f 226f 55bf 6d2b 71bf afd2 3b3f
000002d0: 702f 60bf fc43 14bf 9733 75bf c4ac 763f
000002e0: c68b 5f3f 11aa 253f bc39 763f 679a 2abf
000002f0: 3420 04bf 433e 08bd fa4d 803f 8816 74bf
00000300: 2361 6b3f b598 7ebf 2f44 753f 364d 5a3f
00000310: 249e 733f 0866 6c3f e876 3abf 8bd0 80bf
00000320: e444 bcbe 9a62 95be 2a3a 9dbf f134 25be
00000330: 4198 64bf b9de 313f 1d1b bbbe cb03 1b3f
00000340: 0f87 fcbe 6875 a5bf 7b62 13bd eba5 babd
00000350: fea1 76be 07d1 78bf 0843 e5be 0ca1 c0be
00000360: cead 983f 1276 cabe 8d90 893f b600 103f
00000370: cf2e 343d df41 53bf 2bde 6bbf f270 573f
00000380: 117c bfbc 9d13 683f fa8f 773f 18ee 3a3e
00000390: b78b 1a3f 79db 55bf a9ee 9f3e af72 933f
000003a0: 9e84 2c3f ab06 3abf 8bc0 d63e 7b08 613f
000003b0: f6f2 683f fcfe cebd cf47 2fbf d8c6 623d
000003c0: 3c58 6d3f 8287 63bf eac1 55bf 3a03 483f
000003d0: fa9d 6fbf a9bd 583f 2620 5c3f f62f 6d3f
000003e0: 571e 6f3f 4936 65bf 5650 72bf c069 6c3f
000003f0: 5cef 4f3f 673f 6c3f d06d 2f3f 4769 5e3f
0.8716238 -0.78875196 -0.93379205 0.84062153 -0.9044305 0.84815246 0.7078421 0.97189647
0.75374067 -0.8206986 -0.7555776 1.1608876 0.8515277 0.8696476 0.88168013 0.7758354
0.6111978 -0.85579634 -0.8277231 0.72095704 0.73037446 -1.0336635 -1.0598679 1.094509
-0.20234981 0.975929 1.0677854 0.57502466 0.84918016 -0.9333226 0.037469845 -0.42331043
1.1077341 -0.6710971 0.9214906 0.98447305 0.99896955 0.2981503 -1.0670861 -0.63021433
0.8994971 -0.87286127 -0.86236686 0.83366084 -0.8938099 0.8713271 0.8133666 0.90703297
0.9132964 -0.90566576 -0.9444623 0.29660657 0.90673625 0.8200563 0.8638273 0.9002393
0.81216645 -0.8503094 -0.9560746 0.85108745 -0.18320698 -0.75454175 -0.95520085 0.99172324
-0.13602696 0.5354891 0.852544 0.6685031 -0.14220873 -0.834752 0.50494707 -1.0880269
-0.3086306 -1.0415232 1.0634643 0.18543452 0.9965341 -0.31999367 -0.73742145 -0.24149163
0.63323855 -0.8388846 -0.65656614 0.4190186 -0.5353405 1.0573986 0.9640312 1.0689712
0.70651025 -0.619418 -1.012703 0.42783362 0.6726522 0.036693793 1.1434469 0.53956574
0.5882685 -0.9879641 -0.85184354 0.747541 0.24429731 -0.58898574 -0.36633214 0.7462002
-0.33419514 0.28609896 0.30653083 0.3316569 0.4100924 0.0562814 -0.4243968 1.4466974
0.65522414 0.120972626 -0.34384054 0.0951878 0.37029842 -0.7362342 -0.32556528 0.37210363
-0.7983785 0.59924376 0.6383918 -0.7148527 0.712933 -0.6081451 -0.6553994 -0.7447171
-0.71975756 0.6114454 0.82477385 0.36376148 -0.6256612 -0.6880355 -0.6780701 -0.60983944
-0.5782296 0.79468423 0.71025515 -0.70807797 0.80197376 -0.6814182 -0.69604635 -0.9650562
-0.42113087 0.8893704 0.10891044 0.683152 0.819215 -0.50688 -0.5002001 -0.82402164
0.31324467 0.13828279 0.6610019 0.2519575 0.091339365 -0.69899094 -0.9013407 1.0464377
0.87254786 -0.904429 -0.8337112 0.84094065 -0.8285787 0.8602909 0.8688196 0.82946754
0.8311757 -0.9079045 -0.79986113 -0.3359752 0.92817533 0.48982447 0.85853416 0.8582017
0.87548447 -0.833727 -0.9420689 0.7336835 -0.87572384 -0.57916236 -0.95781845 0.9635737
0.8732265 0.64712626 0.96181846 -0.6664185 -0.5161164 -0.033262502 1.0023797 -0.9534688
0.91945094 -0.9945176 0.95807165 0.85274065 0.9516318 0.9234319 -0.72837687 -1.0063642
-0.3677131 -0.2917679 -1.2283375 -0.16133477 -0.8929482 0.6948047 -0.36544123 0.6055266
-0.49321792 -1.2926455 -0.03598259 -0.091136776 -0.24085233 -0.9719395 -0.44777703 -0.3762287
1.1928041 -0.39543205 1.0747238 0.56251085 0.043989953 -0.82522386 -0.92135876 0.84156716
-0.02337459 0.9065493 0.96704066 0.18254888 0.6036944 -0.83538014 0.3123677 1.1519374
0.6738986 -0.72666425 0.41943774 0.87903565 0.9099573 -0.10107228 -0.68468946 0.055365413
0.9271276 -0.88878644 -0.83499014 0.78129923 -0.9360043 0.846644 0.85986555 0.9265131
0.9340567 -0.8953596 -0.9465383 0.9234886 0.8122461 0.92284244 0.68526936 0.8687939
