best_para_path/baseline_ciao100.10.20.70.250.251.05.00.5_p10_sum20diffnet_explicit_seed0_ex1_2_0.001_1e-05.pt (torch, 446711 bytes, 2 tensors)

user_embedding.weight f4 [2541, 20]
000000 0a 76 ae 3e 13 7d 30 3f e2 7b e8 3e 59 52 e1 bd
       0.34074432 0.6894085 0.45407015 -0.11002035
000010 87 84 92 3e 54 ba 92 3e 73 5b 30 bf f0 3f 85 be
       0.28616735 0.28657782 -0.6888954 -0.26025343
000020 69 a1 c9 3d 02 61 61 3f 4c c1 3a 3f 3f a4 f5 3c
       0.0984524 0.8803865 0.729512 0.029985545
000030 2b cb 23 3f a4 4e 2c 3d 6d 61 86 be 01 c5 81 be
       0.63981885 0.042067185 -0.26246205 -0.25345615
000040 25 51 75 be c0 0d 0a bd b2 85 01 3f f1 4a 88 bd
       -0.23956735 -0.03370452 0.5059463 -0.06654919
000050 3b 78 30 be be 90 2a 3f b4 2f b5 3e c1 e5 a0 3e
       -0.17233364 0.6662711 0.35387957 0.31425288
000060 9e 1a 50 bd 85 08 e7 3d 43 f8 0e bf 7c ef cd be
       -0.050806634 0.11280922 -0.5584757 -0.40221775
000070 ac ee b1 be 66 97 1e 3f ba e9 34 3f ed d1 8c bd
       -0.34752405 0.61949766 0.7066914 -0.06875978
000080 b3 3b 04 3f 5e df fc bd b6 90 37 bd d1 0d 34 3e
       0.51653594 -0.123472914 -0.04481574 0.17583396
000090 fe 30 4a 3d 08 54 4d 3e d0 d5 a4 3e 83 57 1b be
       0.04936313 0.20051587 0.32194376 -0.15170102
0000a0 4f ff 56 3d 69 0b 45 3e 13 ef 9e 3e 2b 55 6a 3d
       0.052489575 0.19242634 0.31041774 0.05721013
0000b0 18 21 a6 3e 5b 33 d9 be dc de 0a bf 4c fe af be
       0.32447124 -0.42421994 -0.54246306 -0.343737
0000c0 cb c7 76 be ea 37 12 3e 29 47 2b 3f c4 cc 72 3e
       -0.24099652 0.14279142 0.66905457 0.23710924
0000d0 15 09 96 3e 52 09 11 be fb 45 01 be 3d 1e 26 3e
       0.29303804 -0.14163712 -0.12624352 0.16222472
0000e0 b1 30 12 3d 68 fc bd 3e 4e f1 25 3f 97 57 9f bd
       0.035690967 0.37106633 0.64821327 -0.07780378
0000f0 b7 67 0e bd 15 1a a5 3e d8 d9 ca 3e e6 bd 4a 3e
       -0.03476688 0.32246462 0.39619327 0.19799003
000100 67 8a 98 3b de bc 1c bf 89 5e d8 be be ce c2 be
       0.0046551707 -0.6122569 -0.42259625 -0.38048357
000110 76 0c d2 be 77 a8 2e be 62 53 21 3f 4c 79 f7 bc
       -0.41025132 -0.17056452 0.6301786 -0.030209206
000120 85 a1 d8 3c 39 7d 60 3e dc 5e 16 be f6 ef 98 3d
       0.026444206 0.21922769 -0.14684623 0.07467644
000130 77 10 8c 3e 9a b0 ce 3e 98 f3 1c 3f 1c 5a 66 3d
       0.27356312 0.4036911 0.61309195 0.05623828
000140 17 77 9d be dd 72 cb 3e 3a 7b c7 3d 8e 25 0a 3f
       -0.3075492 0.3973607 0.097403005 0.53963554
000150 39 d5 1c 3f 5e 71 16 bf c8 0d 7a be 86 57 4f 3d
       0.6126285 -0.58766735 -0.2441932 0.05062058
000160 3d f1 9a be ed c4 d4 be f2 8c 01 3f 98 5b bb bd
       -0.30262175 -0.41556492 0.5060569 -0.091483295
000170 3c 7f 2f bc ee ec 77 be f6 52 fe 3e 97 8b b7 be
       -0.010711487 -0.24211475 0.4967267 -0.35848686
000180 bc 14 a2 3e 51 f3 0a 3f e4 44 1b 3f e8 e1 ac be
       0.31656444 0.5427752 0.60651994 -0.33766103
000190 eb ca b2 bc 93 c1 17 3f 0c 78 4c 3e da df 93 3e
       -0.021825274 0.59279746 0.19967669 0.28881723
0001a0 13 72 ee 3e 50 d5 25 be 53 22 7b be 05 0d fd be
       0.46571407 -0.16194654 -0.24524812 -0.49423996
0001b0 bb 5e c0 3b cf 26 4e 3f 03 ed 23 3f ac b3 8a 3e
       0.0058706678 0.8052797 0.64033526 0.27090204
0001c0 34 c6 4b 3e 12 0d b1 be d3 43 b7 be 6a 25 2d bb
       0.19899827 -0.34580284 -0.35793933 -0.0026420006
0001d0 c5 3e ec 3d 36 bc ba 3e 23 2c 14 3f eb 5c a0 be
       0.1153541 0.3647172 0.5787985 -0.3132089
0001e0 d1 19 59 3e 80 fa 34 3f e6 44 44 3e 91 98 88 3e
       0.21201254 0.7069473 0.19166908 0.266789
0001f0 3f cb 2b 3f 8d ab 9c be a4 49 ad be 3c 2e 90 3d
       0.67107004 -0.30599633 -0.33845246 0.070400685
000200 3a cf 3f bd d0 b0 75 bd 7d c1 c4 3e b2 c3 f8 3d
       -0.046828486 -0.059983075 0.3842887 0.12146701
000210 21 98 67 bc f7 b6 7f bd 3c 02 5f 3d cf b6 80 be
       -0.014135391 -0.06243035 0.05444549 -0.25139472
000220 62 c7 d1 3e e8 1e de 3e 5f 93 1b 3f 1f b6 83 bd
       0.4097243 0.43382955 0.60771745 -0.06431221
000230 05 87 b8 be 5a 16 42 bd 0e 7d 8b 3e fe ab cb 3e
       -0.36040512 -0.047384597 0.27243847 0.39779657
000240 73 ca c0 3e 8b c9 5f be 89 a3 c2 bd 30 4b 03 bf
       0.37654456 -0.21854226 -0.09503848 -0.512866
000250 4b 1f c4 3d 2a c3 88 be d2 fc 03 3f 65 18 16 bf
       0.09576281 -0.26711398 0.5155765 -0.58630973
000260 8d d1 bb 3e 03 c0 be be 2f 23 c9 3e 8e bc 53 be
       0.36683312 -0.37255868 0.39284655 -0.20677397
000270 a2 b5 72 3e cd df 21 3f 9b 04 22 3f 81 13 cd be
       0.237021 0.6323212 0.6328828 -0.40053943
000280 9c 6a 0c 3e 15 40 91 3d 67 c8 1b bf 22 0e 10 3f
       0.13712543 0.07092301 -0.60852665 0.56271565
000290 83 bf 24 3f 3a 80 9c be 3a fc a5 3e ae 3b dd 3e
       0.64354724 -0.3056658 0.32418996 0.43209594
0002a0 82 c2 29 bf dc 60 fe be ed 35 c1 be 6a 6e d2 be
       -0.6631242 -0.49683273 -0.37736455 -0.41099864
0002b0 01 bf 1e be 84 15 be 3e 93 ea 3b 3f 94 8c 08 bf
       -0.1550255 0.3712579 0.73404807 -0.53339505
0002c0 91 79 99 3e 12 e5 cc 3e 5a 58 28 3f 5a 23 6f be
       0.2997556 0.40018517 0.65759814 -0.2335333
0002d0 2b d4 d3 be d3 0b e0 3e 4f 85 09 be a4 7e 21 3f
       -0.4137281 0.4375902 -0.1342976 0.63083863
0002e0 5f 38 81 3e 6f 6d 83 be ce 09 d6 bd 8c b9 3d be
       0.2523832 -0.2566943 -0.10451089 -0.18527812
0002f0 f8 fb d3 be 9c 83 29 3d 59 6f 32 3f 5e 4f 67 be
       -0.41403174 0.041385278 0.69701153 -0.2258887
000300 f2 db d8 3e 09 66 0f bf f2 25 91 3e 76 a8 40 3e
       0.42355305 -0.5601507 0.28349262 0.18814263
000310 62 a6 0d 3c 9f a6 f6 3e 95 a8 d6 3e 6e 93 27 bf
       0.008645626 0.48173997 0.41925493 -0.65459335
000320 f8 87 2f be 2a 19 15 3f 19 70 ed bd d2 6b 08 3e
       -0.17141712 0.5824152 -0.115936466 0.1332238
000330 5c a1 31 3e 81 d3 42 be 91 7a f7 be cc 76 f0 bd
       0.1734671 -0.19025995 -0.48335698 -0.11741409
000340 e0 25 92 3e fa 47 d4 3c f6 71 2c 3f dd 70 38 3e
       0.2854452 0.025913227 0.6736139 0.18011804
000350 3e 89 fb 3e 01 3d 72 be 63 e3 c1 be 65 a8 01 3f
       0.49128145 -0.23656084 -0.37868795 0.50647575
000360 19 e2 81 3e 32 ff f2 3d fd 66 20 3f 5c 18 df be
       0.2536781 0.11865081 0.6265715 -0.43573272
000370 f6 f5 6d bc 15 f5 12 3f 3b a5 d9 3e 53 06 08 3e
       -0.014523974 0.57405216 0.42508873 0.13283662
000380 09 02 01 3f 2d f1 f2 be af c4 e9 be e4 ff 08 bf
       0.5039373 -0.47449628 -0.4565787 -0.5351546
000390 6d 0e 05 be e0 19 17 3f 94 55 df 3e 68 65 0b bf
       -0.12993784 0.5902386 0.43619978 -0.5445161
0003a0 f9 94 5e 3e a9 05 9a bc 86 94 29 3e 3c 6f ee bd
       0.21736516 -0.018801527 0.16560563 -0.1164231
0003b0 40 56 48 be eb bd 32 3d 21 f2 88 3e b6 1e b8 be
       -0.19564152 0.04363815 0.2674723 -0.3596093
0003c0 f1 28 86 be 76 fb ec 3e 29 57 a0 3e cd 1b cf 3e
       -0.2620311 0.462856 0.31316498 0.40450898
0003d0 4b fe 68 3e ec 4b 5d be 06 ed d0 be d0 d5 1a be
       0.22753255 -0.21610993 -0.40805835 -0.15120625
0003e0 cd 73 06 be 46 da 3c 3f b3 fd 1d 3f e6 f6 17 be
       -0.13130112 0.7377056 0.6171524 -0.14840278
0003f0 dd ed d4 3e b3 e8 0c bf 6e 35 26 3e 04 70 86 38
       0.41587725 -0.5504257 0.1623132 6.4104825e-05

item_embedding.weight f4 [3019, 20]
000000 47 6e b1 3e 83 71 b3 be 78 63 99 be 6d 7c 8d be
       0.34654447 -0.3504754 -0.299587 -0.27633992
000010 e9 e1 ba be 2e cb 9f 3e f3 af 68 3e 04 35 a3 bc
       -0.3650048 0.312097 0.2272337 -0.01992274
000020 2b 82 a1 3e 70 58 68 bd 3a 8b 6e bd da a1 55 3e
       0.31544623 -0.056724966 -0.058238246 0.20862523
000030 b9 c0 d0 be 18 3a 94 3d 12 87 c6 be 10 db c5 3e
       -0.40772036 0.07237643 -0.38774925 0.38643694
000040 94 7b 85 3e 66 80 42 be 67 a2 9a be e1 c1 1c 3e
       0.26070845 -0.18994293 -0.30202028 0.15308334
000050 1b 31 97 3e 93 51 82 be 0a 58 ad be 33 d2 0d bc
       0.29529652 -0.2545286 -0.3385623 -0.008656072
000060 08 7f bd be ee b5 a9 3e 50 9e ab 3e 96 ee d5 3d
       -0.3701098 0.33146614 0.3351922 0.10445897
000070 82 e2 9b 3e 6e 9e 91 be 46 a2 12 3e 99 60 ae 3e
       0.3044625 -0.28441185 0.14319715 0.34058073
000080 e5 83 97 be 89 b6 c5 bd 06 8f d1 be bf cc c5 3e
       -0.29592815 -0.096539564 -0.4092943 0.3863277
000090 a6 18 a3 3e 15 c8 8f be be 0c 68 be 36 8a fa bc
       0.31854743 -0.28082338 -0.22661111 -0.030583482
0000a0 ba 83 95 3e 90 d8 5a be 4a 5a 9a be 98 6d 78 be
       0.29202062 -0.21371675 -0.3014701 -0.24260557
0000b0 a9 44 75 be 76 ca 85 3e cc 3b 5a 3e 3a 89 91 3e
       -0.23951973 0.26131028 0.21311873 0.28425008
0000c0 f2 ae 86 3e c5 12 6e be c5 eb 7e be 3f c2 71 3e
       0.26305348 -0.23249348 -0.24894626 0.23609255
0000d0 5a 70 96 be a0 99 88 3e 8c b4 93 be 4b 62 94 3e
       -0.29382592 0.26679707 -0.28848684 0.28981242
0000e0 f4 76 8d 3e 6b 97 7c be 5c 54 8a be f9 31 21 3e
       0.27629817 -0.24667136 -0.27017486 0.1574172
0000f0 47 95 80 3d 3d 30 57 be e3 56 25 be a5 7d ab 3e
       0.062784724 -0.21014495 -0.16146426 0.33494297
000100 e4 7d 6e bd 7d 72 54 3e 9b 60 9b 3e b9 95 e5 3d
       -0.058225527 0.20746799 0.30347142 0.11210198
000110 8d 39 5a 3e 92 d4 47 be 58 88 b9 bc 64 f8 b0 3d
       0.21311016 -0.19514683 -0.022648022 0.08641127
000120 28 34 17 be 95 17 6d be 46 54 16 bd c8 37 73 3e
       -0.1476599 -0.23153527 -0.036701463 0.23751748
000130 d4 81 b0 3e 04 dc 20 be 4e 18 24 be 4a c5 c6 be
       0.3447405 -0.1570893 -0.16024897 -0.38822395
000140 7b f5 93 3e 3b 79 66 be 19 e5 80 be b7 9b 11 be
       0.28898224 -0.22507183 -0.25174788 -0.14219557
000150 c1 fa 65 be 65 1c 97 3e 1d 61 66 3e 02 c7 9b 3e
       -0.22458936 0.2951385 0.22497983 0.30425268
000160 ff 24 85 3e ff 82 11 be 79 26 85 be 5d 2f 62 3e
       0.26004788 -0.14210127 -0.26005915 0.2208838
000170 2d 8e 7b be 4f d5 6f 3e f3 2b 69 be 39 50 88 3e
       -0.24565955 0.23421215 -0.22770672 0.26623705
000180 66 da 8f 3e b2 66 8f be fe 88 74 be e8 c5 18 3e
       0.28096312 -0.28008038 -0.23880383 0.14919245
000190 b1 8d ba be 56 cf ae 3e 53 b0 2d 3f ee fc ac be
       -0.36436227 0.3414256 0.67847174 -0.3378672
0001a0 95 03 e2 3e 2e a3 37 3f 08 c0 bc be a4 de 8a 3e
       0.44143358 0.7173337 -0.36865258 0.27122986
0001b0 f2 0c 2d 3f 19 f0 68 3f 59 44 ee 3e bb a7 ba 3e
       0.6759788 0.9099136 0.4653652 0.36456093
0001c0 8b 58 81 3e 19 f0 27 bf d5 dd 29 bf cc 2b 08 3d
       0.25262865 -0.65600735 -0.66354114 0.033244893
0001d0 6f 43 09 bf d9 f1 de be 09 08 c1 3d 1a b6 a2 be
       -0.5361852 -0.4354389 0.09425361 -0.31779557
0001e0 4c c8 d9 be f1 1e aa 3e cf 22 e3 3e 39 03 c3 3e
       -0.42535627 0.3322673 0.44362494 0.38088396
0001f0 fc 08 fa 3d 09 0d b3 be 09 20 3e be a0 15 d3 be
       0.12208745 -0.34970883 -0.18566908 -0.41227436
000200 d0 fd 8f be fb 2d d2 3e 53 6e 06 3f 6a 7d b4 be
       -0.2812333 0.41050705 0.5251209 -0.35251933
000210 72 71 cb 3e b6 b0 93 be 98 59 1a bd 07 99 15 be
       0.3973499 -0.28845757 -0.0376831 -0.14609157
000220 e3 b8 94 be 3f dd 5a 3e 5e e6 d3 3e c4 26 02 bf
       -0.29047307 0.21373461 0.41386694 -0.508404
000230 81 b9 0a 3e 9d a4 95 be fc 84 3d be f0 c0 d7 bc
       0.13547327 -0.29227152 -0.18507761 -0.026337117
000240 d3 a7 17 be 87 41 ef bc 2c cb c0 3e 71 19 b6 3e
       -0.14810114 -0.02920605 0.37655008 0.35566285
000250 5e cf 91 3e 56 b0 5d 3e 05 6c 60 be 31 60 e6 3e
       0.2847852 0.21649298 -0.21916206 0.44995263
000260 88 83 3d bd 17 24 f0 bc d2 64 27 be b9 c8 ab bd
       -0.046268016 -0.029314084 -0.16347054 -0.08387894
000270 c7 36 ec 3d 08 29 f5 be 3f 96 a2 be c7 16 29 be
       0.115338854 -0.47882867 -0.31755254 -0.16512595
000280 34 de 99 3e 4d 3f 92 be 5a 22 94 be 9b 23 2d bd
       0.3005234 -0.2856392 -0.28932458 -0.042270284
000290 b3 4d 4d be 1f f3 aa 3e ae 1e 8d 3e 29 86 9d 3e
       -0.20049171 0.33388612 0.2756247 0.3076642
0002a0 cd 0d 99 3e 08 98 73 be a4 78 94 be 04 8c 5d 3e
       0.29893342 -0.23788464 -0.28998291 0.21635443
0002b0 75 9f 85 be 5d 8e 8f 3d fa a3 59 be 2f 59 82 3e
       -0.2609822 0.070095755 -0.21253958 0.25458667
0002c0 e7 13 92 3e 67 10 8e be cb 02 85 be 53 7d 0c 3c
       0.2853081 -0.2774689 -0.25978693 0.0085748015
0002d0 71 bb 9a 3d ae 11 79 be 59 14 6e be 2a 40 9c 3e
       0.07555283 -0.2432315 -0.2324995 0.30517703
0002e0 19 5e 4f be 40 b1 95 3e 5f 9a 99 3e 17 22 34 be
       -0.20250739 0.29236794 0.30000588 -0.17591129
0002f0 09 9b 97 3e a6 d9 34 be c0 f0 a4 3e df 6e f7 3c
       0.2961047 -0.17661151 0.32214928 0.030204235
000300 05 2f 16 bd 98 fe a3 be 3d 20 80 be 2b a1 a2 3e
       -0.036665935 -0.32030177 -0.25024596 0.31763586
000310 f6 92 8f 3e 84 4c 5e bd 29 cb 8f be bb e7 9f be
       0.2804181 -0.05427219 -0.28084686 -0.31231484
000320 11 2b 31 be 82 78 ea bd 86 1e 73 be 83 84 64 be
       -0.17301585 -0.11448766 -0.23742113 -0.22316174
000330 d3 56 b0 be db e5 9a 3e cf 5b 88 be af e1 80 bd
       -0.34441242 0.3025349 -0.26632544 -0.06293046
000340 1c a0 52 3d 35 c8 02 3e 10 79 d2 3e 23 98 6c 3e
       0.051422223 0.12771685 0.41107988 0.2310491
000350 89 c0 34 be 4f 65 b4 bd 97 e2 17 bf 81 6a 37 3e
       -0.17651571 -0.088083856 -0.59330124 0.17911722
000360 f9 41 4e 3e 7d 6b 3d be 3d 75 9b bd 94 09 92 bd
       0.20142354 -0.18498035 -0.07590721 -0.07130733
000370 ac 35 aa 3d b7 0e 6b be 30 8b 81 be 28 02 bc bd
       0.08311018 -0.22954832 -0.25301504 -0.09180099
000380 a7 d8 6a be aa fd 7e 3e c2 07 6d 3e ac e0 5a bc
       -0.22934209 0.24901453 0.2314749 -0.01335923
000390 02 e6 dc 3e e2 a1 19 bc dd f5 7e 3e 91 34 ed 3e
       0.43144232 -0.009376975 0.24898477 0.46329167
0003a0 85 c6 ce be f8 7d fe 3d 35 8f af be bd ea a9 3e
       -0.40385833 0.124263704 -0.34288946 0.33186904
0003b0 5c df 09 3e 37 82 9b bd ed 48 8a bd 00 ec 7d be
       0.13464111 -0.07593196 -0.06752191 -0.24797058
0003c0 ce a9 8f 3e c4 29 6f be 8e 1d 7e be 6a d5 a9 be
       0.28059238 -0.23355776 -0.24815962 -0.33170635
0003d0 89 89 8b be 26 aa 78 3e b9 30 68 3e 52 9a 9e 3e
       -0.27253368 0.24283656 0.22674836 0.30977112
0003e0 3a 49 88 3e e0 11 74 be d2 ca 9b be 7a f4 93 3e
       0.26618367 -0.23834944 -0.30428177 0.28897458
0003f0 30 4b a8 be dd 73 97 3e 4a 31 84 be 02 b0 80 3e
       -0.32869864 0.29580584 -0.25818855 0.25134283
