best_para_path/baseline_ciao100.10.20.70.250.251.030.00.5_p10_sum20lightgcn_explicit_seed0_ex1_2_0.001_1e-06.pt (torch, 446719 bytes, 2 tensors)

user_embedding.weight f4 [2541, 20]
00000000: 0195 1bbf 3bf2 403f 692e 733f bd2e ca3e
00000010: 1c2b f93e ce37 2fbf 0b81 52bf 81fc 1ebf
00000020: a366 f0be 9d26 753f 7577 403f 0640 ca3e
00000030: d9c1 523e b339 71be 5bb9 8bbd cdbf e0be
00000040: a9ab 60bf 0a13 793f e6af ee3e 2a28 51bf
00000050: ba9e 31bf 626a 943e d0ea ce3e 5948 14bd
00000060: 40b1 aa3e 9963 2dbf 6511 cbbe bf84 47bf
00000070: 6a38 4ebf 0905 d13e 9ca6 6e3f 9622 60bf
00000080: 61f4 2abf 5f97 5dbf 9943 b53e c365 28bf
00000090: bff3 eebe 32d7 2a3f 846f 343f 9eeb 30bf
000000a0: 24fb 7cbf 4d89 2f3c 4c79 793f 0817 71bd
000000b0: 37ae 813f 8ebe 4cbf 5e51 5ebf 148d 26bf
000000c0: 16d4 dabe 1f36 2fbf 34f3 513f 98d5 17be
000000d0: 2480 42be ac73 19bf 4866 513f 36a2 97bd
000000e0: 8b9d 8dbf f355 4f3f 54b7 1d3f 3fc0 4bbf
000000f0: 3b16 61bf 3d08 7d3e 31db b03e 0116 27bf
00000100: 593c 4b3f 3e40 1dbf 6bf9 acbe b189 3bbf
00000110: c087 58bf 66e0 323e 106a 7e3f 5747 50bf
00000120: 3cfd 66bf ba65 e5be b7fd 6f3d 6211 9bbe
00000130: 07b4 173f ed30 a13e c918 013f 3044 5dbf
00000140: 9bdd 2bbe 8298 113f 135f fd3e 91a3 3cbf
00000150: f742 a73e 2bb7 3fbf c2ca 37bf c817 2cbe
00000160: 0c40 e6be c458 3a3f 7166 5f3e 3341 463e
00000170: 79f3 5cbf 3818 a13c d53c 813f f352 5dbf
00000180: f7ba 12bf d0f6 dc3e a7ec 4d3f 0ee8 03bf
00000190: 1374 2bbf 8518 213f a8ab a53e a518 873d
000001a0: e0af dd3e 76dc cfbe f0f2 e5be 25d6 dbbe
000001b0: d22c 38bf 40f4 c73d 1fc4 303f 8f90 15be
000001c0: cc03 60be 530c 09bf 8434 623f 6980 92bd
000001d0: 87dd f9be 02b5 603f 3f89 fe3e ef19 bbbe
000001e0: fd06 e83e 7815 683f 37e5 883f 64b3 3fbf
000001f0: 4328 ce3e 0146 4ebf 46f9 2fbf f9b4 25bf
00000200: 3b8f 87bd 0104 873f 0002 f8bc 1178 5c3d
00000210: bed4 5fbf 5f2b ee3e ad46 a4bf 7c19 64bf
00000220: 139d 88bf 9302 8c3f 6da5 393f bc32 283e
00000230: 39d3 67bf 05d5 5b3f 1121 5e3f 4814 24bf
00000240: 980c 7c3f ecb9 5abf 6419 50bf 6473 6dbf
00000250: bc60 5abf cc2f fa3e bdb5 7c3f a9d4 6bbf
00000260: 002d 70bf eb43 5abf 477d 74be fb0b 48bf
00000270: b358 25bf 9fbf 833f b088 553f 7fe1 3dbf
00000280: 43e9 46bf 5709 6b3f 0da0 063f aa00 02bf
00000290: d063 683f 65e0 31bf 48ca 35bf dd93 37bf
000002a0: 67b4 3cbf e079 813f b89b 123f cfbd 3fbf
000002b0: bb77 7fbf 0f8e 1cbf 0252 843f 384a 28bf
000002c0: 340e 45bf 2358 3d3f 2d0e 5c3f 4192 0bbf
000002d0: 9761 45bf 4085 3d3f 44d2 bb3e a032 1b3d
000002e0: 3463 e63e b798 ffbe 7dc7 83be afa7 cabe
000002f0: 322a 47bf 1ab1 363f 1235 463f db0d 35bf
00000300: ec8b 22bf 42c3 6bbf b8dc 8c3f 71da 8dbe
00000310: 791a c3bc 9e7b 333f 4cf7 543e 30c2 17bf
00000320: 1c97 3fbf a8bf 2e3f 1252 813f 67f7 4fbf
00000330: c913 f03e b5ae 3cbf 7732 56bf 0c46 2cbf
00000340: 9cbf 4dbf 1c32 1b3f 8335 323f 4e0b 5bbf
00000350: 2aae 1bbf 1e69 6dbf c7b5 46bf aea3 f0be
00000360: e690 81bf 85f5 4f3f 22cc 603f 9b35 57bf
00000370: 5097 d8be 85e4 023f 48d2 913e 356a 4dbf
00000380: a8f4 693e e744 e3be 0d0c fcbe d69b 17bf
00000390: b24b d0be f39c 013f 7a80 883e 9ae1 1dbf
000003a0: ffa7 02bf 52e4 7cbe ad87 683f 6169 49bf
000003b0: 5d15 24bf e50b 103f e0be 083f fbee 22bf
000003c0: 57ed 12bf 69f8 343f 3e30 403f 9285 bdbe
000003d0: 77c6 fa3e ea7b 18bf 5305 37bf 5b2f 22bf
000003e0: db5c 25bf e326 693f fe51 503f 60b5 11bf
000003f0: fdbe 41bf 5704 7bbf 4ea6 823f 6bcf 46bf
-0.60774237 0.75369614 0.9499269 0.39488783 0.48665702 -0.68444526 -0.82228154 -0.6210404
-0.46953306 0.95762044 0.75182277 0.3950197 0.2058176 -0.23557167 -0.06822463 -0.43896332
-0.8776193 0.97294676 0.46618575 -0.8170191 -0.6938282 0.28987414 0.40413523 -0.03620181
0.33338356 -0.677301 -0.39661708 -0.7793693 -0.8055483 0.40824154 0.93222976 -0.87552774
-0.6677914 -0.865591 0.35403135 -0.65780276 -0.4667034 0.6673461 0.7048266 -0.69109523
-0.9882071 0.010713887 0.9745071 -0.058859855 1.0131291 -0.79978263 -0.86842906 -0.6505902
-0.42739934 -0.6844196 0.82011724 -0.14827573 -0.18994194 -0.59942126 0.81796694 -0.07403986
-1.1063703 0.80990523 0.6160786 -0.7959022 -0.87924546 0.24710174 0.3454223 -0.6526795
0.7938896 -0.6142615 -0.3378404 -0.73256975 -0.8458214 0.17468414 0.9938059 -0.81358856
-0.90230155 -0.44804174 0.05859157 -0.302867 0.59259075 0.3148264 0.50428444 -0.8643217
-0.16783755 0.56873333 0.49486598 -0.7368708 0.32668278 -0.7488887 -0.7179376 -0.16805947
-0.4497074 0.72791696 0.21816422 0.19360809 -0.8630901 0.019664869 1.009669 -0.86454695
-0.57316536 0.43157053 0.8043923 -0.5152596 -0.6697399 0.6292804 0.32357526 0.065964974
0.43298244 -0.40597886 -0.4491191 -0.42936817 -0.7194339 0.09763384 0.6904926 -0.14605926
-0.21876448 -0.5353443 0.8836138 -0.071533985 -0.48801824 0.87776196 0.49714085 -0.36543223
0.45317832 0.9065776 1.0694951 -0.74883103 0.40265092 -0.8057557 -0.68739736 -0.6472927
-0.06619116 1.0548097 -0.030274391 0.05382544 -0.87433994 0.46517465 -1.2834069 -0.89101386
-1.0672935 1.0938286 0.72518045 0.16425604 -0.90556675 0.85871917 0.86769205 -0.64093447
0.98456717 -0.85439944 -0.81288743 -0.927542 -0.85303855 0.4886459 0.9871481 -0.9212137
-0.93818665 -0.85259885 -0.23875915 -0.7814328 -0.6458847 1.0292853 0.83411694 -0.74172205
-0.7769968 0.91811126 0.5258797 -0.50782263 0.907773 -0.69483024 -0.7101178 -0.71709996
-0.7371277 1.0115318 0.5726886 -0.74899 -0.9979207 -0.61154264 1.0337527 -0.6573825
-0.769748 0.7396261 0.8595913 -0.5452004 -0.77102035 0.7403145 0.36683857 0.037890077
0.4499756 -0.499212 -0.25738135 -0.39581057 -0.7779876 0.71363986 0.7742473 -0.70724267
-0.63494754 -0.92094815 1.1004858 -0.2770572 -0.023816334 0.701105 0.20797461 -0.5928068
-0.7483995 0.68261194 1.0103171 -0.8123688 0.46890095 -0.7370408 -0.83670753 -0.67294383
-0.803705 0.60623336 0.696129 -0.85564125 -0.6081263 -0.9273852 -0.7762112 -0.46999878
-1.0122344 0.8123401 0.8781148 -0.8406617 -0.42302942 0.51129943 0.28480744 -0.80240184
0.22847235 -0.44388506 -0.49227944 -0.5922216 -0.4068275 0.5063011 0.2666052 -0.61672366
-0.5103759 -0.24696472 0.90832025 -0.7867642 -0.640951 0.5626815 0.5341625 -0.63645905
-0.573934 0.70691544 0.7507361 -0.3701597 0.48979542 -0.5956408 -0.714925 -0.6335351
-0.6459481 0.9107496 0.8137511 -0.5691738 -0.7568205 -0.980535 1.0207002 -0.77660245

item_embedding.weight f4 [3019, 20]
00000000: 3259 683f c844 38bf 2923 6fbf fe87 3f3f
00000010: 0f45 6dbf 5608 3b3f 2136 363f 8f55 703f
00000020: 4fc8 2e3f 5183 3fbf cb99 44bf 2cb0 8a3f
00000030: 0b9e 5a3f 8e6c 5e3f 4a8b 6fbf 1716 403f
00000040: 582f 133f 3c1f 62bf 7a2a 36bf 35e8 373f
00000050: a36c 6f3f d21e 86bf 33a6 72bf 6098 833f
00000060: 3503 a9be 8b3c 823f c415 813f 88b9 123f
00000070: d495 513f e1ef 85bf 6993 c5be b17b d73d
00000080: bf9a 8e3f 0393 1abf 9bca 763f b425 653f
00000090: d8b5 763f 56f8 78bd 2ac9 86bf 94c6 1cbf
000000a0: 7c71 683f 6a17 61bf 2afb 5abf fa75 5c3f
000000b0: 224d 65bf f0cb 5d3f c4df 513f 3dc6 683f
000000c0: 069d 693f 2bf9 62bf 712d 6cbf ee91 323f
000000d0: 9597 663f a351 573f c919 7abd 89de 673f
000000e0: 8172 533f 6063 57bf c311 74bf d60e 5a3f
000000f0: 64fd a33e d814 50bf 4290 68bf 9521 793f
00000100: 390a bebd c77f 363f f1d7 573f abf6 453f
00000110: b1c5 a8bd 4082 5bbf 4ac0 fb3e f353 83bf
00000120: 29e6 953e 366b 75bf 40fa 883f 38ad a23e
00000130: 3b85 783f eb9c 28bf 31d2 51bf 6ebf 6abd
00000140: ae51 293f 01a5 3abf d2f9 47bf 7230 b53e
00000150: ad5b 2fbf 02b8 7d3f 84c1 543f da66 813f
00000160: ba79 213f c602 f8be d67e 85bf 2507 9f3e
00000170: 36d2 063f 5b8b d53d a972 aa3f 99f5 113f
00000180: 455c 0e3f f4d3 66bf c013 70bf 7595 153f
00000190: 2b82 283e abba c2be f47e d4bd 6954 143f
000001a0: dd16 b8be 4d5a 4e3e 2885 343e 933c 773e
000001b0: e2e3 b53e 9f26 8f3e 4b7d b8be eb30 3e3f
000001c0: 6de1 ff3e 1c4e 263e 2355 56bf 0830 333d
000001d0: 8adb 323e dff6 0fbf c0e3 4fbe 2bd6 c03e
000001e0: e997 48bf 1e63 163f e214 203f 9adb 2ebf
000001f0: 4fa1 323f d6de 20bf 7152 2dbf 8430 42bf
00000200: 8b9f 38bf e04b 263f d2e3 4d3f f657 b2be
00000210: 8e3a 2fbf 4597 2fbf d378 003f 1338 21bf
00000220: ef4e 17bf cf7d 413f c29c 2c3f a22c 30bf
00000230: b7f3 0a3f 0c49 73bf b1af 8cbf 1d3d 19bf
00000240: ee28 29bf 7897 99be 0a2f 273e 4a36 a4be
00000250: 85f2 743f 6b0e 33bf 9e35 823e ea3d 81be
00000260: 5f10 22bf a22e 273f 95be a23f 238c 21bf
00000270: 485e bd3d 522e 33bf 8d34 06bf 8ddb 843f
00000280: 6231 683f 75ca 65bf 2378 52bf 4c04 493f
00000290: 4df0 5ebf e217 5b3f f9cc 5e3f 7b80 5c3f
000002a0: f246 583f 55cc 5ebf 0389 49bf 8546 123f
000002b0: 5357 6d3f 5496 e43e e0b9 983e e18a 5d3f
000002c0: a3a2 583f d53b 51bf 9223 77bf 0dc3 3b3f
000002d0: 4dd1 10bf 47f1 49bf 1873 6cbf 3db1 733f
000002e0: 503b 4f3f c0f5 5b3f 6e6a 6e3f 3f26 04bf
000002f0: 5d7e 20bf 3939 38bf df8c 793f 1cb8 76bf
00000300: 2c54 623f 326c 7ebf 1ab1 753f 30bd 5b3f
00000310: a3f4 6f3f 8cb5 233f 2ab5 50bf 2843 7bbf
00000320: 46f5 49bd ac50 b2be abef 8abf 34c1 45bc
00000330: 0698 2abf 1781 92be e669 33be e860 72be
00000340: 7142 8dbe f472 a1bf 7915 cf3e 47f5 1c3f
00000350: 95b1 8c3e b0ae 08bf 8182 373f 3b6c c43e
00000360: ce21 883f 41f2 85bf d584 593f 9a3e 523e
00000370: 9824 c13e d1ad 5fbf 25a2 5dbf 57c0 3a3f
00000380: d89b 4abe 4c03 483f 4936 5d3f 4efd 993e
00000390: 3d5b 413f 509c 73bf 28d2 5e3d 377a 823f
000003a0: b7d3 363f b6cb 33bf 5805 8e3e 42d5 413f
000003b0: 0964 563f ddc8 76be ac10 38bf 6bd6 b5bd
000003c0: 61f0 683f 4809 5abf 25e1 4cbf 20de 493f
000003d0: 75db 6cbf a8be 533f f162 593f 2c13 6a3f
000003e0: 838c 6c3f 8021 58bf 0afe 6dbf cfeb 673f
000003f0: 7ea9 473f 87b3 653f 2b4b 7abf 78af 593f
0.907611 -0.7197995 -0.93413025 0.7481688 -0.926835 0.73059595 0.71176344 0.9388055
0.68274397 -0.7480975 -0.7679717 1.0835013 0.85397404 0.8688439 -0.93571913 0.75033706
0.57494116 -0.8832891 -0.71158564 0.71838695 0.9352514 -1.0478156 -0.9478485 1.0280876
-0.3301026 1.0174726 1.0084767 0.5731435 0.81869245 -1.046383 -0.38589028 0.10521639
1.1140975 -0.6038057 0.964029 0.89510655 0.9637122 -0.060783707 -1.053014 -0.61240506
0.90798163 -0.8792635 -0.85539496 0.8611752 -0.8957082 0.8663931 0.81982064 0.9092749
0.91255224 -0.8866145 -0.9225684 0.6975392 0.90075046 0.8410894 -0.061059747 0.90573937
0.82596594 -0.8413601 -0.953396 0.8517889 0.3202926 -0.81281805 -0.9084512 0.9731687
-0.092792936 0.7128872 0.84313875 0.7732951 -0.08240832 -0.8574562 0.49170142 -1.0259994
0.2927716 -0.95866716 1.070137 0.3177278 0.97078294 -0.6586444 -0.8196135 -0.057311468
0.6614026 -0.72908026 -0.7811557 0.35388523 -0.6849926 0.991089 0.8310778 1.0109513
0.63076365 -0.48439616 -1.0429332 0.31060138 0.52664506 0.104269706 1.3316242 0.5701538
0.5560954 -0.90167165 -0.93780136 0.5843118 0.16455905 -0.3803304 -0.10375777 0.579413
-0.35954943 0.20151635 0.1762892 0.24144201 0.35525423 0.27959153 -0.3603309 0.7429339
0.49976674 0.16240734 -0.8372366 0.043746978 0.1746656 -0.5623607 -0.20301723 0.37663397
-0.78356797 0.5874499 0.62531865 -0.68303835 0.6977739 -0.6284002 -0.6770392 -0.7585528
-0.72118443 0.64959526 0.8042575 -0.34832734 -0.6844872 -0.68590194 0.50184363 -0.6297619
-0.5910482 0.75582594 0.67426693 -0.68818104 0.5427813 -0.95033336 -1.0991117 -0.59858876
-0.6607808 -0.29998374 0.16326538 -0.3207267 0.95682555 -0.69943875 0.25431532 -0.2524255
-0.6330623 0.6530553 1.2714411 -0.63104457 0.09246498 -0.69992554 -0.52423936 1.0379502
0.9070035 -0.8976205 -0.82214564 0.7852218 -0.8708542 0.8558332 0.87031513 0.86133546
0.84483254 -0.87030536 -0.7872469 0.57138854 0.9271137 0.4464594 0.2982931 0.8654004
0.84623164 -0.8173192 -0.9653865 0.733445 -0.5656937 -0.78883785 -0.9236312 0.9519232
0.8094988 0.8592186 0.9313115 -0.5162086 -0.62692815 -0.71962315 0.9748058 -0.9637468
0.88409686 -0.9938384 0.9597336 0.8583555 0.9373266 0.63948894 -0.81526434 -0.9814935
-0.049306177 -0.34827173 -1.0854391 -0.012069989 -0.6663822 -0.28614113 -0.17520866 -0.2366978
-0.27589753 -1.2613206 0.4044607 0.61311764 0.27479234 -0.5339155 0.7168351 0.38363823
1.0635316 -1.0464555 0.8496831 0.20531693 0.3772323 -0.873746 -0.8657554 0.7294974
-0.19786012 0.7813003 0.8641096 0.3007607 0.75529844 -0.9516039 0.05439964 1.0193547
0.714168 -0.70232713 0.27738452 0.7571603 0.8374639 -0.24100061 -0.7190044 -0.088787876
0.9099179 -0.8517041 -0.80031043 0.7885456 -0.92522365 0.82712793 0.849166 0.91435504
0.92401904 -0.84426117 -0.9296576 0.9059419 0.77993 0.8972706 -0.9777095 0.8503337
