best_para_path/baseline_ciao100.10.20.70.250.251.020.00.5_p10_20mf_explicit_seed0_ex1_0.001_1e-05.pt (torch, 446483 bytes, 2 tensors)

user_embedding.weight f4 [2541, 20]
00000000: 67de cdbe 8390 1a3f f0d9 8e3e c679 f43e
00000010: 119b 983d 0275 2e3e dc97 ccbe 516a aebe
00000020: c587 e4be 10bc f4be 1d26 153f b1dc 263f
00000030: beea 053f 96e3 9a3e 4977 733e f797 8abe
00000040: ec19 d1be 30a9 013f 99f7 d23e 465b 17bf
00000050: aa3c 83be 0dc5 b63e 4867 063f 343e 0b3f
00000060: e192 19be 66d4 d0be a6cf fabe f422 eabe
00000070: e436 fdbe 4bf2 24bf af3a 0e3f 9d34 bb3e
00000080: 8517 70bd 56c8 eebe 9e13 7f3e 055f abbe
00000090: 77ab f2be 7027 d43e f79b 2e3e 8f9f 063f
000000a0: 277d c5be fbb1 2abf afc3 e93e 8b84 f43e
000000b0: c6cd c73e 42be 6abe d6ea 04bf 45ee 6ebe
000000c0: 2b5a 50be dca1 9bbd c8ff f23e 3b50 b1be
000000d0: f534 013f 95a9 a6be c5a5 a43e d331 973e
000000e0: 8fc3 dabe eaae 793e 408d d93e fd94 04bd
000000f0: 008e f3be 6c23 f83e 2d85 0f3f 2c47 19bf
00000100: c1dc 8a3d c1ea ddbe bc61 df3e 8874 d9be
00000110: 9f92 11bf 9ae9 10bf 3c3e bbbe 99e0 00bf
00000120: 3ca4 ecbe 2e3a d5be f77a e53e 33c2 e4be
00000130: f2e6 473e 9b4a ff3e ace4 753e 6f83 f03e
00000140: 62a1 bbbe 5b1e bc3e 489a 65bd f1bc f83e
00000150: 59ff a63e 4212 0ebf df16 01bf 8fc7 643e
00000160: 0211 95be 2cf1 16bf 1800 d73e e44b 1d3f
00000170: 608a 383e cebb 15be 6cea 133f 493d f2be
00000180: 390e e9bd 7676 003f ecdc ba3e c223 a9be
00000190: 0036 b6bd 6aea 093f 9b0b 073f b39f 063f
000001a0: afc6 4c3e f48d 4bbe 787a eebe fe88 e8be
000001b0: ee3f eebe a99a 0f3f 7e6e 083f d388 02bf
000001c0: 1f28 e63e 4676 e1be e0da 0f3e 114f d5be
000001d0: dc6c fbbe 1ee6 043f 40ff bd3e 73d7 253f
000001e0: edbd cbbd 1dbd e53e d5a4 de3e 4d47 f43e
000001f0: 83d0 4a3e a5d7 fdbe 01c2 5cbe 4992 c3be
00000200: eb51 e93c adab d8be e176 133f 1f8e f43e
00000210: 8e73 423e 7e7e 07bd b4d5 3c3e 0433 04bf
00000220: 4bf4 19be ae11 ff3e 5c9f cd3e c052 db3d
00000230: a469 fcbe b1f8 8d3e 8d8f 053f 7628 d33e
00000240: 835b 073f 724c 02bf 50c2 cabe 0759 f8be
00000250: c49f bebe ecfd 10bf fc6a a63e 0d18 6dbe
00000260: 71f4 41be 1f88 acbe e0d3 dd3e e413 09bf
00000270: 7381 79be 8114 0c3f 882e 073f 0aea 1abe
00000280: b0fa d0be 263a 143f 31df 023d 48b9 093f
00000290: c711 fb3e a7f8 07bf 2446 febe 3f2f e7be
000002a0: f551 e9be 4b1a 98bd d0cd c3be 957b 00bf
000002b0: 5920 d43e 8437 c2be a449 083f e141 debe
000002c0: 4219 01bf 776c 053f a24d fb3e 6bb2 373e
000002d0: aeac 04bf 4f36 033f c9c7 023f 09de 033f
000002e0: 27f4 aa3e d2a7 fdbe 4844 b3be fcb6 78be
000002f0: b89a e4be e3fa dabe ed11 a13e 8f40 93be
00000300: a348 f63e 06e2 fbbe f974 b63e c763 52be
00000310: 4f66 f6bd 56a0 0a3f 46ce a63e 43b6 afbe
00000320: 89cd dbbe ef11 063f 3320 ff3e 414a 273e
00000330: b2b4 c63b 45da 04bf 0158 06bf cb0c d4be
00000340: 02fd d5be 779f 423e b16d 87be 952f 353f
00000350: b9ee d33e e666 5dbe 4805 e2bd 4784 6cbd
00000360: 88a0 f4be a090 e43e 1270 f43e 70be 17bf
00000370: 6a43 b7be 414c aa3e be21 cf3e 3f35 d6bd
00000380: bf05 853e b7ee abbe 80b0 f0be b044 eabe
00000390: 8567 fe3d add8 f9be 315e 5dbe 83d8 cabe
000003a0: 003f 6bbd 8916 cdbe a42a ee3e 0d18 babe
000003b0: 7a88 01bf df04 f53e b972 223e 499f f4be
000003c0: 8eea 76be d46d e73e a06b 023f 0d8b e83e
000003d0: cc66 aa3e d3c3 dabe ce5e f8be 4416 c5be
000003e0: 91dc eabe 3496 8c3e 9f35 c83e 73eb fe3e
000003f0: a0d1 af3e b15f 03bf 6975 df3e 9a62 e6be
-0.40208742 0.6037676 0.27900648 0.47749156 0.074514516 0.17036822 -0.3995961 -0.34065488
-0.44634834 -0.4779973 0.5826128 0.651805 0.52311313 0.3025176 0.23775972 -0.27069065
-0.4084009 0.50648785 0.41204527 -0.5912365 -0.2563222 0.35697213 0.52501345 0.5439179
-0.14997436 -0.40787047 -0.48986548 -0.45729792 -0.4945594 -0.6443221 0.55558294 0.36563578
-0.05861618 -0.4663722 0.24909827 -0.33470932 -0.47396442 0.41436338 0.17051683 0.5258722
-0.38572046 -0.66677827 0.45657107 0.47757372 0.3902418 -0.2292414 -0.5192083 -0.2333308
-0.20346896 -0.075992316 0.4746077 -0.34631523 0.5047143 -0.32551256 0.32157722 0.295302
-0.42727324 0.2438313 0.42490578 -0.03236865 -0.47569275 0.48464525 0.56062585 -0.59874225
0.06780387 -0.43343166 0.43629253 -0.4247172 -0.5686435 -0.5660645 -0.3657092 -0.5034271
-0.4621905 -0.4164595 0.44820377 -0.44679412 0.19521692 0.49861607 0.24013013 0.46975276
-0.36646563 0.3674191 -0.056055337 0.4858165 0.3261669 -0.5549661 -0.50425524 0.2234175
-0.29114538 -0.5896175 0.4199226 0.61443925 0.18021536 -0.14622423 0.57779574 -0.47312382
-0.11379666 0.5018076 0.36496675 -0.33035094 -0.088970184 0.5387331 0.52752084 0.5258743
0.19997667 -0.1987837 -0.4657781 -0.45417017 -0.4653315 0.5609537 0.532936 -0.5099003
0.44952485 -0.44035548 0.14048338 -0.41661885 -0.4910649 0.5191363 0.37108803 0.64781874
-0.09948335 0.44870844 0.43485132 0.47710648 0.19806103 -0.49578586 -0.21558382 -0.38197544
0.028481444 -0.42318478 0.5760327 0.4776468 0.18989393 -0.033079617 0.18440896 -0.51640344
-0.15034597 0.49818176 0.40160644 0.10709143 -0.49299347 0.277288 0.52172166 0.41241807
0.5287401 -0.50897896 -0.39601374 -0.48505422 -0.37231266 -0.56637454 0.32503498 -0.23153706
-0.18940903 -0.33697602 0.4332571 -0.53545976 -0.24365787 0.54718786 0.52805376 -0.15128341
-0.4081626 0.5790123 0.031951133 0.5379834 0.49037 -0.5311379 -0.49662888 -0.45153233
-0.4557034 -0.0742689 -0.3824296 -0.5018857 0.4143093 -0.3793298 0.53237367 -0.43409637
-0.50429165 0.5211863 0.49082667 0.17939155 -0.5182599 0.51254743 0.510861 0.51510674
0.33389398 -0.495421 -0.35013032 -0.24288553 -0.4464929 -0.42769536 0.3145899 -0.28760192
0.48102292 -0.4919588 0.35636118 -0.20545875 -0.120312326 0.54150903 0.3257925 -0.34318742
-0.42930248 0.52371114 0.49829254 0.1633692 0.006064021 -0.5189555 -0.52478033 -0.4141601
-0.41794592 0.19006144 -0.26450875 0.7077573 0.41393068 -0.21621284 -0.110361636 -0.057743337
-0.47778726 0.4464159 0.47741753 -0.5927496 -0.3579362 0.33261302 0.4045543 -0.10459375
0.25980946 -0.33580562 -0.4700966 -0.4575553 0.124220885 -0.48798123 -0.21617962 -0.3961831
-0.05743313 -0.40056255 0.46516907 -0.36346474 -0.5059887 0.4785528 0.15864076 -0.47777775
-0.24112913 0.4520098 0.5094547 0.45418587 0.33281553 -0.42727527 -0.4850983 -0.3849355
-0.45871404 0.27458346 0.3910341 0.49789008 0.3433962 -0.5131789 0.43644264 -0.44997102

item_embedding.weight f4 [3019, 20]
00000000: 062c c33e 1247 c0be 3aec d8be 8d3a d9be
00000010: 448f aabe 0965 c23e 838a a93e a95d d93e
00000020: f2d3 bf3e 5018 933e 5e90 983c ef79 f73e
00000030: 1ad8 47be 7067 d03e 7efd d5be 2fd4 d13e
00000040: 2da2 2d3e 35d6 a1be 39be c3be a9e8 da3e
00000050: b545 dd3e ebe5 8ebe 8d8d 453e 72e5 b4be
00000060: bd2e 08bf 48e4 f53e fb88 d83e e31a 763e
00000070: 3c1d cd3e 48a3 cd3e 4d9f c4be eb40 cc3e
00000080: e0ce eabe 8f5c 1ebe 46e0 85be ac12 043f
00000090: 06a4 033f 47e5 833e ae33 a4be bf18 bebe
000000a0: a09e d43e 26f1 c83d 5658 dfbe 5afa 62be
000000b0: e408 d3be 4949 b63e 3f0e ae3e 5d54 a63e
000000c0: da73 cc3e 5c7f 8c3e 46dd c2be 5a37 c1be
000000d0: ca85 ddbe b904 c73e 705b 98be 8d72 d63e
000000e0: 9298 d73e ca7c 8bbe 4a50 eabe a0a6 cd3d
000000f0: b75d 683e f659 80bd 86a3 35be 5d2a e83e
00000100: ceb2 09be ccbd 1c3e 66fd ca3e c7fa c73e
00000110: dda2 f93d 1ac7 f93d 5660 c3bd 3c27 e8be
00000120: 80b0 60be 8430 3ebe 660d b33e 543e e23d
00000130: f8be 343e 1629 c1be 68ff e4bd edf4 d33d
00000140: 0b74 9eb9 3878 18be 28ec d2be 8e5f 863c
00000150: ceb9 9cbe 7eb8 f23e ad75 863e 4ef5 e83e
00000160: b63d e53e bfb1 df3e 8bce f6be 5043 88be
00000170: 05c0 c4be b6ca cd3d 10a1 36be f843 6c3e
00000180: cc97 c23e 9f98 e0be a415 a0be 29cb ba3e
00000190: 022b 05be c849 20bf 8895 053f 09b1 fe3e
000001a0: f388 c93e 6aa3 eabe bb76 97be e0e0 76be
000001b0: ce9d 48be e4b9 c63e 3a5a fd3e 34be 263f
000001c0: 5ca2 f63e d50e a9be b4f2 26bf ba86 8abe
000001d0: 88bc a1be 722c 1cbf 6e97 873e a532 06bf
000001e0: f181 febe a031 d33e 7150 f43e cdc0 b93d
000001f0: 9cb6 c13e 4297 07bf 2567 07bf c720 edbe
00000200: 33b5 fbbe fc5f f0be fadb f83e 7218 a03e
00000210: b966 e23e 1356 ebbe 5790 be3e 7b97 f7be
00000220: e6d0 d0be 14e7 033f 4162 d23e 7a82 9a3e
00000230: cc85 433e bb65 fa3e fd64 b8be 479e c43c
00000240: 8687 afbe bf25 503e 6ab5 49be ea36 5a3e
00000250: ea40 913e 6bb1 97bd cedf 97be 6890 9e3e
00000260: fdd6 083e 4b9c 4abd 0eb1 adbe 30f9 23bd
00000270: 41cc babe 2efd 613e b06c e1be a9b7 82bb
00000280: 9e61 a03e 6bb7 c8be 8182 78be 309f 7abd
00000290: 09a9 c5be 513a c93e 7f53 b13e 6d10 c43e
000002a0: 243d ca3e cd37 113e 9a13 d9be 46a8 52be
000002b0: fc7a 6fbe ca75 443e a175 b8be 2481 b43e
000002c0: c95f cf3e f86a d2be 121b d6be dda7 14be
000002d0: 6cdd ee3e 721e 033e 2539 bd3e 923e f93e
000002e0: 9424 61bd 5205 853e 2dba e23e db35 a1be
000002f0: 5ef8 df3e 8f0e 35bd db06 eb3d face d33e
00000300: f3e7 5c3e 77a6 ffbe e8bc 88be ecfc f83e
00000310: b9a6 fd3e 9e2f 973e dfee fbbe f388 fdbe
00000320: 3c16 c53c bf64 05be efae d9be 2425 97be
00000330: cf16 c1be c3f9 f93e 30a6 92be c5ea 9d3e
00000340: 2a6c 033d a9c4 94be 57e1 ec3d 90f0 c43e
00000350: 8e5c 5bbd eacc c23e cdd8 ddbd 2f49 563d
00000360: 3cc4 443e a544 bebd a449 703e c61e 583e
00000370: 98a6 a93e c6a4 b0be 5f0f a6be 0659 dabe
00000380: b564 d2bd 7fd5 903e 5501 e63e a666 433e
00000390: caab 9c3e 6a00 4cbc 82a5 82bd e651 e03e
000003a0: b1e5 84be 8317 a83e fd91 c3be c748 be3e
000003b0: 4a86 973e 1913 32be fa59 c9bb bc43 27be
000003c0: 47a0 c03e ee73 8cbe 76c1 ebbe 4ee0 a9be
000003d0: 2c5f d5be bf3a 983e 0d6a de3e 5a11 e93e
000003e0: bafa d13e 3c00 733e bd9e d3be 70a7 303e
000003f0: 520f f2be 9b59 693e 55f4 dbbe b72d c93e
0.38119525 -0.37554222 -0.42367727 -0.42427483 -0.33312428 0.3796771 0.3311349 0.4245427
0.3746639 0.28729486 0.018623527 0.48335215 -0.1951603 0.40703917 -0.41794962 0.40982196
0.16956396 -0.3160874 -0.38231066 0.4275563 0.43217245 -0.27909788 0.19292279 -0.35331303
-0.53196317 0.48025727 0.42292008 0.24033694 0.40061367 0.40163636 -0.38402787 0.39893278
-0.45860958 -0.15464996 -0.2614767 0.5159099 0.51422155 0.25760862 -0.32070678 -0.37128255
0.4152727 0.098116204 -0.43622082 -0.22165814 -0.4121772 0.35602787 0.33995244 0.3248624
0.39932138 0.27440917 -0.38059443 -0.37737542 -0.43266135 0.3887079 -0.2975726 0.4188427
0.4210859 -0.27243644 -0.4576438 0.10041547 0.22692 -0.06267159 -0.1773816 0.4534482
-0.13447115 0.15306777 0.39646453 0.39058515 0.12189267 0.12196179 -0.09539859 -0.45342433
-0.2194233 -0.18573195 0.3497116 0.110470444 0.17650974 -0.3772666 -0.111815274 0.1034945
-0.00030222567 -0.1488961 -0.41195798 0.016402986 -0.30610508 0.4740638 0.26261654 0.45499653
0.44773644 0.43690297 -0.48204455 -0.26613855 -0.3842775 0.1004843 -0.17834878 0.23072803
0.38006437 -0.4386644 -0.3126651 0.36483124 -0.13004687 -0.6261258 0.5218129 0.49744442
0.39362296 -0.458278 -0.29582772 -0.2410922 -0.19591448 0.38813698 0.494829 0.65133977
0.48170745 -0.33019128 -0.65214086 -0.27055913 -0.3158915 -0.6100532 0.2648272 -0.5242103
-0.49708512 0.41248798 0.47717622 0.09069977 0.37834632 -0.52965176 -0.5289176 -0.4631407
-0.49161682 -0.4694823 0.4860533 0.3126865 0.44218996 -0.45964107 0.37219498 -0.48357758
-0.40784377 0.5152447 0.41090587 0.3017767 0.19094008 0.4890574 -0.36014548 0.024001254
-0.34283084 0.20326899 -0.1969811 0.2131001 0.28369838 -0.07406887 -0.29662937 0.30969548
0.13363262 -0.04946546 -0.33924145 -0.040032566 -0.36483958 0.22069237 -0.44028234 -0.003989179
0.31324476 -0.39202437 -0.24268533 -0.06118697 -0.38605526 0.39302304 0.34634015 0.38293782
0.39499772 0.14181443 -0.42397767 -0.20572004 -0.23386759 0.19185558 -0.36027244 0.35254776
0.40502766 -0.41097236 -0.41817528 -0.1451716 0.46653306 0.12804583 0.3695766 0.4868055
-0.054966524 0.25980622 0.44282666 -0.314864 0.43744177 -0.044203337 0.11475917 0.41368848
0.21572857 -0.4993169 -0.26706624 0.48630464 0.49541262 0.29528517 -0.49205682 -0.49518546
0.024058454 -0.13026713 -0.42516276 -0.29520524 -0.37712714 0.48823366 -0.28642416 0.30843177
0.032085575 -0.2905629 0.11566418 0.38464785 -0.053555064 0.38046962 -0.10832367 0.052315887
0.19215482 -0.09290437 0.23465592 0.21105489 0.33134913 -0.34500712 -0.32433602 -0.42646044
-0.102731146 0.28287885 0.4492289 0.19082126 0.30599815 -0.012451271 -0.06379224 0.43812484
-0.2595649 0.32830438 -0.38197318 0.371649 0.29594642 -0.17390098 -0.0061447592 -0.16334432
0.37622282 -0.27432197 -0.46046036 -0.33178943 -0.41674173 0.2973232 0.43440285 0.4552105
0.41011602 0.23730558 -0.41332045 0.17251372 -0.47277313 0.22788088 -0.42959848 0.3929269
