best_para_path/baseline_ciao100.10.20.70.250.251.05.00.5_p10_20mf_explicit_seed0_ex1_0.001_1e-05.pt (torch, 446479 bytes, 2 tensors)

user_embedding.weight f4 [2541, 20]
00000000: 255f ce3e c327 483f 513a 2c3f c77e c73c
00000010: 6169 49bd 624e 053f 0365 4bbf 205b 83be
00000020: 7ff6 08bd 6f67 573f 2458 393f 09d3 033f
00000030: 9e49 3b3f 77a2 00be 7656 b4bd d9f7 fbbe
00000040: bf4f 32bf 4f23 3b3f cffc 303f 03af 56bf
00000050: 4605 21bf aab7 403f d391 413f 936c 363f
00000060: 612b 913e 7efc 5dbe 7a83 43bf 9dc2 19bf
00000070: ea4b ddbe 9ffb 273f 8faf 523f 95a7 ca3e
00000080: fbe4 223f b24a 0cbf b90b 9bbd 3e34 cabd
00000090: 2ba2 53bf b110 6bbe 6ae5 9ebd 2ce1 1abf
000000a0: 8bf7 1fbf 2518 373f 6fbb 2e3f a20a 07bf
000000b0: 7353 b93d 4287 07be ad04 16bf f94b 3abf
000000c0: 0b73 003e 6fce ee3e b602 abbc 2fa2 ef3d
000000d0: 7157 353f 820a 31bf e610 6abe bea4 c03e
000000e0: db08 e4be 7483 af3e c56b 113f 8e4d 4cbe
000000f0: 0a78 2cbf cacb b73e 8c5d 593f 756a 56bf
00000100: d1fb a73e bbce 3dbf 4549 2b3e cd68 51be
00000110: d05c 2cbf 16e9 513e 5349 5c3e ab24 13bf
00000120: 4fd7 753e b0f9 b13e 1bd0 af3e e479 8abe
00000130: 9eee 093f 0f65 56bf 9391 343f c114 023d
00000140: ca94 fabe 5550 86be 99b6 1b3f 9804 2fbf
00000150: f1cf 063f 6684 16bf 4a0c ffbe fd70 263f
00000160: 73ed 00bf 89d2 0ebf e671 133f 7799 1abf
00000170: b601 243f 47d1 90be c3d6 523f 4aed eebe
00000180: 942a 2d3e 8109 513f d2c5 aa3e 78d9 adbe
00000190: a9d9 efbe e65e 443f 6d7a 483f 3356 09bf
000001a0: e3ac 103f d3a3 83be b687 c2be 3dec 2dbf
000001b0: 8f74 d2be 894f 0a3f c3a8 29bf 31cb 593f
000001c0: 5598 4d3f 78d5 28bf d402 55bf 6eb8 a3be
000001d0: a077 30bf 3529 033f 7c38 013f 607d a1be
000001e0: 984d 4a3f f583 443f 332a 3b3f e555 ffbe
000001f0: 4e67 253f 78e9 25bf 0de6 9bbe ddf3 49be
00000200: f755 94be 6df1 62be 78bc 3d3f 9aa6 dd3e
00000210: 5894 f13e e395 73bd a374 193e 278e 1abf
00000220: b456 423f 6cfe 533f 2733 e03e 5eb6 70bd
00000230: 33b6 2abf b8f7 3b3e 4d46 1f3f 4c1c d63e
00000240: ea0a 3d3f 668c 00bf 3a99 90be 5ba6 1fbf
00000250: a3fe eb3e 16c1 56bf fa90 123f 861a 59bd
00000260: f6fa 9e3e 1cda c0be fb84 0d3f bb1e 2abf
00000270: de62 0dbe 9e3a 343f 03d1 363f 279d 22bf
00000280: ea1c 29bf d2dc 8bbe ee62 79bf 089e 603f
00000290: ae06 f23e 2815 2bbf c075 143f 251b ddbe
000002a0: cec2 5dbf b442 ddbe f58f 193f b00c 5bbf
000002b0: 7f13 aa3d 02ba 823e 54c4 413f 685c 11bf
000002c0: 4450 153d 82fb 043f 5937 163f 8815 c63e
000002d0: d35c 2dbf 77a2 e23e 8fc6 2e3f 81ed 513e
000002e0: 5cf8 113f 082f dabe bf79 fabe ba18 123d
000002f0: 9658 dbbe 35f1 dbbe ef03 153f a9ff 86be
00000300: 1269 373f d0ff 47bf 7f19 123f b805 25be
00000310: 6643 413d fc3a fa3e 60b8 1b3f a2c9 34bf
00000320: 65a0 efbe 45b2 623f a6e0 443f e394 3d3f
00000330: 8aca 9e3e b62b ebbe 5fdf 30bf ba53 3fbf
00000340: 8aa6 a63c ed66 febc d592 393f 7641 ddbd
00000350: e537 a73e 096e 123e f65f 4cbf e2d9 ee3e
00000360: eba8 2cbe c103 e53e 3ce6 0d3f 0e30 3ebf
00000370: fd5d bbbe 1d4a 163f 0021 223f 2a69 4ebf
00000380: dc73 0e3f 1fd3 36bf a4d4 febe 6b10 27bf
00000390: 17b5 593e 6a45 af3e dfef 043f 96d2 eebe
000003a0: b8bb f13e 7dde 55be 9d96 803e 528a aebe
000003b0: 2504 29bf fef2 793e 3e42 f13e 56e9 13bf
000003c0: 3192 90be 6560 f53e 8e11 223f 96cf 37bf
000003d0: 797c ff3e b30d 58be 7f1d 14bf 7b6c efbe
000003e0: 6dee 9ebe 0c80 233f 3faf 103f c5f3 a23e
000003f0: ddf8 223f db59 16bf 2742 fd3e 0f90 7cbe
0.40306965 0.7818567 0.67276484 0.024352444 -0.049172763 0.5207273 -0.79451007 -0.2565546
-0.033438202 0.841422 0.72400117 0.5149389 0.73159206 -0.12561975 -0.088055536 -0.4921253
-0.6965293 0.7310075 0.69135755 -0.83860797 -0.6289867 0.7528025 0.75613135 0.7125942
0.28353408 -0.2167835 -0.7637249 -0.6006258 -0.4322198 0.6561832 0.8229913 0.3958098
0.63630646 -0.54801476 -0.07570595 -0.09873246 -0.82669324 -0.22955586 -0.07758601 -0.60499835
-0.62487096 0.71521217 0.6825475 -0.527506 0.0904912 -0.1323519 -0.58600885 -0.72772175
0.12543885 0.4664187 -0.020875316 0.11700856 0.7083655 -0.6915666 -0.22858009 0.37625688
-0.44538006 0.34279978 0.5680507 -0.1995146 -0.67370665 0.35897666 0.84908366 -0.8375619
0.32809308 -0.7414357 0.16727169 -0.20450135 -0.6732912 0.20499071 0.21512346 -0.57477826
0.24007915 0.3476081 0.3433846 -0.2704612 0.53879726 -0.83747953 0.7053463 0.031758074
-0.48941642 -0.26233163 0.60825497 -0.68366385 0.52661043 -0.58795774 -0.49814063 0.65016156
-0.5036232 -0.5579 0.5759567 -0.6039042 0.6406511 -0.28284666 0.8235895 -0.46665412
0.16910774 0.81655127 0.3335405 -0.33954978 -0.4684575 0.76707304 0.78311807 -0.53647155
0.56513804 -0.25710925 -0.37994164 -0.67938596 -0.41104552 0.5402761 -0.66273135 0.8507567
0.80310565 -0.6595073 -0.8320744 -0.31976646 -0.68932533 0.5123475 0.50476813 -0.31540966
0.7902465 0.7676385 0.73111266 -0.4987022 0.64610755 -0.6480937 -0.30448952 -0.19721933
-0.28971836 -0.22162409 0.74115705 0.4329117 0.4718349 -0.059469115 0.149859 -0.6037316
0.7591355 0.8281009 0.43789026 -0.05876767 -0.66684264 0.18356216 0.62216645 0.41818464
0.7384478 -0.5021423 -0.28241903 -0.62363213 0.4609271 -0.83888376 0.57252467 -0.05300381
0.31050843 -0.37666404 0.5528104 -0.6645314 -0.13807246 0.7040194 0.71412677 -0.63521045
-0.66059744 -0.2731691 -0.9741658 0.87741137 0.4727072 -0.66829157 0.5799217 -0.43184772
-0.86625373 -0.43214953 0.59985286 -0.85566235 0.083045 0.25532538 0.756902 -0.56781626
0.0364535 0.5194627 0.58678204 0.38688302 -0.67719764 0.44264576 0.68271726 0.20500757
0.5701959 -0.42614007 -0.4892101 0.035668112 -0.42841023 -0.42957464 0.5820913 -0.26366928
0.716447 -0.78124714 0.57070154 -0.16115463 0.047183417 0.48873127 0.6082821 -0.7062017
-0.4680206 0.8855327 0.76905286 0.7405531 0.310139 -0.45931786 -0.6909084 -0.7473713
0.020343084 -0.031054938 0.7248967 -0.10803501 0.32659832 0.14299788 -0.79833925 0.46650606
-0.16861312 0.44729427 0.55429435 -0.74292076 -0.36595145 0.5870684 0.63331604 -0.8062922
0.5564554 -0.71415895 -0.49771607 -0.65259427 0.21260487 0.34232646 0.51928514 -0.4664504
0.4721353 -0.20885654 0.2511491 -0.34089905 -0.6602195 0.244091 0.4712085 -0.5777792
-0.28236535 0.47925106 0.63308036 -0.71801126 0.49899653 -0.21098976 -0.5785751 -0.46762452
-0.3104128 0.6386726 0.56517404 0.31826606 0.63660985 -0.5873086 0.49464533 -0.24664329

item_embedding.weight f4 [3019, 20]
00000000: f8e9 cc3e de6f 693e b2fe 42be e55a b0be
00000010: d348 b7be 133c cb3e f088 a83e 34c3 6e3e
00000020: 6c9b d63e a54a 77be 3d45 7ebe d84a 003f
00000030: f1a7 89be 9fd9 fb3e 8ddf ecbe 3937 f63e
00000040: 9e92 663e e1b0 00bf b186 f2be 210e 783e
00000050: 778a b03e 41d0 82be 6fe2 9f3d be4a febe
00000060: 9ef1 adbe d8c5 073f 7d6e 163f fecd 4b3e
00000070: 309e 8a3d 62b3 9dbe fc54 9abd 9c65 d63e
00000080: afd7 eabe 829d 7ebe dbcc 07bf 606f 163f
00000090: a37e e33e df94 82be a9b7 9dbe d379 e9be
000000a0: e8f6 d33e 8020 883e 4bcb dcbe 677e 233e
000000b0: 4bae dabe a87f d23e 3942 bb3e 02a7 db3e
000000c0: cbe3 b63e 192c 2abe 0af1 9dbe cd89 1f3e
000000d0: d3a4 eabe 781d 813d f76e ecbe 59e4 e03e
000000e0: 30ac b03e 8dd9 c6be 81e9 edbe d480 94bd
000000f0: 6bb4 a43d d422 9f3c 713e 623c efed a23e
00000100: 28ae 703d 3a9d 9d3d 70f9 b83e 0854 ba3e
00000110: cc64 cc3d 211c f8bd c889 59be b5dd abbe
00000120: 6e7f 70be cafc e5be 46c4 b53e 170a 963e
00000130: 9a77 8f3e b439 52be 788b 0dbe e14f b4be
00000140: dedd bf3e 304b 9a3e 7fa4 8bbe fee8 bcbd
00000150: 6fec d7be 97c9 ea3e d64d a93c eda8 a43e
00000160: e4ef b23e ef13 133d 2c4a c4be 7791 513e
00000170: c278 97be da9c 353e 1a2e e0be b2b1 b03e
00000180: df4f ab3e dfbd cbbe 9687 b2be 090e 793e
00000190: 02f9 a43e de45 573f f032 4e3f 036c fa3e
000001a0: 901e e53e 1518 153f cdb6 0fbf e483 ef3d
000001b0: daa9 5b3f ed73 673f a8c6 173f 67f0 573f
000001c0: c319 0c3f 733f 2dbf 65db d8bd a2af 63bd
000001d0: f8a7 cbbe 3805 f53e 1ed5 1c3f 5ef4 2cbf
000001e0: 852e 2dbf 2ec1 113f 3d56 2c3f adc1 5dbe
000001f0: 4b12 c63e 9081 14bf 1302 0dbf d745 25bf
00000200: 8ed4 0bbf 3ea5 1e3f ec59 243f 6194 7dbe
00000210: 435f f83e e3da 333d f3cb 9c3d 7fd1 fbbe
00000220: af5e 0fbf 6652 173f 8c1f 043f e425 febe
00000230: c489 cc3e d649 dc3e 383e cdbe 294b fc3d
00000240: af8a bdbd 05b0 a83e 1ddc 7bbe b34f 62be
00000250: c174 3b3d d574 b73d e063 60be 6257 373e
00000260: 3376 443e d2e5 87bc 13e4 dcbe bf27 9c3c
00000270: 9d1b a2be f1ba 92be 7e1c b1be d367 d2bb
00000280: 091e cf3e 511c 29be c4fd 98be 253e 8c3e
00000290: 15c5 61be c2ae e33e 47df b23e 748c cf3e
000002a0: 8683 cb3e 1e33 a3be e183 c6be 6a07 9f3c
000002b0: 27ab 6bbe 37b6 95bc e546 b5bd 5b51 ae3e
000002c0: 9e4f e73e fe1b 9dbe 6460 e7be bafa 0abe
000002d0: 00fe 0f3e ab15 ecbe 2154 ce3e 8902 ea3e
000002e0: f086 873e 9a48 543e c127 ee3e 7920 a0be
000002f0: 34fd dc3e cfab 25bd 25d0 d53e 9e34 9b3e
00000300: 0c7a 5c3e 7c39 09bf 54ad 53bd e4f3 993e
00000310: 1ec1 fc3e 1edf 443e 9bee 99be 306d 8dbe
00000320: 70ca 33bd 3758 e3be dea4 093e 82ff f8bd
00000330: a4e2 a1be 4ff5 cd3e 7173 c9be 989b de3e
00000340: aa20 883d 5207 053d 4372 673e c64c a23e
00000350: b69e b23c 9e41 043f 6bed 6fbd 6026 293e
00000360: 8277 27bd a901 dfbc f250 153e 0eb2 0e3e
00000370: d958 053e fe18 e2be f001 a73c 254f 6bbd
00000380: d928 9bbe 305c da3e 65ec dd3e 93a9 933d
00000390: fb2a f53e 8f51 76bd 5831 933d b746 033f
000003a0: 3659 a8bd 5fdc b43e 0a02 64be 0ae3 c83e
000003b0: 2757 ae3e 3f58 213d a007 1ebe 7dbe 27be
000003c0: ba57 f53e 2b53 a73e c57b bdbe c7fb 5cbe
000003d0: cb5b f9be 788f c73e 9dbb dd3e bb21 f53e
000003e0: a120 5a3e 39ec 74be cd4f d5be e153 a63e
000003f0: 18be 06bf c0ab 603e 659b 03bf a4d4 e13e
0.40022254 0.2279658 -0.19042471 -0.34444347 -0.35797748 0.3969427 0.32916975 0.23316652
0.41915452 -0.24149568 -0.248311 0.501142 -0.26885942 0.4918947 -0.46264306 0.48089007
0.22516868 -0.50269896 -0.47368386 0.2422414 0.3448064 -0.2554951 0.07806861 -0.496664
-0.33973402 0.5303626 0.5876234 0.19902799 0.06768453 -0.3080092 -0.07535741 0.41874397
-0.4586768 -0.24864772 -0.5304696 0.58763695 0.44432554 -0.25504205 -0.30804184 -0.45600757
0.41399312 0.26587296 -0.4312385 0.15966187 -0.427111 0.4111302 0.3657396 0.42900854
0.35720667 -0.16618384 -0.3084796 0.1557991 -0.45828876 0.06304449 -0.4617841 0.43924215
0.3450637 -0.38837853 -0.46467212 -0.072511345 0.080422245 0.019425787 0.0138088325 0.31822154
0.05875984 0.07696004 0.36127806 0.36392236 0.09980163 -0.1211474 -0.21243966 -0.33567587
-0.2348611 -0.44919425 0.35501307 0.29304573 0.28020936 -0.20529824 -0.13822734 -0.35217193
0.3747396 0.3013549 -0.27273938 -0.09224127 -0.42172572 0.45856926 0.020666998 0.3216013
0.34948647 0.035907682 -0.3833784 0.20465647 -0.29584318 0.17735615 -0.43785173 0.3451057
0.33459374 -0.39793298 -0.3486907 0.2432176 0.32221228 0.84090984 0.80546474 0.4891053
0.4474988 0.5823987 -0.56138307 0.11695078 0.8580605 0.90411264 0.592875 0.843512
0.5472681 -0.6767494 -0.10588721 -0.05558742 -0.39776587 0.47855544 0.6126269 -0.67560375
-0.6764911 0.56935394 0.6731909 -0.21655913 0.3868583 -0.58010197 -0.5508129 -0.6455969
-0.5462121 0.6197089 0.6419971 -0.24763633 0.4851018 0.04390992 0.07656088 -0.4918327
-0.5600385 0.59110105 0.51610637 -0.49638283 0.39948857 0.43025082 -0.40086532 0.12319023
-0.092549674 0.32946792 -0.24595685 -0.22100715 0.045765642 0.08957831 -0.219131 0.17904428
0.19185714 -0.016589079 -0.43142757 0.019061921 -0.31661692 -0.2865825 -0.3459205 -0.006421068
0.40452603 -0.16514708 -0.29881108 0.27391163 -0.22047837 0.44469267 0.34935972 0.40536845
0.39748782 -0.31874937 -0.3877249 0.019412715 -0.23014508 -0.018275363 -0.08851413 0.34046444
0.4517793 -0.3068542 -0.45190728 -0.13572207 0.14061737 -0.4611028 0.4029856 0.4570506
0.26470137 0.2073082 0.46514705 -0.31274775 0.4316193 -0.040447053 0.41760364 0.3031358
0.21530932 -0.5360334 -0.05167897 0.30068886 0.49366087 0.19225737 -0.30064854 -0.27622366
-0.04389423 -0.4440324 0.13441798 -0.12158109 -0.31618226 0.40226218 -0.39345887 0.43478084
0.06646855 0.032477684 0.22602181 0.31699198 0.021804195 0.51662624 -0.05857603 0.16518545
-0.040885456 -0.027222471 0.1458166 0.1393511 0.13022174 -0.44159693 0.020386666 -0.057448525
-0.30304602 0.42648458 0.43344417 0.07210078 0.47884354 -0.060136374 0.07187146 0.5127978
-0.08220141 0.3532438 -0.22266403 0.39235717 0.34050867 0.0393908 -0.15432596 -0.1638126
0.47918493 0.3268064 -0.3700849 -0.2158042 -0.48702845 0.38976645 0.433072 0.47877297
0.2130151 -0.23918237 -0.41662446 0.3248587 -0.5263381 0.21940517 -0.5140899 0.44107544
