best_para_path/baseline_ciao100.10.20.70.250.251.01.00.5_p10_20mf_explicit_seed0_ex1_0.005_1e-05.pt (torch, 446479 bytes, 2 tensors)

user_embedding.weight f4 [2541, 20]
000000 dc 77 a9 3f ef 9c ab 3e 7f 1e 2c bd bb 4a 2d bf
       1.3239703 0.33518168 -0.04202127 -0.67692155
000010 48 c9 2c 3c 19 4d 75 bf 88 41 91 bf 23 2b ce be
       0.010546036 -0.95820767 -1.1348124 -0.40267286
000020 21 92 9e 3e 27 a5 b8 3e eb 56 af be f8 67 3d 3e
       0.30970863 0.360635 -0.34246 0.18496692
000030 0d b7 88 bf 5a 09 20 bf 70 26 5a be 65 c1 c6 bd
       -1.0680863 -0.6251427 -0.21303725 -0.09704856
000040 cd 84 83 bd 54 49 55 3f 74 90 ab 3f 5d 9b 94 be
       -0.06421814 0.83315015 1.3403459 -0.29024783
000050 04 98 6d 3e d3 41 95 3f 83 9e 72 3e 5c a1 93 bf
       0.2320252 1.1660713 0.2369328 -1.1533618
000060 51 76 4f 3e 51 37 52 bf 21 b7 21 bf a4 59 bb 3e
       0.20259978 -0.82115656 -0.6317006 0.36591828
000070 97 cd c1 be 04 69 03 3f a9 6d 37 bd 4a 90 18 3f
       -0.37852165 0.51332116 -0.044782314 0.5959517
000080 93 82 2b bf 3d 41 f4 be f9 5f 41 3f 45 6a 27 3f
       -0.66996115 -0.47706023 0.7553707 0.6539653
000090 76 52 49 bf 15 24 77 3f 42 08 80 3f 8a 7e 95 bf
       -0.7864145 0.9653943 1.000252 -1.1679242
0000a0 4d 37 dd bd 9b ed 82 3e 57 7c d4 3e e4 6e 81 bd
       -0.108015634 0.25571904 0.41501114 -0.06319979
0000b0 18 3f af 3e 7f 45 89 bf 7f 70 38 bf fb 73 03 bf
       0.34227824 -1.0724334 -0.72046655 -0.5134885
0000c0 24 94 05 3d 17 39 e9 bd 75 88 87 3e 4c e6 13 3f
       0.03261198 -0.11387842 0.26471296 0.5777328
0000d0 45 cc 04 bf f6 e6 d1 bd 24 7f 7e 3f 4d 43 10 3e
       -0.5187419 -0.102491304 0.9941275 0.14088173
0000e0 07 a8 27 3d c5 64 21 3e 55 41 8e 3f c4 1b 6a be
       0.040931728 0.15761097 1.1113688 -0.22862154
0000f0 84 94 ed 3e 05 7f a6 be 9c 55 67 3f d5 41 7a bf
       0.4640237 -0.32518783 0.90365005 -0.977567
000100 97 d2 21 3f ca 75 25 bf 55 db b9 be 20 49 7c 3c
       0.6321196 -0.64632857 -0.3630015 0.015398294
000110 73 26 6f 3e a5 e5 44 bd 67 de 04 3d 13 cc 07 3f
       0.23354511 -0.04807057 0.032438662 0.5304577
000120 75 c7 a1 bd c4 fb 25 3e 57 9b 41 bd f9 f4 16 bf
       -0.078993715 0.16209322 -0.047267284 -0.5896755
000130 8a c7 a2 3e 75 75 be 3e 1e 79 96 3f 9f be 7c 3e
       0.3179286 0.37198988 1.1755712 0.24682091
000140 f0 c7 89 bf 12 66 0b 3f 06 9c b1 3f 85 84 0a 3f
       -1.0764141 0.5445262 1.387574 0.5410846
000150 99 86 40 3e e2 8a 3b bf f4 65 cd be 79 80 e4 3e
       0.18801345 -0.73258793 -0.40116847 0.44629267
000160 7c 34 51 3f 1f 58 01 3e 81 29 96 be 0f 4b 32 bf
       0.8172071 0.12631272 -0.2932854 -0.6964578
000170 f4 1e e8 3e 38 90 54 bf 94 1a 81 3f 0b 4f 3a be
       0.45336115 -0.8303256 1.0086236 -0.18194215
000180 25 2b ce 3e 61 07 30 3f 94 8e 3b 3f 1e 30 af 3c
       0.40267292 0.6876126 0.7326443 0.021385249
000190 64 09 a9 3e df 7e 10 3f b1 43 91 3e 19 f4 44 bf
       0.33014977 0.5644359 0.28371957 -0.76934963
0001a0 18 3f 0e bf bf ee c7 be 39 84 e3 be e4 cb 89 bd
       -0.55565023 -0.39049336 -0.44436815 -0.06728342
0001b0 6b 33 08 bd 86 a4 1f be 20 c7 58 be 71 8f ae 3f
       -0.03325216 -0.15590104 -0.2116971 1.3637525
0001c0 e0 88 be be 57 10 55 bf e0 de d2 be d8 bc 0c bd
       -0.37213802 -0.8322806 -0.41185665 -0.034359783
0001d0 cb 94 3e bf 7b 5f c5 3f d9 75 d1 3f b6 c3 3a 3e
       -0.7444579 1.5419763 1.6364089 0.1823872
0001e0 49 11 ce 3d 7c ab 7d 3e ea 4f 51 be da 30 6f bf
       0.10061891 0.24772447 -0.20440641 -0.93433917
0001f0 3d 36 83 3c 9b 04 69 bf b3 7f 80 be 7f 51 87 3f
       0.016017074 -0.9102265 -0.25097427 1.0571746
000200 09 5c 01 3f da bc 5d 3f b9 2d 62 be 8f 50 33 3e
       0.5053106 0.8661629 -0.22087754 0.175112
000210 9a 98 b8 3e 2c 84 56 bf f9 e2 34 bf d3 56 fa bd
       0.36053926 -0.8379543 -0.7065883 -0.12223592
000220 6a 66 1d 3f 3c c5 99 3f a3 cf 30 3f c7 ba f7 bd
       0.61484396 1.2013316 0.6906683 -0.12096172
000230 9a d2 28 3f 23 c7 1c 3e 3d 8f 88 3f 1c c1 8e 3e
       0.6594635 0.1531034 1.0668713 0.27881706
000240 d0 c2 85 3f 1b fd 99 be 41 d8 48 bf d1 d1 9a be
       1.0450077 -0.30075917 -0.7845498 -0.30238202
000250 93 dc a3 be e6 af c7 be c2 5e 75 3f 0a a9 65 be
       -0.32004222 -0.39001387 0.95847714 -0.22427765
000260 2e 22 bd be cb ba 65 bf ae 11 12 3f 4b 85 06 bf
       -0.3694014 -0.8973815 0.5705823 -0.5254714
000270 76 57 8e 3e 04 d5 e3 3f 7c df 71 3d ea 53 1b bf
       0.27801102 1.7799382 0.059051022 -0.6067492
000280 41 a9 8c be 94 be 9a be 07 73 26 3f ae d0 3b 3f
       -0.2747288 -0.30223525 0.6501927 0.73365295
000290 da 59 05 3f e0 46 9d 3e 8c fa fc be 76 13 ce 3f
       0.5209023 0.30718136 -0.49409902 1.6099689
0002a0 48 a3 87 bf 0c ae 87 bf 73 98 3b 3f e9 41 85 bf
       -1.0596704 -1.059999 0.73279494 -1.0410739
0002b0 ba 78 91 3e 52 c5 9e bf 84 ce af 3f dc e5 c5 be
       0.2841242 -1.2403967 1.3734899 -0.3865193
0002c0 b7 b6 2a bf 67 d6 d4 be 82 6a f2 3b 91 82 97 3f
       -0.6668505 -0.41569826 0.0073979506 1.1836721
0002d0 8d 48 c0 be ce de 9e 3d c1 f5 24 bf 4f 0b a2 be
       -0.37555352 0.0775734 -0.6443749 -0.31649253
0002e0 15 17 da 3e 68 39 d1 bf 5f 2a 02 3f a7 c1 83 3e
       0.42595735 -1.6345644 0.50845903 0.25733683
0002f0 da 70 75 bf 88 75 17 3e cc f0 c1 3f 0f 9f 76 3d
       -0.9587532 0.14790928 1.515161 0.060210284
000300 d9 8c e7 be 6e d7 85 bf d8 53 da 3f cd e5 73 bf
       -0.45224646 -1.0456369 1.7056837 -0.95272523
000310 4a 48 58 3f 6c f8 aa 3f 6a d7 8b 3f bc d0 0d 3f
       0.84485304 1.3357062 1.0925114 0.5539663
000320 3c 88 87 be 71 76 1c 3f 71 f7 0d 3f c7 82 4a bf
       -0.26471126 0.6111823 0.5545569 -0.791058
000330 34 0f 10 bf 03 a7 01 bf 8f d4 99 bf c9 9f 38 be
       -0.562732 -0.50645465 -1.2017993 -0.18029703
000340 72 be 09 3e fe 15 97 3e 0e 6f b1 3f 15 da 5c 3f
       0.13451555 0.29508966 1.3862016 0.86270267
000350 b4 34 01 bf 52 83 f7 be 3a 9b a9 be 4e e1 82 3e
       -0.50471044 -0.48342377 -0.3312624 0.2556252
000360 d2 96 2f be ff c5 a5 3f 12 b9 94 3f 45 17 17 bf
       -0.17147377 1.2951049 1.1618979 -0.5901988
000370 fa 0d c0 3d 17 93 8b 3f 50 52 19 3f a8 2f a1 bf
       0.09377666 1.0904263 0.59891224 -1.2592669
000380 5e 5e 8c 3f 48 7d 04 bf 9e 1d fe be 0e 6c 43 bf
       1.0966299 -0.51753664 -0.4963197 -0.76336753
000390 de 8a 51 bf a4 ca dc be 11 27 1f bf 63 ff 63 3e
       -0.8185252 -0.43123353 -0.62168986 0.22265391
0003a0 f8 a3 50 bf 4c 4f 37 bf c3 c4 aa 3e f0 1c 3e bc
       -0.81500196 -0.7160537 0.33353242 -0.011603579
0003b0 e6 4b 85 3d ef 1a d5 3e 8a c1 50 3f 19 0c b9 bf
       0.06508617 0.4162211 0.8154532 -1.4456817
0003c0 71 07 75 bf 1c 7b 53 3d fc b2 43 3f 7e 0d a0 3e
       -0.9571448 0.051631078 0.76444983 0.31260294
0003d0 28 b2 9b 3e e8 61 95 bf 87 d4 11 bf d7 78 37 bf
       0.3040936 -1.1670504 -0.56964916 -0.7166876
0003e0 aa 3c 66 bd 58 23 a3 3e 33 35 b5 3e 92 24 da bd
       -0.056210198 0.31862903 0.3539215 -0.106515065
0003f0 f0 14 0a 3e fe da 6f bf f1 ad d2 bd 18 fd 14 bf
       0.1348455 -0.9369353 -0.10287083 -0.5819869

item_embedding.weight f4 [3019, 20]
000000 ee fd ae 3e 79 f0 b9 be 01 32 ad be 75 7e 9b be
       0.34178108 -0.3631628 -0.33827212 -0.30369917
000010 3d 44 35 be 65 76 73 3d f5 89 93 3e ff 4e 26 3e
       -0.17701812 0.05943908 0.2881619 0.16241072
000020 40 66 3a 3e f4 c9 52 3e 19 b6 0c 3d b6 40 82 3e
       0.18203068 0.20584852 0.03435335 0.25439996
000030 60 c8 68 be d3 c0 05 3f f2 b5 71 bf 1f 18 de 3e
       -0.22732687 0.5224735 -0.9441825 0.43377778
000040 2d de cd 3d 0f 2d 5c be 29 4e 4c bc dd ca 09 3e
       0.10052142 -0.21501563 -0.012469807 0.13456292
000050 d3 9f 52 ba 99 b2 e2 be db 2a 2c be 3f de f7 bc
       -0.000803468 -0.44276884 -0.16813223 -0.030257342
000060 85 74 12 be 64 9e b6 3d b5 50 5a 3e 32 55 a3 be
       -0.14302261 0.08916929 0.2131985 -0.31900936
000070 0b ca b5 3e 82 b5 99 3e fc 5e ad be 6d a1 da 3e
       0.3550571 0.30021292 -0.3386153 0.42701283
000080 87 b3 2a be 85 b2 30 3e b5 31 24 bf 5d 13 b6 3e
       -0.16670047 0.172556 -0.64138347 0.35561648
000090 1b c0 0a 3f 89 cf 73 3e 99 e8 17 3e 42 8a 0a bf
       0.5419938 0.23809637 0.14834823 -0.54117215
0000a0 0c f7 06 3f fd 68 3b bd a8 40 e4 be c8 d2 88 3c
       0.52720714 -0.04575442 -0.4458058 0.01670207
0000b0 29 4b fe be cd 22 89 3d be 0b af 3e 6f 57 4a 3d
       -0.49666718 0.06696091 0.34188646 0.04939979
0000c0 fd 3c 48 3e e6 f3 cc bc a7 b8 25 be cc 3d 6c 3e
       0.19554515 -0.025018644 -0.1618372 0.23070449
0000d0 47 26 b4 be 73 3e ac 3e 28 d0 1d bf 70 24 1b 3f
       -0.35185453 0.33641395 -0.61645746 0.60602474
0000e0 75 f7 39 3e 58 dd 6a be f2 73 37 be 43 f9 1b bb
       0.18160804 -0.22935998 -0.17915323 -0.0023799695
0000f0 d1 f1 33 be f7 42 f0 3c df 60 e2 be 97 87 d2 3e
       -0.17572714 0.029328806 -0.44214532 0.41119072
000100 19 e2 d9 bd 8d 50 a4 3e f0 86 28 3e 5f 87 cc bc
       -0.10638828 0.32092705 0.16457725 -0.024966894
000110 45 2b 8d 3d 2e 06 cb be 6e 41 12 3c c3 fb f0 bd
       0.06893019 -0.39653152 0.008926732 -0.1176677
000120 c3 4b 7f 3d 89 87 c1 be f5 f2 4c 3e 60 a1 1b 3d
       0.06232811 -0.37798718 0.20014556 0.037995696
000130 57 9c c4 3e 22 9c a2 bb 8a a6 b5 bd 3a 89 7b be
       0.38400528 -0.00496246 -0.088696554 -0.24564067
000140 13 37 99 3e 07 ca 3c 3c cd 2c d8 be 0d 70 da bd
       0.2992483 0.011522776 -0.4222168 -0.10665903
000150 34 16 84 be ed 20 c0 3c b9 14 06 be a5 38 04 be
       -0.2579819 0.0234532 -0.13093843 -0.12912233
000160 2c 77 59 3e d4 27 8d 3e 44 eb 19 be bd ab 89 3e
       0.21236867 0.2756945 -0.15031153 0.26888838
000170 1c 38 3c be a9 ac c9 3e 23 b6 0d bf 5e 13 ed 3e
       -0.18380779 0.39389542 -0.55356044 0.46303838
000180 7c 0b bc 3b 15 de b5 be ef 94 61 bc b1 d1 aa bd
       0.0057386737 -0.35520998 -0.013768419 -0.08340777
000190 5f 7e 2d bf 91 af 28 3d 58 d0 1c bf 13 4b a9 bf
       -0.6777095 0.04118306 -0.6125541 -1.3226036
0001a0 f5 a4 5c 3f e3 44 55 be 52 d6 61 be ca 9b 0d 3e
       0.86189204 -0.2082706 -0.22054413 0.1382896
0001b0 25 1e c8 3e 72 a8 07 3f 9c a4 c4 be 57 24 bf 3f
       0.39085498 0.529914 -0.38406837 1.4932965
0001c0 67 7c c9 be 62 b2 b5 be c6 3a 40 be d1 2d 5d be
       -0.39352724 -0.35487658 -0.1877242 -0.21599509
0001d0 da ee 26 3f 90 fb 69 3e 64 fc 8d 3f dc 81 c8 bf
       0.6520821 0.2284987 1.1092649 -1.566463
0001e0 d8 a2 74 bf ef c7 9c 3f db 55 a4 3f 10 2f 2b bf
       -0.9556098 1.2248515 1.2838701 -0.66868687
0001f0 19 39 41 3e 6f f5 27 bd 51 9f 47 3e 4e b4 51 bf
       0.18869437 -0.041005548 0.19494368 -0.8191575
000200 9a d3 bc bc 16 de d6 3d 36 f6 ea be 9f d7 d8 3d
       -0.023050118 0.10491578 -0.4589097 0.105880015
000210 e0 cc 4b be 62 eb 18 be be 84 80 3e 73 97 f2 be
       -0.19902372 -0.14933541 0.25101274 -0.47381172
000220 48 9b df 3e bc 99 32 3f c6 a2 7a bc fb 44 16 bf
       0.43673158 0.6976583 -0.015297597 -0.58699006
000230 67 c2 c1 3d 1e ea a3 3e 86 10 e3 be b1 7d 06 be
       0.094609074 0.32014555 -0.44348544 -0.13133885
000240 48 c0 a4 be bf 8d 63 3e 2a c1 1a 3e cb 31 82 be
       -0.3217795 0.2222204 0.15112749 -0.25428614
000250 66 41 86 3e 1d 55 5e 3e d7 76 8d be a2 a2 ae 3e
       0.2622177 0.21712156 -0.2762973 0.34108454
000260 99 32 7b be 90 bc c3 3d 06 d7 f6 be 04 1c 28 be
       -0.2453102 0.0955745 -0.48210925 -0.16416937
000270 2a 16 4e be 06 a2 50 bd 3c c9 54 be 4d 55 b3 bd
       -0.20125642 -0.050935768 -0.2077989 -0.08756504
000280 03 87 a9 3e 97 2b e8 be bb 5d f8 be fd 63 b9 ba
       0.33110818 -0.45345756 -0.4850901 -0.0014144179
000290 84 2c bd bd aa 7c 06 3f 2f b4 c8 3e a9 4d 92 3d
       -0.09237006 0.5253397 0.3919997 0.07143719
0002a0 b0 60 04 ba 0a 14 f8 bd 2e 77 80 be 47 6f 37 3d
       -0.0005049808 -0.12113197 -0.25090927 0.044783857
0002b0 b1 f6 1f be 31 e6 5a 3e aa 42 33 3e 4f 3e 12 3f
       -0.15621449 0.21376874 0.17505899 0.57126325
0002c0 66 99 b4 3e 64 0f fd be ad e8 5d be 3f 9f 79 be
       0.35273284 -0.49425805 -0.2167079 -0.24377154
0002d0 89 b8 bf bd 13 15 e3 bd 74 ff 46 3e cc 0c 7e bb
       -0.09361369 -0.11088004 0.19433385 -0.0038764952
0002e0 3e 07 14 3e 04 18 69 3e d3 27 03 3f 9c f1 07 bf
       0.14455888 0.22763067 0.5123264 -0.5310304
0002f0 8c 85 9c 3e d6 5f bd bd 27 b3 e0 3d 43 14 14 3d
       0.30570638 -0.09246795 0.109716706 0.036152136
000300 85 67 b4 bd b9 ac 0d bf 14 15 0c 3b bd ca e3 3e
       -0.08808807 -0.5534168 0.0021374868 0.44490615
000310 30 03 1a 3f e9 54 da 3d ae a7 70 3e 4c d6 df be
       0.60161114 0.106607266 0.23501465 -0.43718183
000320 7f b8 06 3e 76 06 65 be 20 bb 0a be 1e fa 01 bf
       0.13156317 -0.22365746 -0.13547945 -0.50772274
000330 ee f3 04 bf 65 bb 63 3e 0e 39 36 be 6b ae 28 3e
       -0.5193471 0.22239454 -0.17795202 0.16472785
000340 d7 f0 df 3d 80 af e1 3b 33 8b 56 be 28 60 69 be
       0.109346084 0.0068873763 -0.20951538 -0.22790587
000350 ae 4e 81 3d ee d9 ab 3e 20 38 7a be e4 88 d0 3d
       0.06313835 0.33564705 -0.24435472 0.1018236
000360 53 80 a6 3e b7 cb 20 3d 52 74 a2 3e 29 0b 70 be
       0.3251978 0.039256778 0.3172937 -0.23441757
000370 ac 4b 0f be de f1 35 be cc ba 83 bd 4c 29 b8 3c
       -0.1399371 -0.17768046 -0.06432113 0.02248063
000380 2f aa a5 be 35 b4 c8 3e 97 8f 6f bb 38 47 31 3e
       -0.32356402 0.39199987 -0.0036554092 0.17312324
000390 8b 8a 0b 3e cf 7f 94 3d 7e cd ae 3d 37 9b 1b 3f
       0.13627069 0.0725094 0.08535288 0.60783714
0003a0 06 2c 34 be 80 7e a8 3e 11 36 12 3e 4d 77 c0 3e
       -0.17594919 0.32909012 0.14278437 0.3759102
0003b0 ec 74 d1 3e 49 ad 35 3e 55 80 62 3b 49 50 2d be
       0.40909517 0.17741884 0.0034561355 -0.16925158
0003c0 8f 71 2d 3f 34 2e 00 be 16 57 be be b4 e0 83 3e
       0.677514 -0.12517625 -0.37175816 0.25757372
0003d0 4a 56 42 bf 9e 3a 96 3e 6e 0b dc 3b 16 5e b5 3d
       -0.75912917 0.29341596 0.0067152297 0.08855836
0003e0 66 ff 0e 3e 28 ad bd 3e ca 22 02 bf 2d d4 74 3e
       0.13964614 0.3704617 -0.50834334 0.23909064
0003f0 e1 1c 42 bd 52 5d de 3e ad 73 a4 be 97 d4 df 3e
       -0.047390822 0.43430573 -0.32119504 0.4371688
