best_para_path/baseline_ciao100.10.20.70.250.251.05.00.5_p10_sum20lightgcn_explicit_seed0_ex1_2_0.001_1e-06.pt (torch, 446715 bytes, 2 tensors)

user_embedding.weight f4 [2541, 20]
000000 a3 71 de be 83 5a 9e 3f 57 1a 8e 3f 81 f9 55 bf
       -0.43446073 1.2371372 1.1101788 -0.8358384
000010 51 82 f4 bd 77 2e 91 3d 5c 89 72 bf a1 6b ed be
       -0.119389184 0.070889406 -0.94740844 -0.46371177
000020 ab 2a 28 bf d6 b7 8d 3f ba f8 aa 3f 25 b3 bd 3f
       -0.65690106 1.1071727 1.3357155 1.4820296
000030 81 db e2 3e 7a d8 9e 3f ec e1 95 bf 9b 5d 21 bf
       0.44308093 1.2409813 -1.1709571 -0.63033456
000040 eb 0d 73 bf b6 cf 62 3f f3 03 ab 3f 13 bf ae bf
       -0.9494311 0.8859819 1.336058 -1.3652061
000050 2a 36 6f bf fd 93 3b 3f 58 67 ea 3e 2f ae ea be
       -0.9344202 0.7327269 0.4578197 -0.45836017
000060 a6 b3 28 3d 9f 2a 3c be c4 87 fd be f6 6b 77 bf
       0.04118695 -0.18375634 -0.49517643 -0.9664911
000070 49 20 26 be 6e 07 84 3f 16 3b a2 3f b9 5d 99 3f
       -0.16223253 1.0314767 1.2674282 1.1981727
000080 b8 f7 9b bf 03 7c d1 be 6c cb be bf 3c 2b 23 3e
       -1.2184973 -0.40914926 -1.490583 0.15934461
000090 96 dc 3b bf af 61 a6 3e f9 ab 8c 3f 2c 93 7a bf
       -0.7338346 0.32496402 1.0989982 -0.97880816
0000a0 98 fe 60 bf 99 a8 0e bf d5 c9 6e 3f 89 cf 94 bf
       -0.8788848 -0.5572601 0.9327672 -1.1625835
0000b0 3a 13 39 3e f1 13 ae be 69 80 07 bf e5 de a3 bf
       0.1807374 -0.3399959 -0.52930313 -1.2802397
0000c0 19 d3 d0 3e 82 32 2a 3f 40 82 3f 3f 91 2f c0 3f
       0.40786055 0.6648332 0.7480812 1.5014516
0000d0 ab ed 25 3f 39 14 d1 3e b2 79 a2 bf 93 e5 26 3f
       0.6481578 0.4083574 -1.2693388 0.6519405
0000e0 55 d5 52 bf 58 34 84 3f 86 0a cf 3f d4 05 6a bf
       -0.8235677 1.0328474 1.6175086 -0.91415143
0000f0 f1 ac b2 bf 9a 07 72 3f ba 7b 5a 3f 7a 92 bc bf
       -1.3959028 0.9454285 0.8534504 -1.4732201
000100 bb 1c 9a bd e3 25 88 bf c4 26 9a bf 8c 0f 03 bf
       -0.07525011 -1.0636562 -1.204308 -0.511956
000110 9e 1d 5e bf 2d b0 9f 3f 3c e4 b5 3f b2 cc 43 3f
       -0.8676394 1.247564 1.4210277 0.76484215
000120 e5 9d 3b bf d4 2d cf 3f 02 17 b9 bf 55 1b 07 be
       -0.732878 1.6185861 -1.4460146 -0.1319402
000130 f5 8c 9d 3f 5d 54 27 bf c0 1f 59 3e 2f ea 46 bf
       1.2308642 -0.65363103 0.21203518 -0.77701086
000140 bc cf 46 bf 40 5b 32 3f 9d ba 88 3f c0 85 a3 bf
       -0.7766073 0.69670486 1.068195 -1.2775192
000150 9c 66 ab 3f fe 06 bc bf 50 d7 17 bf 78 29 39 bf
       1.3390689 -1.4689634 -0.59312916 -0.723289
000160 57 b8 a7 bf 0d d9 f5 bb 6f ce 88 3e 60 83 55 bf
       -1.3103131 -0.007502681 0.26719996 -0.8340359
000170 ff 4e a0 bf 24 4a 98 bf bd 36 87 3f f8 7b 20 bf
       -1.2524108 -1.1897626 1.056358 -0.6268916
000180 af b8 67 3e e9 fe a1 3f a5 f3 83 3f 70 6c e3 be
       0.22629045 1.2655917 1.030873 -0.4441867
000190 01 cd 5e bf 94 c0 ea 3e 29 12 85 3f 41 61 4b be
       -0.8703156 0.4585005 1.0396167 -0.19861318
0001a0 76 c6 26 3f 5d d8 b8 bd 32 61 d9 3d 76 4a 90 be
       0.6514658 -0.09025643 0.10614242 -0.2818181
0001b0 91 65 96 be 4d 91 21 3f 7b b9 12 3f 93 b7 d2 3f
       -0.29374364 0.63112336 0.5731427 1.6462272
0001c0 97 d9 04 bf c1 8a 8b 3e bc 1b ad bf cf c9 1b 3f
       -0.51894516 0.27254298 -1.3524089 0.6085481
0001d0 f1 ac 0e bf 55 cf 80 3f e4 7d a0 3f 10 7e a4 bf
       -0.5573264 1.0063273 1.2538419 -1.2850971
0001e0 ab d2 47 3f 68 bf b9 3f 80 fb c5 3f 59 45 99 be
       0.7805583 1.4511538 1.5467377 -0.2993572
0001f0 4e cf 9f 3f b4 ac a2 bf eb 22 7d be 9a 48 fb be
       1.2485139 -1.2708955 -0.24720351 -0.49078828
000200 0c ad 88 be 16 68 d8 3e bf 6d 96 be a7 cf 4d 3f
       -0.26694524 0.4226691 -0.29380605 0.8039498
000210 02 e9 9f be 9a 3c 96 3f 59 7a 9f bf 71 7d 53 bf
       -0.31232458 1.1737244 -1.2459213 -0.82613283
000220 34 35 1e bf 88 63 bb 3f 17 a1 2e 3f e4 59 61 bf
       -0.6179993 1.463975 0.68214554 -0.8802779
000230 fc 5f b7 bf f2 a1 1d 3f b3 fe 90 3f 17 45 43 3e
       -1.4326167 0.61575234 1.1327728 0.19069324
000240 05 a1 98 3f 4d b4 a0 bf 2a 5b 6d bf 4a 24 53 bf
       1.1924139 -1.2555023 -0.9271723 -0.8247725
000250 29 5d c6 be 32 84 3a 3f de 45 a9 3f b1 fd 96 be
       -0.3874295 0.72857964 1.3224447 -0.29490426
000260 4a bb b1 bf 35 41 a6 bf 19 4d 91 3d 6e 0e 85 bf
       -1.3885281 -1.298865 0.07094783 -1.0395029
000270 c6 98 28 bf 21 30 aa 3f d0 ec 82 3f a5 19 99 bf
       -0.65858114 1.3295938 1.022852 -1.1960951
000280 52 57 b0 bf 97 a1 9c 3f cb 22 e6 bf ec 13 61 be
       -1.3776648 1.2236813 -1.7979368 -0.21980256
000290 e9 ce 8a 3f 65 70 e2 bf c0 3a a4 be 22 6c ff bf
       1.0844394 -1.769055 -0.32076073 -1.9954875
0002a0 33 9e 91 bf c2 99 db bf 38 a3 a3 bf 67 5f e8 bf
       -1.1376404 -1.7156298 -1.2784185 -1.8154114
0002b0 dc 50 ba 3f 56 61 ab bf e7 c0 c6 3f c4 9d 2a bf
       1.4555926 -1.338908 1.5527619 -0.6664698
0002c0 34 fb 02 bf a9 63 f0 3f dc 18 17 bf fa e4 a7 3f
       -0.51164556 1.8780414 -0.5902231 1.3116753
0002d0 40 37 65 bf 1c 00 65 3f 31 44 45 3f 41 d6 64 3e
       -0.8953743 0.8945329 0.77057177 0.22347356
0002e0 1f f8 88 3f 89 c6 79 bf 63 ee bf be a3 01 71 bf
       1.070072 -0.97568566 -0.37486562 -0.9414312
0002f0 48 67 8d bf 63 19 ad 3e 05 e5 91 3f b0 6c 01 bf
       -1.1047144 0.3380843 1.1398016 -0.5055647
000300 dd e3 5d bf cf ee a5 bf da 36 e9 3e 15 a9 1a 3f
       -0.86675817 -1.2963504 0.4554966 0.6041425
000310 ea 4a 42 3d 3e a3 41 3f 05 48 a1 3f 94 52 8d bf
       0.047434725 0.7563971 1.2600104 -1.1040826
000320 de 18 85 bf 39 c8 92 3f da 33 c4 3f af 3b 05 3f
       -1.0398214 1.1467353 1.5328324 0.52044195
000330 c6 57 21 3f 36 76 01 bf b4 7f 2a be 4b cd 82 bf
       0.63024557 -0.50571 -0.16650277 -1.02189
000340 9a 5f b6 be bc 57 8d 3f 32 73 c1 3f f2 b7 28 bf
       -0.35619813 1.10424 1.511328 -0.6590568
000350 22 59 69 3d a1 57 55 bd 61 0a cd bf 14 2c 12 3f
       0.05696977 -0.052085523 -1.6018792 0.5709851
000360 34 62 54 be d9 10 75 3f 2e 11 a5 3f ad 4e b1 bf
       -0.20740587 0.9572883 1.2895868 -1.3852135
000370 d9 84 e1 be 9b 74 32 3f c0 a3 89 3f 6f 3a 90 bf
       -0.44046667 0.69709176 1.0753098 -1.1267833
000380 c2 84 f5 3e 20 15 2b bf 6d ef 29 bf 66 dd 85 bf
       0.4795285 -0.6682911 -0.6638096 -1.045819
000390 71 88 ad be cb 73 88 3f b2 d7 32 3f 83 ff 65 3f
       -0.3389316 1.0660337 0.69860375 0.89843005
0003a0 d3 7b 5f bf d3 07 2c 3d 43 1a a3 bf d6 42 39 bf
       -0.87298316 0.04199965 -1.274239 -0.7236761
0003b0 ac 8d 7b bf 7e 71 23 3f 7e 69 2b 3f e7 5d 53 bf
       -0.9826305 0.6384505 0.66957843 -0.8256516
0003c0 47 33 0b bf 5b e4 29 3f f8 08 55 3f 4c ba 3a bf
       -0.5437512 0.6636407 0.8321681 -0.72940516
0003d0 43 d8 2e 3f 57 e3 a1 be 29 82 41 bf 60 6f c3 be
       0.6829874 -0.3161876 -0.75589234 -0.3817091
0003e0 6d 33 ef be 5e 31 92 3f 75 0d 69 3f c1 68 bb 3f
       -0.46718922 1.1421316 0.9103616 1.4641343
0003f0 53 30 86 bf b5 94 a8 bf c2 cb 6d bf b2 4b 2c bf
       -1.0483497 -1.3170382 -0.92889035 -0.67303

item_embedding.weight f4 [3019, 20]
000000 d5 1b 47 3f a5 b7 45 bf 3a bd 9d bf f7 90 47 3f
       0.77776843 -0.77233344 -1.2323372 0.77955574
000010 74 d9 6c bf cf ca 98 3f 6d c9 85 3f 31 35 2d 3f
       -0.9251931 1.1936892 1.0452095 0.6765929
000020 95 64 9e 3f 0e b9 86 bf 25 1e 2d bf 74 40 57 3d
       1.2374445 -1.0525224 -0.6762412 0.0525517
000030 18 60 7c 3f 75 c4 94 3f 57 eb 90 3f 3c 43 91 3f
       0.9858413 1.1622454 1.132182 1.1348643
000040 29 00 79 3f 30 f7 79 bf e2 45 3b bf 26 1e 3b 3f
       0.9726587 -0.97642803 -0.7315351 0.7309288
000050 7c 0d 13 3f 9b 86 ab bf c8 09 a9 bf 09 52 90 3f
       0.5744245 -1.3400453 -1.320611 1.1275035
000060 4e 4a 9e bf 98 f6 bc 3f a6 c4 a9 3f 2c 0b 8d 3f
       -1.2366426 1.4762754 1.3263137 1.1019034
000070 3e bf a1 3f 05 af 03 bf 43 a6 e5 3e e8 6b 75 bf
       1.2636487 -0.51438934 0.4485341 -0.95867777
000080 4a 11 c7 be 3f 00 37 bf 9a 21 87 3f 93 77 ba 3f
       -0.38880378 -0.7148475 1.0557129 1.4567741
000090 21 af 8c 3f f6 d2 51 bf 9c 7e 24 bf 6a 1c 5d be
       1.0990945 -0.81962526 -0.6425569 -0.2159287
0000a0 ba 8d 87 3f 35 82 63 bf 24 37 78 bf 1e 98 56 3f
       1.0590127 -0.88870555 -0.9695914 0.8382586
0000b0 a6 c5 87 bf 2c 6f 80 3f 26 7b 67 3f d6 77 87 3f
       -1.0607193 1.0033927 0.90422285 1.0583446
0000c0 cd f0 7b 3f 4d 4c 82 bf c0 1e 8a bf 95 6a 58 bf
       0.9841431 -1.0179535 -1.0790634 -0.8453763
0000d0 f6 cd 8e 3f 27 64 81 3f 3f 6b 21 3f 82 2f 77 3f
       1.1156604 1.0108689 0.6305427 0.96556866
0000e0 b9 5a 22 3f ff 70 85 bf 12 87 8b bf 1a 57 78 3f
       0.6341968 -1.0425109 -1.0900595 0.97007906
0000f0 51 90 1a bf 6f 33 38 be 26 ef 89 bd 1e 7a 5a 3f
       -0.6037646 -0.1798837 -0.06735067 0.85342586
000100 9d 35 bf 3e 47 5a 36 3f 00 59 7a 3f 52 a6 06 3f
       0.3734559 0.712315 0.97792053 0.52597535
000110 e2 25 e9 be 00 27 8a be 47 53 8e 3e 4b 3e a1 bf
       -0.45536715 -0.2698288 0.2779791 -1.2597135
000120 29 dd 81 bf 2f 09 9a bf 88 90 9b 3f 23 6d 4e 3f
       -1.0145618 -1.2034053 1.2153482 0.8063528
000130 11 83 94 3f 87 48 a5 be 66 36 82 3c 8a 7d 41 bd
       1.1602498 -0.32281896 0.01589508 -0.047238864
000140 4a 15 84 3f d5 1c 71 bf b9 54 06 bf 9d 24 7e 3e
       1.0318997 -0.9418462 -0.52473027 0.24818654
000150 94 19 8f bf dd 29 94 3f 66 29 27 3f 0e 77 96 3f
       -1.1179681 1.1575276 0.65297544 1.1755083
000160 9d 19 8b 3f 73 cd 87 bf e5 8a 89 bf da 87 7c be
       1.0867192 -1.0609573 -1.0745512 -0.24661198
000170 0e 5b 96 3f f9 8a 67 3f 58 0f 2d 3e 14 14 11 3f
       1.1746538 0.9044643 0.16900384 0.5667126
000180 a1 5b e3 3e 86 6c 94 bf af 77 6d bf 97 e1 87 3f
       0.44405845 -1.1595619 -0.9276075 1.061572
000190 56 9b 73 3f b9 23 e1 be 3d 8f 92 be cd 2b 79 3f
       0.951589 -0.43972567 -0.28624907 0.9733246
0001a0 62 82 24 bf 45 a5 82 3f a6 52 15 3f 99 d4 8f 3f
       -0.6426145 1.0206686 0.58329237 1.1236755
0001b0 1f 90 71 3f 26 12 35 3f 54 00 2f bf 39 d3 e1 3f
       0.94360536 0.7073082 -0.68359876 1.7642585
0001c0 48 e5 6a 3e f3 72 a3 3e 31 5f 24 3f 21 d0 58 3f
       0.22939026 0.31923637 0.6420775 0.8469258
0001d0 a9 93 76 bf 1e a3 52 bf fd 75 0d bf d2 2a b0 3e
       -0.9631906 -0.8228015 -0.5525816 0.3440767
0001e0 df 9c 66 bf 28 37 28 3f 91 1b 68 3f 98 19 1a bf
       -0.90083116 0.6570916 0.90667063 -0.601953
0001f0 9a 67 03 3f 22 e7 0d bf 5f 5f 24 bf 66 47 60 bf
       0.5132996 -0.55430806 -0.64208025 -0.87608945
000200 19 83 56 bf da ee 84 3f 95 85 88 3f b4 8a 17 3f
       -0.8379379 1.0385392 1.0665766 0.5919602
000210 28 5c 26 bf 2f 78 28 bf f1 c4 72 bf c2 66 ac be
       -0.6498437 -0.65808386 -0.9483176 -0.33672148
000220 c5 b9 00 bf 38 f9 4d 3f c7 7e 66 3f 3a 5c 73 bf
       -0.5028346 0.804584 0.90037197 -0.950626
000230 d0 81 7b 3f b3 09 b0 3e 0c ae 8a bf 9b e3 5a be
       0.98244953 0.343824 -1.0834365 -0.21375887
000240 e8 af 69 be 82 f5 6f 3f 7f c9 40 be d8 de 0d bf
       -0.22821009 0.9373399 -0.18826865 -0.5541816
000250 f4 9b 3d 3f df cc 96 3d a4 03 f3 be 9e e8 be bf
       0.7406609 0.07363295 -0.47463715 -1.4914739
000260 ab 0c ad 3f f3 33 18 be 46 ba 92 bf 03 82 d7 3e
       1.3519491 -0.14863567 -1.1463096 0.4209138
000270 87 4d bf be 24 b7 a0 bf 42 57 47 bf 9b 2e 8e 3f
       -0.37363836 -1.255589 -0.7786752 1.1107973
000280 34 e1 60 3f 20 fe 7f bf fe 19 5c bf c6 03 83 3f
       0.8784363 -0.9999714 -0.8597716 1.0235527
000290 e5 fc e6 be 1e 7c 5e 3f be 9b 67 3f a0 59 80 3f
       -0.45114818 0.8690814 0.9047202 1.0027351
0002a0 43 85 68 3f 62 bc 83 bf 22 e9 60 bf 55 9b 8e bf
       0.9082834 -1.0291865 -0.8785573 -1.1141154
0002b0 32 19 68 3f ea 44 21 bf 58 7a 89 3f 49 02 62 3f
       0.90663445 -0.6299578 1.0740461 0.88284737
0002c0 02 e6 65 3f 30 c8 73 bf 8a 14 8c bf ee 74 23 3f
       0.8980409 -0.95227337 -1.0943768 0.63850296
0002d0 69 67 66 bf 10 80 30 bf 0a 3e c5 3e e5 23 87 3f
       -0.9000154 -0.6894541 0.38523895 1.0557829
0002e0 1c 89 64 3f d6 da 15 3f 16 2b 8c 3f 1c 91 4d bf
       0.8927171 0.5853704 1.0950649 -0.80299544
0002f0 4a 14 87 3f c3 e4 1f 3f de 07 7b 3f 21 e0 6b bf
       1.0553067 0.6245844 0.9805888 -0.9213887
000300 8c d1 64 bf 2d 35 78 bf 33 c1 75 3f 3e 60 8f 3f
       -0.89382243 -0.9695614 0.95997924 1.1201246
000310 e1 34 7b 3f 4c 25 50 3f b3 77 20 3f 9c f9 81 bf
       0.9812756 0.8130691 0.62682647 -1.01543
000320 07 29 8d be e2 be 4f bf d8 8c 82 bf 1d 78 ac 3e
       -0.27570364 -0.8115064 -1.0199232 0.3368539
000330 45 f7 03 be 9f f5 8a 3f ca 00 29 bf 4b ad ac 3f
       -0.12887295 1.0856208 -0.6601683 1.3490385
000340 fd 74 84 bf c7 2f 8f bf 98 27 09 3f a0 b1 cb 3f
       -1.0348202 -1.1186455 0.5357604 1.5913582
000350 17 0d 15 3f 38 6a 0f 3f ad 99 a5 3e f4 f1 f4 3e
       0.582231 0.5602145 0.32343808 0.47840846
000360 b9 20 90 3e 01 fa 13 bf e5 aa 85 3f 40 cc 59 3f
       0.28149965 -0.5780335 1.0442778 0.85077286
000370 01 22 98 be b3 fc 81 bf 81 f6 82 bf 7d 75 6b 3f
       -0.29713443 -1.0155243 -1.0231477 0.9197615
000380 cc f4 7f 3e 20 fd 83 3f 63 87 31 3f e5 5d 71 3e
       0.24995726 1.0311623 0.6934721 0.23570974
000390 91 85 aa 3f ae ef 63 bf 21 5e 04 3f 1b 4f 98 3e
       1.3322011 -0.890376 0.5170613 0.29747853
0003a0 8c ee b8 3e 3f 2e 61 bf 1a bc 87 3f 99 12 92 3f
       0.36119497 -0.8796119 1.0604279 1.1411926
0003b0 6b 39 5e 3f a7 2e b9 3e 33 8e 03 bf 93 6c be 3d
       0.8680636 0.36168405 -0.51388854 0.09298053
0003c0 99 ba 96 3f 85 b1 7a bf 5a 49 87 bf c8 07 42 3f
       1.1775695 -0.97927123 -1.056926 0.75793123
0003d0 7e ee 92 bf df 94 74 3f 5a 25 60 3f c2 61 94 3f
       -1.1479032 0.9553966 0.87556994 1.1592333
0003e0 c1 ee 5d 3f f9 11 86 bf 01 31 96 bf 33 34 47 bf
       0.86692435 -1.0474235 -1.1733705 -0.77814025
0003f0 c0 2e 8c 3f 3d 7e 9a 3f b0 97 1e 3f 07 20 64 3f
       1.0951767 1.2069775 0.61950207 0.8911137
