best_para_path/baseline_ciao100.10.20.70.250.251.010.00.5_p10_sum20lightgcn_explicit_seed0_ex1_2_0.001_1e-06.pt (torch, 446719 bytes, 2 tensors)

user_embedding.weight f4 [2541, 20]
00000000: 07df 83bf ee1a 903f bf8c 023f 2bec 1dbe
00000010: ec47 353f 286b 7ebf dc15 8ebf c582 39bf
00000020: 0e66 2abf 7321 c83e 4545 823f 6266 e63c
00000030: 261b 683e 0157 8c3f d750 7abf e01f 54bf
00000040: 667f 2ebf aa13 853f 2b57 493f 3e74 94bf
00000050: 7782 5dbf be21 393f c3ac 0e3e 6f97 b5bd
00000060: 1621 d3bd 3c2e cfbe f418 d0be 291a 7bbf
00000070: 040a 24bf 79e3 423f ad26 6b3f 2043 47bf
00000080: 55f8 86bf 6c2a 80be 9814 a5bf 932a 0bbf
00000090: fdc0 063e 68a9 333f 50e6 643f 6e12 1fbf
000000a0: 14db 8fbf 3edb 3cbe 61e5 793f d9fa 03be
000000b0: 41c1 a63f 6bf4 cdbe b7fd 51bf 9574 78bf
000000c0: 8ecd dcbe c24e 013f d7e2 3d3f 11f7 823e
000000d0: f039 0f3e 8760 9b3e 48c4 9cbf b685 cf3e
000000e0: 4ef9 76bf 81ec 813f 2b83 543f a19a 7abf
000000f0: e3b9 5cbf 33ec 453f d007 873f 59bf b3bf
00000100: 6ea0 ee3e 32a4 7fbf a915 02bf 1780 72be
00000110: da55 edbe 0e8d 5c3f 694c 993f 8b49 87bf
00000120: abe4 a1bf b038 b43f 7eb9 a5be dfb8 7f3e
00000130: c73d 263f 1573 2bbd 0932 b83e 4c97 2bbf
00000140: e42f 32bf b51d 0e3f acc1 2b3e 9227 4dbf
00000150: fa26 613f c582 57bf 3881 3dbf 2e64 f33c
00000160: 9523 71bf bec2 c43e c26a bb3d deb8 76bf
00000170: 8874 79bf 523e 72bf 130e 853f ad0a 82bf
00000180: 2482 233f 50fd 2d3f e8f8 283e 0a8d 18bf
00000190: ee8c 76bf bade f73d 345b 3e3f ba1d 1bbf
000001a0: e5b7 3b3f 2d1b 47be 4298 8bbe 827b 18bf
000001b0: 4ec3 3abf ddf6 a83d 14e1 6b3f 6837 8c3c
000001c0: 3dc5 27bc 9585 48bf 3280 a6bf 732e b93e
000001d0: 07d2 e7be d7ee a63f 0210 883e a15e 99bf
000001e0: 913a a93e f753 873f ce3b ad3f 9955 7dbf
000001f0: b1c0 e93e 1695 46bf c029 75bf 87eb 4fbf
00000200: 726d 2dbf e954 5e3f 33da f63e 2688 12bf
00000210: f8c2 ca3e 08fd 6d3f 648f 92bf fbd4 46bf
00000220: 104f 8cbf affa 823f e855 4b3e a04a 58bf
00000230: e28d 91bf 3825 663f 6eed 6e3f f7ee 3fbe
00000240: f4f7 843f fe67 7cbf 5848 44bf 736f 73bf
00000250: 3a74 5fbf cd2f 143f cb7b 8a3f 5c57 88bf
00000260: feab 8bbf bc4c 4fbf 9e06 3ebf 5452 59bf
00000270: 35f0 70bf 044e 963f 3603 8d3f bc19 64bf
00000280: 4139 aabe b75f 973f 5f9f 393f 5390 17bf
00000290: 5cb6 583f 619d 7abf 1223 46bf 8bfa 2fbf
000002a0: 912f 8ebf 33eb 8b3f 0ba3 6f3d be3b 3fbf
000002b0: 933c 87bf 461d 52bf 2971 a73f 2560 90bf
000002c0: 0aaf 29bf 82da 0f3f c014 8d3f 5f2e 02bf
000002d0: e04f 4dbf 7cac 5e3f 8287 d83e 00bb ae3e
000002e0: 1449 513f 3e95 29bf 5a46 f5bd 36ef 22bf
000002f0: bd8d 7fbf eb3f 463f d153 743f 8e66 58bf
00000300: 9414 e2be 688b 99bf d9b3 023f bf50 d8bc
00000310: f587 c73e 2e95 533f 11fb 8e3e 631b 3dbf
00000320: 082f 64bf f39b 553f 9ef4 8d3f e30b e3be
00000330: 5da5 353e 21bb 39bf faaa e2be cefd c3be
00000340: 3e4e dbbe 9e5b 9b3e bb6f 9b3f da1a 96bf
00000350: 6089 32be 2405 61bf a2be bbbf 7846 e93e
00000360: b4ea 87bf 57e2 773f 350f 7d3f 5d95 1dbf
00000370: bb8f 1cbf 51b1 643f 1015 263f fa75 72bf
00000380: 9ee9 b13d 7bfe 84be abba e3be 8661 65bf
00000390: 6219 a9be c899 ff3e ac3f 0b3f be91 98bf
000003a0: 8a18 4abf 389c 68bf 2e95 83be ead4 16bf
000003b0: b84f 84be 982e 243f 452f a83e 8fb7 0abf
000003c0: 2c4e 1dbf fa23 393f 46c3 e13e b67c 0bbf
000003d0: 37b3 673f ab01 1cbf 4004 2ebf 240c 24bf
000003e0: 541c 11bf 73f4 6d3f a6ed 1e3f 5c81 10bf
000003f0: 631b 83bf 0d0d 79bf d3b0 8dbf 3e92 52bf
-1.0302438 1.1258218 0.5099601 -0.15422122 0.7081287 -0.9938226 -1.1100421 -0.72465163
-0.66561973 0.3908802 1.0177389 0.028124992 0.22666606 1.0964051 -0.977796 -0.8286114
-0.68163145 1.0396626 0.7864863 -1.1597974 -0.865272 0.7231711 0.13933091 -0.08866774
-0.10309045 -0.40464962 -0.40644038 -0.9808679 -0.6407778 0.76128346 0.9185589 -0.778368
-1.0544535 -0.25032365 -1.289691 -0.5436184 0.13159557 0.7018037 0.8941393 -0.62137496
-1.1238732 -0.1844301 0.9761563 -0.1288866 1.3027726 -0.4022554 -0.82027763 -0.9705289
-0.43125576 0.505108 0.74174255 0.25579122 0.13986945 0.30347082 -1.22474 0.405317
-0.9647416 1.01503 0.83012646 -0.97892195 -0.8622114 0.77313536 1.0549259 -1.404277
0.46606773 -0.9985992 -0.508143 -0.23681675 -0.46354562 0.8615273 1.1976444 -1.0569319
-1.2647909 1.40798 -0.32368082 0.24972866 0.64938015 -0.041857798 0.35975674 -0.67027736
-0.69604325 0.5551408 0.16773099 -0.80138505 0.879501 -0.84183913 -0.740253 0.029710855
-0.9419492 0.38429826 0.09151222 -0.96375835 -0.9744344 -0.94626343 1.039492 -1.0159508
0.63870454 0.6796465 0.165012 -0.5959021 -0.9630879 0.121030286 0.74357915 -0.60592234
0.73327476 -0.1944396 -0.272646 -0.5956346 -0.7295426 0.082502104 0.92140317 0.017116264
-0.010239896 -0.7832883 -1.3007872 0.3616825 -0.45277426 1.3041638 0.26574713 -1.1982003
0.33052495 1.0572499 1.3533876 -0.98958737 0.45654824 -0.7757124 -0.9576683 -0.8121876
-0.67745125 0.8684831 0.48213348 -0.57238996 0.39601874 0.9296422 -1.1450009 -0.7766873
-1.0961628 1.0232753 0.1985699 -0.8448887 -1.1371424 0.8990054 0.9333104 -0.18743502
1.0388169 -0.9859618 -0.7667289 -0.95091933 -0.8728672 0.5788544 1.0819029 -1.065166
-1.0911863 -0.8097646 -0.7422885 -0.8489125 -0.94116527 1.1742558 1.1016605 -0.8910177
-0.33246806 1.1826085 0.72508806 -0.59204596 0.8465326 -0.9789639 -0.77397263 -0.68741673
-1.1108266 1.0931152 0.0585051 -0.74700534 -1.0565361 -0.8207592 1.3081409 -1.1279341
-0.66282713 0.5619279 1.1021957 -0.50852007 -0.80200005 0.8698194 0.42290884 0.34127045
0.81752133 -0.6624335 -0.11976309 -0.63646257 -0.9982565 0.7744128 0.95440394 -0.84531486
-0.44156325 -1.1995668 0.51055676 -0.02640569 0.38970914 0.82649505 0.27925923 -0.73869914
-0.89134264 0.83441085 1.1090276 -0.44345006 0.17738862 -0.7255116 -0.4427107 -0.38279575
-0.42833132 0.30343336 1.2143472 -1.1726944 -0.17435217 -0.8789847 -1.4667552 0.45561576
-1.0618501 0.9682974 0.9885133 -0.61556035 -0.61156815 0.89333063 0.6487589 -0.9471127
0.08687137 -0.25975403 -0.44478354 -0.89601934 -0.33027178 0.49922013 0.5439403 -1.1919477
-0.78943694 -0.9086337 -0.25699753 -0.5891863 -0.2584207 0.64133596 0.32848564 -0.5418634
-0.61447406 0.7232052 0.44094294 -0.5448717 0.90507835 -0.60940045 -0.67975235 -0.64081025
-0.5668385 0.92951125 0.6208137 -0.56447387 -1.0242733 -0.9728554 -1.1069587 -0.822544

item_embedding.weight f4 [3019, 20]
00000000: bbff 333f 99d0 42bf 56ac 8abf 54e9 1c3f
00000010: f0a1 57bf be86 743f 6946 3f3f 2387 813f
00000020: fae9 2e3f 232f 79bf aa89 39bf 1996 9b3f
00000030: d3f4 863f 2205 923f d915 733f b9df 293f
00000040: 3664 0a3f e3b3 80bf eff6 6dbf 6d94 233f
00000050: e20e 1abe 7f1d 98bf de95 90bf 8d43 903f
00000060: ba2e b8bd f1f8 913f a5f8 923f 95d7 1f3f
00000070: c742 843f beed 89bf db49 163e 19e1 4c3f
00000080: df43 a83f a763 54bf a607 743f 1c3b 9c3f
00000090: 40ee 6c3f 8542 8b3e eb49 9dbf 2f17 e3be
000000a0: 6c16 6d3f 8cc1 6dbf 3f90 6fbf 62ad 5c3f
000000b0: bb54 76bf da56 6c3f b486 5c3f fc5e 713f
000000c0: 4888 773f 95fd 7bbf b92f 76bf 932b 4c3f
000000d0: 6fa7 7c3f b2eb 223f 56d4 5a3f a9a1 713f
000000e0: 31f7 523f 6537 65bf 0ee7 80bf 0ca8 673f
000000f0: 139b edbe 89fa 33bf 90c9 86bf 2104 873f
00000100: df2f ea3e eab9 513f 063d 7e3f 7de5 e33e
00000110: 213f 5fbe ea44 133d 0b85 383f b16b 6abf
00000120: 4f46 11bf 6b15 8bbf 831a 953f eba8 0f3f
00000130: 8531 8f3f 121e 95be 3ce2 02be 43f7 aabe
00000140: f420 693f ff04 6bbf cffb 29bf 7992 8c3e
00000150: 49f4 87bf b47f 6a3f 4e2f 053f 8e4e 913f
00000160: 4abf 633f 4189 26bf 5262 8cbf 1914 603f
00000170: 819d 6c3f 38ee 1bbf f476 863f fee3 163f
00000180: 8e8f d23e 176f 95bf 7700 84bf e32a 493f
00000190: 53c7 ec3d 91aa 09bf f8c9 e2be 1ebe 0b3f
000001a0: adb3 ffbe ab20 cb3e 8786 b53e 8a5d 4d3e
000001b0: 7b7d e33e fae2 0a3f 2891 0dbf f296 5a3f
000001c0: 92a3 ed3e a73a 043f 0f87 f1be abf6 e13d
000001d0: 7775 1e3e b082 5cbf 3009 0cbf 8fc1 1e3f
000001e0: 68c0 67bf 1606 373f 678e 283f 0b1c 4abf
000001f0: ea01 303f f7c1 ecbe d25c 10bf 72cc 1bbf
00000200: 7a72 65bf 3563 cd3e ff2c 623f 3acc 6bbf
00000210: 6630 16bf f5f4 36bf fd54 2dbf e2be 0cbf
00000220: 15c4 28bf 9279 303f 2dc9 073f eb41 4abf
00000230: 4046 883f 9da6 4cbf ba21 8cbf 3989 0e3e
00000240: 63bc 92bf bff7 513d 1458 303f 75e0 6fbe
00000250: e2f1 de3e dfd4 b1bf d5b8 28bf 2360 0bbf
00000260: e723 95be 3424 f2be dc3f 3b3f 6137 2bbf
00000270: a87e 943e 0ace 5dbe 696c 5cbf f669 9c3f
00000280: 1ba3 5b3f f049 73bf 9ef2 6bbf 6e0b 783f
00000290: f2fa 28bf 3a1b 6f3f fc68 6f3f 3613 683f
000002a0: b313 683f 2b27 75bf 8fda 46bf 80a4 0b3f
000002b0: 289a 713f ed3e 0bbf 5991 813f 9f29 573f
000002c0: 8e23 6b3f 6811 42bf 7936 7bbf 3138 273f
000002d0: 0f4f 7abf 66ed 0abf cab2 85bf d35f 823f
000002e0: c5d9 7e3f b78a 6c3f 8b8f 883f ab1f 40bf
000002f0: cd11 59bf 9801 4ebe 24d6 823f 6966 76bf
00000300: 498f 993e e217 82bf fed8 7e3f 7729 5d3f
00000310: b3cb 803f 55ce 633f d1ae 02bf 3450 85bf
00000320: 5ec2 523e a7f9 40bf f4c4 36bf 75ff 3abe
00000330: bd1a 8ebe 3e49 6c3f 4675 93bf 3a7a a73f
00000340: 1f86 84bf 2bd4 b1bf 486a 183f 86a2 a73f
00000350: dac4 82be 41be 64be 61b6 f6bd 7f23 533f
00000360: ff3d ae3e 8d27 03bf fa42 423f ac21 653f
00000370: a55b c73c 9049 15bf ce42 75bf 41cb 4c3f
00000380: 8456 053f b63b 813f c047 7a3f 9f4b 933e
00000390: 4def 5c3f 2161 7abf 2590 153f 2aa2 673f
000003a0: 53f0 d53e c7f7 6ebf 0fa9 053f 89ce 703f
000003b0: fcf4 513f 3d73 0a3f e566 d2be daa5 7f3e
000003c0: d5c8 863f 2523 73bf 7afa 4abf a432 343f
000003d0: a2e6 85bf 1534 623f 9fba 4c3f d617 843f
000003e0: e083 823f 1cfa 74bf ab51 88bf f2d0 823f
000003f0: fa70 733f 8ed6 843f 2727 163f 4b50 5d3f
0.7031209 -0.76099545 -1.0833843 0.6129353 -0.8423147 0.955181 0.7471681 1.0119365
0.6832577 -0.9733755 -0.72475684 1.2155181 1.0543464 1.1407816 0.9495521 0.66357
0.5405916 -1.0054897 -0.92954916 0.63898355 -0.1504474 -1.1884001 -1.1295736 1.1270615
-0.089932874 1.1404096 1.148213 0.6243833 1.0332879 -1.0775678 0.14676611 0.8003097
1.3145713 -0.8296456 0.9532417 1.2205539 0.9255104 0.27199188 -1.2288183 -0.44353625
0.9261234 -0.92873454 -0.9357948 0.8620206 -0.9622304 0.92320025 0.8614304 0.9428556
0.96692324 -0.9843381 -0.9616657 0.7975399 0.98692983 0.6364089 0.8548025 0.943873
0.82408434 -0.8953765 -1.0070512 0.90490794 -0.46407375 -0.7030416 -1.0530262 1.0548135
0.45739648 0.8192431 0.99311864 0.44511023 -0.21801426 0.035954393 0.7207801 -0.91570574
-0.5674791 -1.0865911 1.1648716 0.56117123 1.1186987 -0.29124504 -0.12781614 -0.3339177
0.9106591 -0.918045 -0.66399854 0.274555 -1.0621425 0.9160111 0.52025306 1.1352098
0.8896376 -0.6505318 -1.0967505 0.87530667 0.9242783 -0.6091037 1.0505052 0.5894164
0.4112515 -1.1674527 -1.0312642 0.78581065 0.115614556 -0.5377589 -0.44294715 0.5458697
-0.4994177 0.3967336 0.354542 0.20055214 0.44431672 0.5425259 -0.55299616 0.85386574
0.46413857 0.51651996 -0.47173354 0.11033376 0.15474497 -0.86136913 -0.5470152 0.62014097
-0.90527964 0.7149366 0.6584229 -0.7894904 0.6875292 -0.46241733 -0.5639163 -0.60858834
-0.896278 0.4011475 0.8834991 -0.921085 -0.586676 -0.71467525 -0.67707807 -0.54978764
-0.659242 0.689355 0.53041345 -0.7900683 1.0646439 -0.7994173 -1.0947793 0.13919534
-1.1463741 0.05126166 0.68884397 -0.23425467 0.43543917 -1.3893088 -0.6590703 -0.5444357
-0.29128954 -0.47293246 0.73144317 -0.66881377 0.2900288 -0.21660629 -0.8610292 1.2219837
0.85795754 -0.95034695 -0.9216708 0.9689244 -0.6600791 0.9340092 0.9351957 0.90654314
0.9065506 -0.9576289 -0.77677244 0.5454788 0.9437585 -0.5439289 1.0122482 0.84047884
0.9185113 -0.7580781 -0.98129994 0.65320116 -0.97776884 -0.5426849 -1.0445187 1.0185493
0.9955104 0.9239916 1.0668806 -0.7504832 -0.84792787 -0.20117795 1.02216 -0.96250015
0.2999213 -1.0163538 0.99549854 0.86391395 1.0062164 0.8898671 -0.51048 -1.0415101
0.20581958 -0.7538094 -0.71394277 -0.18261512 -0.27754775 0.9229926 -1.1520164 1.3084176
-1.035343 -1.3892874 0.5953717 1.3096473 -0.2554081 -0.22338201 -0.12046505 0.8247604
0.34031674 -0.51232225 0.7588345 0.89504504 0.024335692 -0.5831537 -0.9580506 0.7999764
0.5208514 1.0096347 0.9776573 0.28768632 0.86302644 -0.97804457 0.5842307 0.9048182
0.41784915 -0.9334683 0.5221109 0.9406515 0.8201444 0.5408209 -0.41094127 0.24965611
1.0530039 -0.949755 -0.79288447 0.7038977 -1.0461009 0.8836072 0.7997226 1.0319774
1.0196495 -0.95694137 -1.0649923 1.0220015 0.95094264 1.0377977 0.5865349 0.8645064
