best_para_path/baseline_ciao100.10.20.70.250.251.010.00.5_p10_sum20diffnet_explicit_seed0_ex1_3_0.001_1e-05.pt (torch, 446715 bytes, 2 tensors)

user_embedding.weight f4 [2541, 20]
000000 ac c0 1b bd 51 e2 e5 3e d7 d5 d2 3e 53 60 90 3e
       -0.038025543 0.44899228 0.41178772 0.2819849
000010 9a eb 08 3f 66 81 84 bc 49 b5 bc be 36 29 a6 bd
       0.534845 -0.016174983 -0.3685706 -0.08113329
000020 bc a8 cc bc 0f b6 d8 bd 74 69 ea 3e 09 ef 61 be
       -0.024982803 -0.105816 0.4578358 -0.22063841
000030 76 5d cd 3e 41 5f a2 bd d7 32 82 3c 9e 9c cb bd
       0.40110368 -0.079283245 0.015893383 -0.09941982
000040 b2 9a a1 3d 66 01 2e 3e 85 fc b9 3e 41 c6 6c be
       0.07890834 0.16992721 0.3632547 -0.23122503
000050 21 e5 2d be cc 59 d9 3e 21 fc be 3e 75 ec 8c 3e
       -0.16981937 0.42451322 0.37301734 0.27524152
000060 2c b7 6d 3e b1 e7 38 bd 40 1b 9d be 19 c9 59 be
       0.23214406 -0.045142833 -0.30684853 -0.21268119
000070 a0 7b 5f be fa 82 be be a9 c6 e5 3e 83 57 68 be
       -0.21824503 -0.37209302 0.44878128 -0.22689633
000080 89 a2 6a 3e 86 3e 37 be 76 97 0f 3e e7 9b ca bd
       0.22913565 -0.17894945 0.14022622 -0.09893017
000090 7b c1 fd 3c 3b ec 5a 3e d2 8c 97 3e 9b 74 04 be
       0.030976048 0.21379177 0.29599625 -0.12935106
0000a0 61 37 e9 bd 6f 9f 44 3e 55 62 83 3e 4d a6 68 3e
       -0.11387516 0.19201444 0.2566096 0.22719689
0000b0 24 f9 0d 3f 78 59 50 be 5e e4 9a be a7 bb ce bc
       0.55458283 -0.2034663 -0.30252355 -0.025235964
0000c0 77 5d 1e be f4 54 be be f0 5c cc 3e 29 4b ce bd
       -0.15465342 -0.3717419 0.39914656 -0.100729294
0000d0 c7 65 bf 3d 05 d1 c8 bd 07 10 dd 3d 75 38 c8 3a
       0.09345584 -0.09805492 0.107940726 0.0015275615
0000e0 38 08 a6 3d 92 75 69 3e d5 60 e4 3e e6 8b d7 bd
       0.08107036 0.22798756 0.44605127 -0.105247304
0000f0 07 7d 27 be 7a 9b 58 3e a7 f4 81 3e a4 69 57 3e
       -0.16356288 0.2115306 0.25381967 0.21036392
000100 46 d1 cd 3e 4a e9 80 be 27 d1 6e be db a1 c4 3c
       0.40198725 -0.25177985 -0.23321973 0.02400296
000110 4c 14 11 be 02 04 b0 be d7 5c c1 3e 93 2a ab be
       -0.14167899 -0.34378058 0.37766144 -0.3343092
000120 dc 71 ca bb be 5e 82 ba 51 04 a3 3d bd ed cf bc
       -0.006178124 -0.0009946448 0.07959808 -0.025381917
000130 10 77 27 3e 6e 94 8d 3e e5 35 e6 3e b7 ab 41 bd
       0.16354012 0.27652305 0.44962993 -0.0472829
000140 f9 dd ef bd 59 74 63 3e ea 14 b5 3d 1a d7 3f 3e
       -0.1171226 0.22212352 0.0884188 0.18734398
000150 d3 a7 ce 3e 8e 37 64 be 97 6a 4a be c7 83 b3 3d
       0.40362415 -0.22286817 -0.19767223 0.08765369
000160 82 84 c9 bd 94 54 09 bf b9 fc b4 3e 84 7b 43 be
       -0.09839727 -0.5364468 0.35349062 -0.19090086
000170 9b 8f e1 3d 3d f0 37 be b0 0a a7 3e 0e 35 20 be
       0.11013719 -0.17962737 0.3262534 -0.15645239
000180 bf c0 7d 3e 8f 9e 9a 3e 37 fa d9 3e 19 8b 58 be
       0.24780558 0.30199096 0.4257371 -0.21146812
000190 b9 d5 dd bd d4 b6 9c 3e 64 ce 5b 3e 3b b4 9c 3e
       -0.1083178 0.30608237 0.2146545 0.30606255
0001a0 cf fb d7 3e 2a 71 7c bd 86 c9 7b be cf 1a 62 be
       0.42184302 -0.06163136 -0.24588594 -0.22080539
0001b0 4f 17 ce bd e5 f6 b5 be 47 0f c4 3e fe ff 0e be
       -0.100630395 -0.35539928 0.38292906 -0.13964841
0001c0 7f 78 03 3e 84 07 8d be e6 1a 90 bc 2e 98 dc bd
       0.12838934 -0.27544796 -0.017590951 -0.107712135
0001d0 74 3b b4 3d 08 c7 95 3e fa 60 b8 3e be d7 a4 be
       0.08800402 0.2925341 0.36011487 -0.32195848
0001e0 44 de f6 bc ab 0a b1 3e fa 9f 84 3e aa d1 4e 3e
       -0.030135281 0.34578452 0.25903302 0.20197168
0001f0 b5 47 0c 3f 64 d8 0e be 91 c5 f8 bd 28 55 7f bd
       0.54796916 -0.13949734 -0.12147058 -0.06233707
000200 d3 93 bd bd 36 38 f8 be cf 25 62 3e d9 20 80 bd
       -0.09256711 -0.48480386 0.22084735 -0.06256265
000210 2e b0 ac 3d 76 db fd bd 3a 0c 1e 3e 9e 92 06 be
       0.08432041 -0.123953745 0.15434352 -0.13141868
000220 f5 b4 58 3e b4 84 75 3e a8 a3 b8 3e 07 42 61 be
       0.2116278 0.23976403 0.3606236 -0.21997844
000230 06 ca 8b be 01 ec 3b 3e 23 1b 3b 3e 38 c3 a5 3e
       -0.2730257 0.18351747 0.1827207 0.32375503
000240 93 61 ff 3e 1f 1f 22 be f7 65 0f be cc a0 96 be
       0.4987913 -0.15832184 -0.1400374 -0.29419553
000250 d0 84 c6 bd ed 63 ef be 14 9c aa 3e 1c 50 99 be
       -0.09693301 -0.46755925 0.33322203 -0.2994393
000260 3d c3 81 3e ba 2e 8b be 85 fb 83 3e 03 90 45 be
       0.25344267 -0.27184087 0.25777832 -0.19293217
000270 1e 1c 54 3d b6 6f c3 3e 8a 46 d3 3e 89 79 95 be
       0.051784627 0.38171166 0.41264755 -0.29194286
000280 08 87 4d be 17 05 a4 3e f4 87 e0 3d be 5f 87 3e
       -0.20071042 0.32035133 0.10963431 0.26440233
000290 74 8a 06 3f c6 21 4a be 8d 35 3a be da 2b ba bd
       0.5255501 -0.19739446 -0.1818449 -0.09090395
0002a0 5e df 8f be 27 ea e2 be ac 4f 76 3e a7 95 b0 be
       -0.28100103 -0.4431927 0.2405383 -0.34489176
0002b0 44 aa df 3d 55 ea 57 be f9 86 e3 3e 4a 94 3c be
       0.109211475 -0.21085484 0.44438913 -0.18415943
0002c0 33 22 80 3d 59 a4 4d 3e 54 ce df 3e 80 87 b6 be
       0.06256523 0.20082225 0.43712103 -0.35650253
0002d0 55 36 a6 be 13 ec 8f 3e 01 a2 5c 3e a9 43 d0 3e
       -0.32463327 0.28109798 0.21546175 0.4067662
0002e0 66 83 94 3e 75 9f ec bd 78 05 20 be 95 f6 00 be
       0.290065 -0.115538515 -0.15627086 -0.12594064
0002f0 85 d6 3c be 91 c4 03 bf cb be eb 3e 4f 18 3f be
       -0.18441208 -0.5147181 0.46044 -0.18661617
000300 20 71 2b 3e 06 c7 bf be 4c 4e 27 3e 78 23 f3 3c
       0.16742373 -0.3745653 0.16338462 0.029679999
000310 7d 22 b1 3d 1a 21 91 3e 69 9c b6 3e d3 44 e5 be
       0.08649156 0.28345567 0.35666206 -0.4477907
000320 46 ba 1f be d0 04 b9 3e f3 c7 77 3e 4f fa 4e 3e
       -0.15598401 0.36136484 0.24197368 0.20212673
000330 f1 02 ec 3e 36 07 76 be d5 38 89 be 39 ca 7f 3c
       0.46095994 -0.24026188 -0.26801172 0.0156121785
000340 31 88 24 3d f2 24 b1 be 7e a1 aa 3e 8e b8 a5 bd
       0.040168945 -0.345985 0.33326334 -0.08091842
000350 47 b7 9b 3e 71 c2 4b be 8b 8c 2d be dc 0e 3d 3e
       0.30413267 -0.19898392 -0.16948144 0.184627
000360 0a f4 27 bd d5 b5 64 3e 7f b4 cc 3e 2e 21 7a be
       -0.04100422 0.22334988 0.39981458 -0.2442672
000370 96 27 38 be d3 f1 9c 3e 15 fa 85 3e 16 1f 06 3e
       -0.17983851 0.30653247 0.2616736 0.13097796
000380 98 ef 9c 3e f5 2c c9 bd b5 c3 ae be 94 bc 99 be
       0.30651546 -0.09823028 -0.34133688 -0.30026686
000390 f3 4f ec bd ff 34 86 be cc 5e 91 3e dc e1 a8 be
       -0.115386866 -0.26212308 0.28392637 -0.32984817
0003a0 e4 55 9e 3d ae 2e 79 be 3d 0a 9e 3e c9 22 82 bd
       0.07731226 -0.24334213 0.30867186 -0.06354291
0003b0 fb 1d 3f be 1b 36 82 3e c2 16 13 3e e2 81 84 be
       -0.1866378 0.25431904 0.1436415 -0.25880343
0003c0 bf 20 91 be 61 18 9b 3e aa 4d 80 3e d6 7d ba 3e
       -0.28345296 0.30292037 0.25059253 0.3642413
0003d0 9d 14 9c 3e f9 3b 89 be 86 c6 99 be b6 24 0a be
       0.30484477 -0.26803568 -0.30034274 -0.13490567
0003e0 e4 8f 39 be 58 6d 5e be 21 33 d5 3e a0 0a 8a be
       -0.18121296 -0.21721399 0.4164057 -0.2696123
0003f0 99 20 98 3e 1d 02 d5 be 61 46 70 3e eb 54 f1 bd
       0.2971237 -0.41603175 0.23464347 -0.11783775

item_embedding.weight f4 [3019, 20]
000000 18 25 9a 3e d0 fb 9e be 16 fe a5 be 6a e6 00 be
       0.30106425 -0.31051493 -0.32420415 -0.12587896
000010 b2 2f a7 be a9 ce 85 3e b4 b3 64 3e b2 ef 32 3e
       -0.32653576 0.26134232 0.22334176 0.17474249
000020 e9 77 6f 3e f0 44 85 3e 7d ec e8 bd a7 05 73 3e
       0.23385586 0.26029158 -0.113732316 0.23732625
000030 de cb a0 be 56 00 a5 3d 28 d4 88 be 6d 27 a7 3e
       -0.31405538 0.08056705 -0.26724362 0.32647267
000040 0e 77 83 3e 5a 78 42 be ad 88 7d be 91 82 f5 3d
       0.2567677 -0.18991223 -0.24759169 0.11987794
000050 d2 ac 92 3e e9 6d 8e be 8b b1 9c be b3 45 ab bc
       0.28647476 -0.2781823 -0.30604205 -0.020907259
000060 d7 12 b2 be 43 da 9b 3e 7f a8 95 3e b0 2b 56 3e
       -0.3478 0.30439958 0.29230115 0.20915103
000070 be e1 9b 3e c8 29 31 bd 4f 3e 77 3d a9 45 96 3e
       0.30445665 -0.043252736 0.060362156 0.2935002
000080 78 05 86 be 31 95 01 bd 6e 6a a2 be 5a 2a ad 3e
       -0.26176047 -0.03163642 -0.31721824 0.33821374
000090 c4 3f 9b 3e 63 5f 8e be d9 08 86 be 05 ae 1f 3d
       0.30322087 -0.2780715 -0.26178625 0.038984317
0000a0 9b e4 7a 3e 1d 16 70 be c8 69 87 be 98 ac 6c be
       0.24501269 -0.23445936 -0.26447892 -0.23112714
0000b0 3c 71 5e be dd db 7c 3e ab c0 5b 3e 54 e3 80 3e
       -0.21722883 0.24693246 0.21460216 0.25173438
0000c0 71 98 72 3e aa aa 25 3e f8 2e 81 be c8 7e 51 3e
       0.23690964 0.16178384 -0.25231147 0.2045852
0000d0 6f 49 84 be 3a ed 7b 3e b1 3e 8a be 96 fb 85 3e
       -0.25837275 0.24602214 -0.27000955 0.26168507
0000e0 2e a1 86 3e f7 b3 5a be ab ca 91 be f3 91 17 3e
       0.26294845 -0.21357714 -0.28474936 0.14801769
0000f0 27 89 04 3e e4 18 78 be 8f 15 57 be 62 9f e4 3d
       0.12942944 -0.24228245 -0.21004318 0.11163212
000100 7f b4 64 be 10 3e 6c 3e b4 82 6c 3e 14 b9 ac 3d
       -0.22334479 0.2307055 0.23096734 0.08433738
000110 1a d8 78 3e 82 5d 8e be 15 40 b2 3d cd b8 cb 3d
       0.24301186 -0.27805716 0.08703629 0.09947357
000120 e4 1c 4f be 2c cb 32 be d3 5c f0 bd 51 b8 64 3e
       -0.20225865 -0.17460316 -0.11736455 0.22335936
000130 68 e8 92 3e 75 02 03 be 5e af 46 be d3 c5 92 be
       0.28692937 -0.12793906 -0.19402835 -0.28666553
000140 e1 2d 7b 3e 44 93 7a be aa 54 83 be cf d9 5d be
       0.2452922 -0.2447024 -0.2565053 -0.21665119
000150 09 79 82 be 6e 3d 82 3e 92 35 7b 3e 34 a1 92 3e
       -0.25482967 0.25437492 0.24532154 0.28638613
000160 5f 1e 7a 3e bc 7a 95 3d b4 1d 74 be 00 ab 4b 3e
       0.24425648 0.072988 -0.23839456 0.1988945
000170 fd 56 88 be 0d 43 33 3e 88 ab 5e be 01 c5 84 3e
       -0.26628867 0.17506047 -0.21745121 0.25931552
000180 09 13 84 3e 52 6c 70 be e9 8d 6d be db 51 c3 3c
       0.25795773 -0.23478821 -0.23198666 0.023842743
000190 3f af d3 be b8 d9 c2 3d 10 2f a7 3e e7 56 91 3d
       -0.4134464 0.09514183 0.32653093 0.070966534
0001a0 04 8a db 3e 22 29 9c bc 32 95 1b be 50 96 bd be
       0.42878735 -0.019062582 -0.15193632 -0.37028742
0001b0 33 cf a5 bd 82 e0 2e 3f ce e9 1b be bb 65 82 3e
       -0.08096161 0.6831132 -0.15225908 0.2546824
0001c0 61 47 be 3e 46 28 70 be 6c 36 98 be 6b f3 89 be
       0.37163833 -0.23452863 -0.2972902 -0.26943526
0001d0 4a 1f f2 be 46 be 12 be d6 43 0c be 5d 55 6a 3e
       -0.47289497 -0.14330396 -0.13697752 0.22884126
0001e0 34 02 9a be 2a b2 5c 3e 9a 03 94 3e 36 c8 9d 3e
       -0.30079806 0.21552339 0.28908998 0.3081681
0001f0 50 a3 27 3e 81 5b 9e be a7 c6 54 be 41 1d 7e be
       0.16370893 -0.30929187 -0.20778905 -0.24815847
000200 a1 57 88 be fd f8 c2 be 99 61 ad 3e 8f 9a 81 be
       -0.26629356 -0.38080588 0.33863524 -0.2531323
000210 3d 68 a2 3e b7 a8 ac be 29 8c c0 3d 40 6f 30 be
       0.31720152 -0.3372247 0.094017334 -0.17229939
000220 fd 90 15 be 2d 96 54 3e 16 7e 8a 3e 8d 71 b0 be
       -0.1460609 0.20760413 0.2704932 -0.34461632
000230 02 b1 da 3d 4c 18 bb be 10 9e 75 be a6 07 14 be
       0.10678293 -0.36541975 -0.23986077 -0.14456043
000240 06 69 33 be bc 52 93 bd 18 f5 bd 3e 48 4c d0 3d
       -0.17520532 -0.07193515 0.37101054 0.101707995
000250 07 d1 ac 3e 3b b0 6b 3e 40 a0 41 be fa 03 84 3e
       0.33753225 0.23016445 -0.18908787 0.25784284
000260 67 9e a1 be c7 43 e3 bd b5 8c 60 bd 6e 5e 36 be
       -0.31566164 -0.11096912 -0.05482169 -0.1780946
000270 fb fb ac ba 0f a6 b5 be d7 ac af be f6 fe 2e be
       -0.0013197655 -0.35478255 -0.34311554 -0.17089447
000280 6f e7 8e 3e 5b bc 86 be 9c ed 7c be 68 76 42 be
       0.27910945 -0.2631558 -0.24700016 -0.18990481
000290 13 b8 74 be 9b 9b 88 3e 81 0f 7f 3e af 40 81 3e
       -0.23898344 0.26681218 0.24908258 0.25244662
0002a0 02 05 88 3e ed e5 58 3d f1 c8 6f be 0e bb 72 3e
       0.2656632 0.05295365 -0.23416497 0.23704168
0002b0 47 b2 55 be 13 15 ca 3d 69 a6 7b be 39 df 71 3e
       -0.20868789 0.09867301 -0.24575199 0.23620309
0002c0 b1 4a 81 3e 3b d4 86 be 67 0c 95 be ba 1f 51 3d
       0.25252298 -0.26333794 -0.29111025 0.051055647
0002d0 c8 a8 34 3e 12 da 6a be 13 b7 77 be 4e 82 84 3e
       0.1764251 -0.2293475 -0.24190931 0.25880665
0002e0 7d aa 7b be 53 48 81 3e ed 88 84 3e 00 b8 a4 3c
       -0.24576755 0.25250491 0.25885716 0.02010727
0002f0 a2 57 7d 3e e0 74 91 be 72 81 8c 3e cd 31 20 3e
       0.2474046 -0.2840948 0.2744251 0.15643997
000300 8b 9c 44 be a4 3d 91 be 32 03 74 be a4 48 8e 3e
       -0.19200341 -0.2836734 -0.23829344 0.27789795
000310 b6 a7 6e 3e 05 2b 30 be 01 d0 85 be f1 31 8e be
       0.23306164 -0.1720391 -0.26135257 -0.27772477
000320 64 22 71 bc 9f b3 fd bc 92 dc 8d be 1e da ad bd
       -0.014717672 -0.03096944 -0.27707344 -0.08488868
000330 94 04 d4 be 0a 32 92 3e ec 4b a7 bd 77 bb bf 3d
       -0.41409743 0.28553802 -0.08168778 0.09361928
000340 47 61 ad 3d cc 78 1a 3d 2d 3f 5b 3e 9c 98 b0 3d
       0.0846582 0.037712857 0.21410818 0.08622858
000350 45 f5 91 be 97 31 8b 3c 31 bd b5 be ae 56 c4 3d
       -0.28507438 0.01699142 -0.35495904 0.09586845
000360 ef f6 94 3e 5b d9 71 be c7 15 8c be ad 71 01 bd
       0.29094645 -0.23618071 -0.27360365 -0.03160255
000370 e2 8a 5f 3e 84 e5 38 be 2f 5f 56 be 84 19 bf be
       0.21830323 -0.18056303 -0.20934747 -0.37324154
000380 0a 01 77 bd 8c 98 94 3e 63 e8 95 3e 19 72 8b 3d
       -0.060303725 0.29022634 0.2927886 0.06808872
000390 ff 31 a8 3e d5 ed 12 be 17 c6 0d 3c 5d 97 b7 3e
       0.32850644 -0.14348538 0.008653185 0.3585767
0003a0 c2 3e b4 be 88 43 de 3d 34 94 a1 be f4 92 7d 3e
       -0.3520413 0.10852724 -0.31558383 0.2476309
0003b0 c8 d4 23 3e 76 a4 75 be d4 61 c2 bd 3e 13 90 bd
       0.15999138 -0.23988518 -0.094913155 -0.0703492
0003c0 3b 7b 6f 3e 8b 95 74 be 75 0c 7b be 44 f4 8c be
       0.23386852 -0.23885171 -0.2451647 -0.2753011
0003d0 9d 49 70 be 45 60 60 3e ff 92 73 3e ca 2b 8b 3e
       -0.23465581 0.21911724 0.23786543 0.27181846
0003e0 23 fd 80 3e d4 05 6e 3e 29 42 93 be 3f d3 7e 3e
       0.25193128 0.23244411 -0.28761414 0.24885271
0003f0 ac f5 8d be f0 a0 80 3e 9b 66 5c be 59 1e 5a 3e
       -0.27726495 0.25122786 -0.21523516 0.21300639
