best_para_path/baseline_ciao100.10.20.70.250.251.030.00.5_p10_sum20diffnet_explicit_seed0_ex1_3_0.001_1e-05.pt (torch, 446715 bytes, 2 tensors)

user_embedding.weight f4 [2541, 20]
-0.121802285 0.30008638 0.33743218 0.26143992 0.3815049 -0.19174403 -0.22852045 -0.12923484
-0.19070095 -0.08568745 0.34252438 -0.10245703 0.37910563 -0.11846942 0.20944642 -0.11878198
0.08495071 0.19333246 0.3172021 -0.31740043 -0.14684077 0.2922013 0.29254588 0.32545725
0.08218336 -0.16024397 -0.197812 -0.19657421 -0.20134199 -0.35669267 0.38754523 -0.19876109
0.25346273 -0.2613086 0.12205602 -0.118206725 -0.06602466 0.2583159 0.23331481 -0.2812082
-0.17482917 0.1021087 0.21383908 0.29643187 0.53763366 -0.2519085 -0.16674525 -0.096274175
-0.20377891 -0.36588347 0.34088668 -0.15092835 0.15391205 -0.18605855 0.18405129 -0.047933757
0.047142424 0.2884948 0.32315332 -0.35444486 -0.18113358 0.12212905 0.21568957 0.3029013
0.3473143 -0.30775842 -0.11235111 -0.03382115 -0.22560377 -0.34475985 0.30976745 -0.32161468
0.10392829 -0.16424859 0.14511377 -0.08501495 0.1307136 0.31993553 0.32299465 -0.39325896
-0.15612358 0.1863998 0.2141652 0.26265478 0.40706643 -0.25627208 -0.24273463 0.0014501833
-0.21240874 -0.32608 0.2583317 -0.14539886 0.16982226 -0.18665253 0.3822083 -0.210549
0.16498776 0.28977004 0.35105056 -0.39606708 -0.066266224 0.24365418 0.2110853 0.31168365
0.44582954 -0.15849516 -0.19046466 -0.15839572 -0.1682733 -0.31098977 0.28533763 -0.25241688
0.19787155 -0.2549494 0.17955552 -0.10948676 0.05538302 0.30778962 0.20069839 -0.3605893
-0.11916534 0.23548405 0.16916567 0.2814496 0.5653396 -0.18408461 -0.118427195 -0.083945505
-0.16693299 -0.3204473 0.17967127 -0.073796466 0.17189503 -0.1849087 0.19398269 -0.16235106
0.18384384 0.25497657 0.2340739 -0.3773044 -0.24519694 0.16922483 0.19688822 0.36073068
0.5038402 -0.18128796 -0.1580479 -0.33160573 -0.13317594 -0.34061158 0.33171448 -0.33019197
0.18809244 -0.2733155 0.21090797 -0.19161129 0.1254963 0.37063617 0.30917722 -0.26974073
-0.23981304 0.2944791 0.1964085 0.29939693 0.45996204 -0.2378532 -0.24558432 -0.12104752
-0.26310304 -0.20122781 0.2613055 -0.29433465 0.24180454 -0.22016396 0.3533141 -0.19275822
-0.027140528 0.3021984 0.35471562 -0.40013903 -0.316572 0.26189762 0.27426133 0.35671967
-0.14606696 -0.17769514 -0.18804534 -0.11222559 -0.24249397 -0.31311616 0.41792375 -0.21690677
0.16994789 -0.32350656 0.2264383 -0.069754116 0.03480173 0.30902794 0.25689337 -0.43452522
-0.23226908 0.28769982 0.29123044 0.20954275 0.40570554 -0.20314962 -0.32193348 -0.15445217
-0.20168957 -0.15560718 0.23868805 -0.11617557 0.3164361 -0.22852747 0.18669474 -0.10870881
-0.17159827 0.26049617 0.33619174 -0.36608708 -0.18023826 0.22957438 0.24306437 0.17575873
0.2583016 -0.16900644 -0.22115041 -0.24900284 -0.121764585 -0.22772959 0.20864174 -0.2798314
0.16791655 -0.2038279 0.3657477 -0.12960158 -0.11232911 0.24325155 0.18003574 -0.31766248
-0.18986304 0.21911809 0.28412545 0.37665302 0.14293157 -0.2018264 -0.23108704 -0.14693727
-0.17392649 -0.22247963 0.36291903 -0.2866995 0.3029179 -0.35448802 0.31771243 -0.22359201
00000000: 7a73 f9bd eca4 993e e9c3 ac3e 74db 853e
00000010: 9c54 c33e 8c58 44be 4401 6abe 2356 04be
00000020: 1c47 43be e77c afbd 5b5f af3e fed4 d1bd
00000030: 221a c23e 18a0 f2bd 1f79 563e f743 f3bd
00000040: a3fa ad3d f2f8 453e 5068 a23e 4f82 a2be
00000050: 6d5d 16be 699b 953e 93c8 953e 55a2 a63e
00000060: c04f a83d ff16 24be 3b8f 4abe c04a 49be
00000070: 982c 4ebe 6ca0 b6be 546c c63e 0788 4bbe
00000080: dec5 813e 3eca 85be 82f8 f93d 5e16 f2bd
00000090: f037 87bd fb41 843e 14ea 6e3e 85fa 8fbe
000000a0: 6b06 33be 5e1e d13d a2f8 5a3e ebc5 973e
000000b0: 5ca2 093f 27fa 80be 44bf 2abe 652b c5bd
000000c0: 6bab 50be 1455 bbbe b388 ae3e f68c 1abe
000000d0: 1f9b 1d3e 2286 3ebe f177 3c3e 3056 44bd
000000e0: 6a18 413d 97b5 933e 5a74 a53e cc79 b5be
000000f0: 157b 39be cc1e fa3d badd 5c3e e115 9b3e
00000100: 2ed3 b13e 8392 9dbe 5718 e6bd 0c88 0abd
00000110: ad04 67be 5d84 b0be d799 9e3e aeaa a4be
00000120: 5bd8 d43d c830 28be b498 143e 511c aebd
00000130: c9d9 053e 97ce a33e 8e5f a53e 3d59 c9be
00000140: dcde 1fbe 97df 3e3e 1f4e 5b3e b07a 863e
00000150: 036b d03e 1836 83be 6d8f 78be 1414 be3a
00000160: ad81 59be f5f3 a6be 0d44 843e 70e3 14be
00000170: e3e5 2d3e d721 3fbe ceb0 c33e 289a 57be
00000180: 8df2 283e bd5c 943e e6bc b33e 4ec9 cabe
00000190: 96b6 87bd 7b80 793e bf26 583e 0095 9f3e
000001a0: c543 e43e 8e4c 22be 2b09 43be 7d32 22be
000001b0: d64f 2cbe 0d3a 9fbe c617 923e c93c 81be
000001c0: d79e 4a3e ba88 82be 67dd 373e 983a e0bd
000001d0: 4ed9 623d 9a96 9d3e e183 4d3e 299f b8be
000001e0: f50c f4bd bb22 713e c439 2d3e 291a 903e
000001f0: 19ba 103f ad80 3cbe f589 f2bd 9feb abbd
00000200: 7bf0 2abe ab11 a4be bffb 373e 9a22 97bd
00000210: 4005 303e b558 3dbe 66a3 463e 5b3f 26be
00000220: 8f41 3c3e 4a8c 823e 12b1 6f3e 0b2e c1be
00000230: e814 7bbe 4649 2d3e 119d 493e b1b1 b83e
00000240: acfb 003f 8da3 39be 4fd7 21be 3ac8 a9be
00000250: 465f 08be a464 aebe 7bd6 a93e ec0e a9be
00000260: 4e9b 403e 02f0 8bbe 42f8 573e c035 44be
00000270: 1a82 003e 06c4 bd3e 7a4c 9e3e 751b 8abe
00000280: 8d91 75be f7c5 963e 4f1f 493e 8e4a 993e
00000290: 2580 eb3e ca8f 73be 757a 7bbe c3e7 f7bd
000002a0: 71b5 86be aa0e 4ebe d6c9 853e 08b3 96be
000002b0: 9c9b 773e a972 61be 96e5 b43e 6962 45be
000002c0: d055 debc c0b9 9a3e 499d b53e 06df ccbe
000002d0: ba15 a2be 7217 863e fb6b 8c3e f6a3 b63e
000002e0: 9492 15be b7f5 35be f58e 40be 88d6 e5bd
000002f0: 5750 78be c350 a0be 1afa d53e cf1c 5ebe
00000300: d206 2e3e a7a2 a5be 71df 673e 3fdb 8ebd
00000310: 428c 0e3d e938 9e3e 8787 833e 177a debe
00000320: f2d7 6dbe 644d 933e 281c 953e 6092 563e
00000330: a3b8 cf3e 7406 50be 77d4 a4be b628 1ebe
00000340: b687 4ebe 7d57 1fbe a46a 743e 75ed edbd
00000350: ea03 a23e 1b03 6abe e82c 3f3e b9a2 debd
00000360: 75b7 2fbe c15f 853e 5321 ac3e c46f bbbe
00000370: 6190 38be 8c15 6b3e dee5 783e 19fa 333e
00000380: 1b40 843e 0610 2dbe 4175 62be 9afa 7ebe
00000390: b65f f9bd f231 69be 2ea6 553e 1046 8fbe
000003a0: 51f2 2b3e 43b8 50be 4843 bb3e 47b6 04be
000003b0: ce0c e6bd ef16 793e 4a5b 383e a8a4 a2be
000003c0: 756b 42be 7e60 603e e478 913e aad8 c03e
000003d0: a75c 123e 94ab 4ebe 15a2 6cbe b976 16be
000003e0: c919 32be b3d1 63be 86d0 b93e 47ca 92be
000003f0: 0e18 9b3e 747f b5be 34ab a23e 4ef5 64be

item_embedding.weight f4 [3019, 20]
0.32162613 -0.29882607 -0.31748876 -0.27557233 -0.27181542 0.2736598 0.20803525 0.23375912
0.20426247 0.26157823 -0.14067091 0.1925956 -0.26074368 0.08532804 -0.1941312 0.31662008
0.24542059 -0.20932771 -0.22445531 0.12009642 0.29474613 -0.2739305 -0.31043446 -0.20433486
-0.31363267 0.29283652 0.27738172 0.23885164 0.29932228 -0.1288241 -0.016005924 0.2478454
-0.25370303 -0.07481447 -0.30559078 0.33024806 0.29203853 -0.26052698 -0.26284754 -0.09380774
0.2401288 -0.23349442 -0.26096642 -0.23448351 -0.21006739 0.24229732 0.20937826 0.24568532
0.2284303 0.23381577 -0.26177132 0.19312997 -0.2545068 0.2538163 -0.26642624 0.25674674
0.2570151 -0.20364584 -0.2914178 0.10285101 0.18434303 -0.24886324 -0.22794332 -0.057785287
-0.2877273 0.21468112 0.21896061 0.15526482 0.2259686 -0.24895172 -0.0027032525 0.027265841
-0.19299774 -0.107287824 -0.13885346 0.22031182 0.2757174 -0.12967014 -0.23087597 -0.2759844
0.23677844 -0.23586029 -0.24848595 -0.21773608 -0.28541 0.25251895 0.24308757 0.2704405
0.23081763 0.16445611 -0.24982457 0.19098002 -0.24474418 0.16178487 -0.21820638 0.24868907
0.24015127 -0.22467412 -0.23178115 -0.20133542 -0.3036536 0.11042862 0.25554705 -0.068891205
0.42554548 -0.06358393 -0.19901794 -0.21929157 -0.051517162 0.39851162 -0.10954613 0.15382677
0.34191355 -0.09646942 0.05915354 -0.30182973 -0.45684397 -0.19205195 0.01166739 0.5114284
-0.3159718 0.22519495 0.26434675 0.29112917 0.20006992 -0.33380413 -0.28910288 -0.28806508
-0.32430437 -0.32867536 0.33155128 -0.25705278 0.3146619 -0.33230016 0.2311305 -0.27272546
-0.22724754 0.2696805 0.25092703 -0.26086947 0.121043384 -0.31689042 -0.095161304 -0.14299929
-0.35263377 -0.03342895 0.31137204 0.1414085 0.31254575 0.25139165 -0.19841848 0.22867866
-0.2237276 -0.10166989 -0.09809486 -0.17740728 0.30874336 -0.38297975 -0.30944908 -0.18287307
0.277159 -0.25913945 -0.24385664 -0.2307334 -0.19490919 0.25989577 0.24076034 0.2478605
0.26199678 0.1304883 -0.2439719 0.22218116 -0.20195161 0.13740559 -0.24911098 0.23504145
0.24917915 -0.2633586 -0.29559222 0.05217256 0.2293365 -0.24682349 -0.25078565 0.070741005
-0.27192417 0.25916174 0.27201715 0.13955513 0.24906963 -0.29556474 0.2833147 0.10501203
-0.18698068 -0.30340627 -0.24414666 0.2885588 0.23869707 -0.19419312 -0.27640986 -0.28969806
0.048525188 -0.095496856 -0.31901094 -0.07046383 -0.2922547 0.35641995 0.021851772 0.068641014
0.051580496 -0.11653269 0.07647602 0.10784523 -0.28446376 0.11229738 -0.3387081 0.12593304
0.2640976 -0.1992654 -0.2731424 0.037860982 0.19784895 -0.27351868 -0.2545525 -0.32124227
0.019824967 0.26770696 0.3071367 0.1616888 0.31646246 -0.26602075 -0.05888776 0.31380287
-0.21880454 -0.012078651 -0.24675556 0.2328418 0.22418302 -0.21943894 -0.16222444 -0.14518163
0.22841543 -0.24394503 -0.25193864 -0.26847282 -0.18245742 0.21938498 0.24445866 0.26846394
0.2557522 0.25384963 -0.28139323 0.25083575 -0.27967554 0.24639139 -0.21358246 0.21404716
00000000: 2eac a43e bbff 98be e38d a2be d117 8dbe
00000010: 642b 8bbe 231d 8c3e 3107 553e 8d5e 6f3e
00000020: 2e2a 513e 95ed 853e 090c 10be c837 453e
00000030: 3280 85be 78c0 ae3d 54ca 46be 071c a23e
00000040: 894f 7b3e 015a 56be 9dd7 65be 1df5 f53d
00000050: f7e8 963e 9e40 8cbe 44f1 9ebe 283d 51be
00000060: 7694 a0be abee 953e fa04 8e3e 8695 743e
00000070: c540 993e 77ea 03be db1e 83bc 2fcb 7d3e
00000080: 5de5 81be 5438 99bd 6576 9cbe 4616 a93e
00000090: 1386 953e cb63 85be f493 86be 461e c0bd
000000a0: 53e4 753e 2919 6fbe 649d 85be 721c 70be
000000b0: e81b 57be ca1c 783e 4167 563e ef94 7b3e
000000c0: a2e9 693e 676d 6f3e e406 86be ddc3 453e
000000d0: b74e 82be 36f4 813e 0569 88be 4f74 833e
000000e0: 7c97 833e 8988 50be b734 95be 8da3 d23d
000000f0: 6bc4 3c3e 01d6 7ebe f969 69be 44b0 6cbd
00000100: fe50 93be 5ed5 5b3e 3637 603e befd 1e3e
00000110: 5064 673e 33ed 7ebe 0d29 31bb 9d5c df3c
00000120: 33a1 45be b8b9 dbbd 9a2f 0ebe 6c99 613e
00000130: d52a 8d3e 40c8 04be c06a 6cbe d44d 8dbe
00000140: 0c76 723e 5c85 71be 1a73 7ebe 35f6 5ebe
00000150: 4221 92be 2a4a 813e f3eb 783e 2d77 8a3e
00000160: 755b 6c3e 2f67 283e 03d2 7fbe 4490 433e
00000170: 389e 7abe efaa 253e 7e71 5fbe 59a8 7e3e
00000180: 37ea 753e f910 66be 0a58 6dbe df2a 4ebe
00000190: 7c78 9bbe 6628 e23d 10d7 823e d516 8dbd
000001a0: 19e1 d93e 4b38 82bd 5ccb 4bbe f88d 60be
000001b0: a903 53bd b709 cc3e b959 e0bd c484 1d3e
000001c0: 4b0f af3e c291 c5bd fb4a 723d 6d89 9abe
000001d0: 74e7 e9be 44a9 44be 9528 3f3c f9ec 023f
000001e0: 0ec7 a1be 8199 663e 7558 873e e20e 953e
000001f0: 21df 4c3e 60e8 aabe 4b05 94be 447d 93be
00000200: 390b a6be 2348 a8be 17c1 a93e 6c9c 83be
00000210: 5d1b a13e 3f23 aabe 79ad 6c3e aca2 8bbe
00000220: 94b3 68be 9013 8a3e 8279 803e af90 85be
00000230: 98e5 f73d 763f a2be eee3 c2bd 686e 12be
00000240: 6a8c b4be cbec 08bd 286c 9f3e 64cd 103e
00000250: ff05 a03e 68b6 803e 372e 4bbe bd2a 6a3e
00000260: d918 65be 4e38 d0bd f5e5 c8bd 41aa 35be
00000270: 9c13 9e3e ec15 c4be 1c70 9ebe 1443 3bbe
00000280: c9e7 8d3e edad 84be 8eb5 79be 6045 6cbe
00000290: 4696 47be 0f11 853e e189 763e 25cf 7d3e
000002a0: 7124 863e ba9e 053e c5d3 79be 7583 633e
000002b0: 67cc 4ebe 0db4 0c3e f316 7fbe b5ae 703e
000002c0: d228 7f3e f0d6 86be dd57 97be e5b2 553d
000002d0: 30d7 6a3e 4cbf 7cbe fa66 80be a9e0 903d
000002e0: a539 8bbe d9b0 843e d545 8b3e 8ae7 0e3e
000002f0: 1c0c 7f3e 4354 97be a00e 913e 8c10 d73d
00000300: dd77 3fbe 1158 9bbe 9501 7abe fbbd 933e
00000310: 016d 743e 90da 46be 9885 8dbe 4e53 94be
00000320: 59c2 463d db93 c3bd 6755 a3be 574f 90bd
00000330: 68a2 95be ad7c b63e 7d02 b33c a993 8c3d
00000340: 1246 533d b1a8 eebd 769f 9c3d f6dd dc3d
00000350: 3ca5 91be 2bfc e53d 266b adbe 97f4 003e
00000360: cd37 873e 3b0c 4cbe 52d9 8bbe 1e14 1b3d
00000370: ea98 4a3e a40a 8cbe b554 82be de79 a4be
00000380: f867 a23c e310 893e 0641 9d3e c091 253e
00000390: 5e07 a23e df33 88be 4b34 71bd c5aa a03e
000003a0: 4c0e 60be 89e5 45bc 7dad 7cbe 156e 6e3e
000003b0: 3c90 653e 9ab4 60be 2a1e 26be 7eaa 14be
000003c0: bce5 693e bacc 79be 1afe 80be 4575 89be
000003d0: 1ed6 3abe 75a6 603e 5f53 7a3e 1b74 893e
000003e0: f4f1 823e 94f8 813e c612 90be 8b6d 803e
000003f0: a231 8fbe 064e 7c3e 5cb5 5abe 2e2f 5b3e
