best_para_path/ciao100.10.20.70.250.251.01.00.5_p10_20gatv2_spill_var2_explicit_seed0_ex1_0.05_1e-05_0.05_0.01_0.1_0.01.pt (torch, 449509 bytes, 4 tensors)

user_embedding.weight f4 [2541, 20]
-0.5484912 0.29369253 0.26867655 0.025680806 0.16933006 0.7416107 -0.29186112 0.08058449
-0.39013484 0.226673 -0.84980196 -0.018658454 -1.196512 0.3927771 -0.35326022 -0.3215194
1.9519432 -0.59849936 -1.0360736 0.06274809 -0.3779267 0.84141874 -0.18521169 0.46473172
0.18791464 -0.64459634 -1.0472838 -0.06172747 -0.23143235 -0.55125946 -0.1589974 -0.39031723
-1.3246216 0.17411354 -0.52089506 0.0847526 1.5838199 0.141024 -1.4889787 -0.13650168
-0.47144488 -0.46869227 0.7084578 -0.028550774 -0.15712635 0.097766586 -0.2517069 -0.42624715
0.15093271 0.26216114 0.36370516 0.11735758 -0.11668228 0.3502199 -1.1373035 0.14439967
0.7552117 -0.022739628 -1.5791515 0.37214953 0.32400924 -0.4322317 -0.06994931 0.65214217
0.9248136 0.16386677 0.061171766 -0.3634432 -1.058497 0.029608471 -0.02381101 0.43557787
-0.092309155 0.40880117 -0.33581075 0.036986522 0.8069665 -0.061572704 -1.0984038 0.023249077
0.42513666 -0.8457604 -0.12735498 -0.9424304 -0.05203015 -0.022721846 0.18106997 0.09287734
-0.07428339 -1.2427288 -0.5420439 -0.024509294 -0.115733266 0.6970169 -0.9122323 0.20280866
-0.7420494 -0.08544322 -1.7564414 0.26571485 -0.12018356 -0.22098494 -0.424566 1.0454375
0.31824985 0.6728742 0.22714214 -0.42806736 0.40193886 0.4901769 0.21557917 0.83662915
-0.69249755 0.97392416 -0.91073525 -0.3400808 1.6802931 -0.17443381 -0.91955066 0.04904197
-0.48299396 0.30915058 -0.8297483 0.2980163 -0.28923592 0.4779233 0.30348808 -0.24336994
-0.44867143 -0.27513704 0.23868671 -0.16884862 -0.89797276 1.3871822 -0.6585082 -0.51765287
0.9391043 0.42129725 -0.65850276 0.8283278 0.28206065 0.8127531 -0.26444718 0.09800476
-0.58627975 0.50269175 -0.01549791 -0.66713476 -0.27364787 0.43664116 -0.52515554 0.6660342
-0.60469955 -0.49092764 -1.008045 -0.29375994 -0.6903096 -0.1423536 -2.1530392 0.57659835
-0.285641 -0.24546131 0.54779774 0.21766281 0.4881186 0.4219312 0.1161271 -0.7104882
0.31235692 -0.42852998 0.3321236 -0.08256818 -0.9215337 0.09153305 1.1553158 0.20142357
-2.6603205 -0.24390385 -1.3350072 -0.79497534 -0.96290183 0.04173171 -0.47983667 -0.19236133
-0.25945252 -0.57616836 -1.3296953 -1.6486925 -0.9910513 0.66276294 0.73446 -0.007759833
-0.49306718 0.0714233 -0.8231436 -1.0449065 -0.9780097 0.5141795 -2.2313771 0.60300267
-0.28164068 -0.2344099 -0.19558236 0.8086578 -0.89708996 0.39685118 0.30529502 0.04831376
-0.2106428 0.25802967 0.50497985 0.044197112 -0.96641934 0.4538406 -1.3933636 0.42671415
1.4066778 0.2608474 -1.3198276 -0.5763098 -0.41118327 -0.32328966 0.099375024 -0.69684535
0.6803576 -0.67724204 -0.5578232 0.15531644 0.23289354 0.87850785 0.4651646 -0.58541995
-0.4593483 -0.5248768 -1.4168915 -0.10376466 1.3347732 0.3434009 -1.8551952 0.4624121
-0.3970802 0.22547291 -0.10286813 -0.034134842 -0.34634146 -0.20982672 0.28144044 -0.28686973
0.26738736 -0.3753921 -0.42304078 -0.034226548 0.108883075 0.19718607 -1.1932803 -0.15967317
00000000: eb69 0cbf de5e 963e f98f 893e 8e60 d23c
00000010: dc64 2d3e 33da 3d3f d26e 95be 7b09 a53d
00000020: c1bf c7be f81c 683e 9f8c 59bf 9dd9 98bc
00000030: 4e27 99bf 141a c93e 86de b4be 319e a4be
00000040: 46d9 f93f 4137 19bf 0f9e 84bf 1282 803d
00000050: 9c7f c1be 3867 573f 22a8 3dbe 51f1 ed3e
00000060: b26c 403e 4404 25bf 650d 86bf f2d5 7cbd
00000070: 9afc 6cbe 571f 0dbf 37d0 22be a9d7 c7be
00000080: 338d a9bf d24a 323e 6159 05bf c592 ad3d
00000090: 9cba ca3f 9868 103e db96 bebf 19c7 0bbe
000000a0: 3961 f1be 6ff8 efbe 7e5d 353f 50e3 e9bc
000000b0: bbe5 20be d939 c83d badf 80be 113d dabe
000000c0: 1b8e 1a3e fc39 863e 9037 ba3e 2c59 f03d
000000d0: 1ff7 eebd 0650 b33e 2993 91bf 82dd 133e
000000e0: 8e55 413f 7548 babc a321 cabf 628a be3e
000000f0: 8ae4 a53e 794d ddbe 9541 8fbd caf2 263f
00000100: 96c0 6c3f b1cc 273e 3f8f 7a3d 3a15 babe
00000110: d47c 87bf 778d f23c 4f0f c3bc 1004 df3e
00000120: 950c bdbd 634e d13e 63ef abbe 2e7f 173d
00000130: 5b95 4e3f a933 7cbd 7f98 8cbf d974 be3c
00000140: 83ab d93e c183 58bf 5869 02be 1e43 71bf
00000150: 911d 55bd 2a23 babc 686a 393e 7a36 be3d
00000160: e421 98bd bd11 9fbf 64c3 0abf b7c7 c8bc
00000170: 9005 edbd b36f 323f 0e88 69bf 13ad 4f3e
00000180: f3f6 3dbf dbfc aebd 12d3 e0bf c70b 883e
00000190: cc22 f6bd e049 62be b760 d9be e5d0 853f
000001a0: a5f1 a23e 7c41 2c3f f397 683e a52b dbbe
000001b0: eeca cd3e 77f8 fa3e c9c0 5c3e 542d 563f
000001c0: 8547 31bf 1853 793f f225 69bf 121f aebe
000001d0: d813 d73f c79e 32be ac67 6bbf 3ce0 483d
000001e0: fc4a f7be fc48 9e3e 626a 54bf 9895 983e
000001f0: bb16 94be 5db2 f43e ca62 9b3e f835 79be
00000200: 43b8 e5be c3de 8cbe 4a6a 743e a7e6 2cbe
00000210: 8be1 65bf 308f b13f fe93 28bf e684 04bf
00000220: 2469 703f 46b4 d73e a393 28bf 4a0d 543f
00000230: 416a 903e 9610 503f 9f65 87be b8b6 c83d
00000240: 6e16 16bf 68b0 003f f2ea 7dbc 58c9 2abf
00000250: 931b 8cbe 6e8f df3e 9870 06bf 3881 2a3f
00000260: 97cd 1abf de5a fbbe 9e07 81bf b467 96be
00000270: 21b8 30bf 24c5 11be 65cb 09c0 f39b 133f
00000280: 8a3f 92be 365a 7bbe 793c 0c3f 00e3 5e3e
00000290: aeea f93e 5e07 d83e 0cd4 ed3d 8ee2 35bf
000002a0: 3fed 9f3e 4868 dbbe 1b0c aa3e 8219 a9bd
000002b0: a2e9 6bbf ae75 bb3d 63e1 933f fb41 4e3e
000002c0: b142 2ac0 eec1 79be 84e1 aabf 8183 4bbf
000002d0: bc80 76bf dfee 2a3d 27ad f5be 5efa 44be
000002e0: f6d6 84be c57f 13bf 7533 aabf 5b08 d3bf
000002f0: 8ab5 7dbf d5aa 293f 9205 3c3f 3246 febb
00000300: 4d73 fcbe 6146 923d 8ab9 52bf 7fbf 85bf
00000310: d85e 7abf 45a1 033f e2ce 0ec0 625e 1a3f
00000320: 3533 90be 2609 70be be46 48be 3304 4f3f
00000330: b0a7 65bf 1430 cb3e a14f 9c3e a6e4 453d
00000340: bfb2 57be 771c 843e 5c46 013f 0808 353d
00000350: 4267 77bf cc5d e83e bd59 b2bf 477a da3e
00000360: 050e b43f ca8d 853e 1cf0 a8bf 0a89 13bf
00000370: 9d86 d2be 3986 a5be 2285 cb3d 7564 32bf
00000380: ea2b 2e3f bc5f 2dbf 80cd 0ebf 460b 1f3e
00000390: a57b 6e3e e4e5 603f 0e2a ee3e 15de 15bf
000003a0: b32f ebbe 535e 06bf b35c b5bf 9182 d4bd
000003b0: d9d9 aa3f 3ed2 af3e 0977 edbf 47c1 ec3e
000003c0: 194e cbbe 5fe2 663e 87ac d2bd fad0 0bbd
000003d0: ab53 b1be d1dc 56be f618 903e 97e0 92be
000003e0: ffe6 883e 6533 c0be cd98 d8be 2331 0cbd
000003f0: 17fe de3d 25eb 493e 69bd 98bf 5d81 23be

item_embedding.weight f4 [3019, 20]
-0.058841664 0.14174207 -0.33961183 0.41067803 -0.109520994 0.16162282 0.18485686 -0.00521794
-0.36744615 0.043012235 -0.021532835 -0.018078117 -0.085566334 0.2035353 0.21145691 -0.11268261
0.5053991 0.035505824 1.1223063 -0.05868266 0.02784534 0.084059976 -0.2389997 0.043768235
-0.21569687 0.14789459 -0.12046075 0.31322134 -0.21880892 -0.15316114 0.0015477497 0.16423358
0.12796155 -0.063655 -0.8538718 -0.057402767 0.704493 -0.24040018 0.7378312 0.06772719
0.007308698 -0.22179836 -0.13653493 0.13293718 -0.12636234 -0.046385158 -0.033510674 -0.008391717
0.0074992734 0.01706553 -0.0615583 -0.07749904 -0.1704197 -0.058724172 0.16673553 -0.14724696
0.4521376 0.11354127 1.211623 0.0625877 0.26807588 -0.014952948 0.07079463 -0.21013911
0.022836879 -0.0038288836 -0.23572063 0.02469238 0.25279942 0.19934455 -0.06850948 -0.3619682
-0.2937889 0.099863954 -0.3723942 -0.14441365 -0.64382565 0.009644697 0.25550932 -0.04780368
0.024932519 -0.08637897 0.0724014 0.09100713 -0.06749912 0.09750539 -0.10744295 0.067045934
-0.07043261 -0.10169513 -0.01815145 -0.083002 -0.013184956 -0.0584948 0.17559636 0.06552251
0.7609494 0.101721264 0.79579484 -0.18523908 -0.42945263 0.26187176 -0.8579535 -0.9217832
0.77922076 -0.99018115 0.015701426 -0.10048017 -0.8028076 0.30132836 0.6428446 0.5492347
-0.09720443 -0.086304486 -1.5301768 0.7220508 1.5748847 0.39097455 -0.3989103 -0.14391235
0.29515585 0.6017444 0.48338622 -0.03926132 -0.122784145 -0.7370447 0.2294644 1.0087906
-0.7003898 0.007856834 -0.47994038 -0.033050515 0.5138391 0.43041465 -1.2428796 -0.324098
0.22899611 0.30293402 -1.1216595 0.15462357 -0.102784514 0.28142256 0.10672026 0.02950314
0.02203128 -0.14795186 -0.10345552 0.3724329 0.21392292 0.30340835 -0.17574427 -0.17305149
0.059434205 0.1192984 0.038222402 0.050787058 0.80763584 0.058090173 0.3672082 -0.13519043
0.018303134 0.063824005 -0.29400417 -0.25798106 0.12881303 -0.13146374 -0.32019094 -0.099352166
0.07206078 -0.06412584 0.2437349 -0.06932241 -0.065047234 -0.15906243 -0.2251794 0.1145167
-0.16295566 -0.117300525 1.1758434 0.21923095 0.0951635 0.16358043 -0.12015042 0.018130518
-0.12323588 -0.13687386 -0.020496478 -0.029368555 0.010655551 -0.2363304 -0.14065585 -0.041820023
-0.01857353 0.036558937 -1.2238435 -0.11731389 0.038864277 0.09028341 0.17895213 0.09515871
0.3648646 0.19293685 0.07876896 -0.1572876 -0.18608044 0.13048846 0.026450738 0.24185231
0.06787552 -0.010875964 0.18980919 0.082419336 -0.25221694 0.6553079 0.052517712 -0.1302311
0.3888969 0.0034073873 0.47614768 0.058307294 -0.10184535 -0.043945543 0.21130174 -0.07084209
-0.18772614 -0.060030255 -0.08507915 0.17659858 -0.07591475 0.20943537 0.077666774 0.32985803
-0.3163583 0.17626956 -0.58876705 0.36062294 -0.031285718 -0.06656664 0.5334458 -0.12061424
0.2910531 0.018998628 0.067362145 -0.048591804 0.14527842 -0.0364604 -0.075012915 0.12729771
0.14688559 -0.09714829 0.05273904 0.18238854 -0.2126476 -0.17602614 0.47737092 -0.13393849
00000000: f503 71bd d524 113e 9ae1 adbe 6444 d23e
00000010: 8b4c e0bd 7480 253e 1e4b 3d3e 41fb aabb
00000020: e721 bcbe 992d 303d a165 b0bc 8f18 94bc
00000030: 673d afbd 8f6b 503e 2988 583e 24c6 e6bd
00000040: d661 013f 8e6e 113d bca7 8f3f 3b5d 70bd
00000050: e91b e43c a327 ac3d 56bc 74be 5246 333d
00000060: a4df 5cbe ae71 173e 20b4 f6bd 8c5e a03e
00000070: 720f 60be 46d6 1cbe dddd ca3a d92c 283e
00000080: 5a08 033e 8d5d 82bd 5897 5abf 2a1f 6bbd
00000090: a759 343f 772b 76be 81e2 3c3f 8eb4 8a3d
000000a0: cd7d ef3b 1c1f 63be d0cf 0bbe af20 083e
000000b0: 2165 01be 5dfe 3dbd 7d42 09bd 6a7d 09bc
000000c0: 77bc f53b 03cd 8b3c 8e24 7cbd d1b7 9ebd
000000d0: 8082 2ebe c288 70bd b8bc 2a3e e8c7 16be
000000e0: 947e e73e 5388 e83d 7616 9b3f fb2d 803d
000000f0: 3e41 893e 36fd 74bc c6fc 903d b52e 57be
00000100: 6814 bb3c 02ee 7abb c060 71be ad47 ca3c
00000110: ed6e 813e fa20 4c3e b34e 8cbd e553 b9be
00000120: 806b 96be 7985 cc3d 74aa bebe 2ce1 13be
00000130: c2d1 24bf cb04 1e3c 1ed2 823e cbcd 43bd
00000140: 483f cc3c 75e7 b0bd 2f47 943d f261 ba3d
00000150: fb3c 8abd e8b0 c73d 0d0b dcbd 614f 893d
00000160: f93e 90bd 8945 d0bd 5ab2 94bc f4fc a9bd
00000170: b705 58bc 3e98 6fbd 88cf 333e aa30 863d
00000180: 94cd 423f 3d53 d03d 36b9 4b3f 50af 3dbe
00000190: 37e1 dbbe 0e14 863e d7a2 5bbf fcf9 6bbf
000001a0: 037b 473f 837c 7dbf 47a0 803c 8cc8 cdbd
000001b0: cd84 4dbf b647 9a3e 7791 243f a59a 0c3f
000001c0: 1e13 c7bd 68c0 b0bd d5dc c3bf 52d8 383f
000001d0: d295 c93f d12d c83e f93d ccbe c25d 13be
000001e0: ab1e 973e ec0b 1a3f 667e f73e 7ad0 20bd
000001f0: 4176 fbbd f6ae 3cbf b7f8 6a3e 0d20 813f
00000200: bf4c 33bf f3b9 003c bfba f5be fa5f 07bd
00000210: f68a 033f 4f5f dc3e ae16 9fbf 2cf0 a5be
00000220: f57d 6a3e 2b1a 9b3e 8a92 8fbf a455 1e3e
00000230: b080 d2bd 9e16 903e 2790 da3d 92b0 f13c
00000240: f17a b43c b180 17be 7de0 d3bd 86af be3e
00000250: 9c0e 5b3e 5758 9b3e 4ef6 33be 6934 31be
00000260: 4871 733d b852 f43d 188f 1c3d 1706 503d
00000270: 39c1 4e3f f6ef 6d3d b702 bc3e 5c6f 0abe
00000280: 74f0 953c 29b6 823d b787 96be 1816 84be
00000290: 90e7 033e 6e9e 06be 11f0 a3be 2679 cbbd
000002a0: 9a94 933d 6954 83bd a495 793e e8f8 8dbd
000002b0: 7c37 85bd 43e1 22be 6e95 66be bb87 ea3d
000002c0: d9dd 26be 423b f0bd 0982 963f 147e 603e
000002d0: 15e5 c23d a181 273e 6c11 f6bd 7486 943c
000002e0: 1863 fcbd a928 0cbe 3be8 a7bc 5396 f0bc
000002f0: 9f94 2e3c 9900 72be 1608 10be 794b 2bbd
00000300: 8427 98bc d3be 153d e7a6 9cbf 4442 f0bd
00000310: 2630 1f3d 82e6 b83d 3a3f 373e 92e2 c23d
00000320: 88cf ba3e 3d91 453e 9f51 a13d 0010 21be
00000330: df8b 3ebe c49e 053e 38af d83c 22a8 773e
00000340: 5202 8b3d 1931 32bc 575d 423e 78cb a83d
00000350: 9422 81be 42c2 273f d01c 573d 4d5b 05be
00000360: 7f1d c73e 794e 5f3b a1c9 f33e a1d3 6e3d
00000370: 4b94 d0bd 3e00 34bd 7c5f 583e a815 91bd
00000380: 483b 40be 49e2 75bd fa3d aebd 42d6 343e
00000390: 3179 9bbd 3a76 563e c20f 9f3d 27e3 a83e
000003a0: b7f9 a1be 0280 343e 70b9 16bf 92a3 b83e
000003b0: 7425 00bd 1754 88bd e78f 083f 9904 f7bd
000003c0: e904 953e 03a3 9b3c 2af5 893d 3308 47bd
000003d0: dec3 143e 8057 15bd 5fa0 99bd 555a 023e
000003e0: 2d69 163e aff5 c6bd e404 583d 10c4 3a3e
000003f0: 4bc0 59be 3240 34be f669 f43e 2c27 09be

linear_att_out.weight f4 [1, 40]
-0.0046133003 0.0070708916 -0.010119696 9.490931e-05 0.00045036236 -0.011804119 -0.015942456 0.008841147
-0.016540704 0.018817091 -0.0047506997 -0.00022311523 0.0006392622 0.0044332547 0.020691847 0.012092259
0.037777875 -0.0014836738 -0.21385387 -0.016021397 0.00053935574 0.003858669 -0.0013622183 -0.002341666
-0.0017587217 -0.00071068807 0.00096657546 -0.0003507511 -0.0012428291 -0.0018612543 0.000475943 0.0023565674
0.0050303903 0.00010290851 0.023875568 -0.0006245806 0.009099848 -0.0009357979 -0.047318712 0.0050655636
00000000: 2b2b 97bb f0b2 e73b 15cd 25bc 0c0a c738
00000010: 9d1e ec39 1066 41bc c199 82bc 75da 103c
00000020: 5f80 87bc 4d26 9a3c c2ab 9bbb 0af4 69b9
00000030: 2994 273a d644 913b f381 a93c 9c1e 463c
00000040: f9bc 1a3d d577 c2ba 82fc 5abe 4e3f 83bc
00000050: 8d63 0d3a b9e1 7c3b 768c b2ba a376 19bb
00000060: e884 e6ba 784d 3aba c861 7d3a 04e5 b7b9
00000070: 6de6 a2ba 55f5 f3ba fd87 f939 a470 1a3b
00000080: f9d5 a43b 96d0 d738 b296 c33c e5ba 23ba
00000090: 8717 153c 5650 75ba 44d1 41bd 07fd a53b

linear_trans_neigh.weight f4 [20, 20]
0.014027699 0.014972276 0.005594335 0.0072733173 0.017400252 0.0130173825 0.008751207 0.018603075
0.0047913273 0.017457562 0.015248727 0.013845608 0.012874275 0.005009364 0.09655654 0.014803759
0.066382445 0.011339784 0.16058508 0.009977897 0.013947676 0.005120326 0.015762068 0.009666701
0.011323572 0.0062112184 0.015275632 0.018305615 0.015135638 0.014696232 0.015248727 0.013978125
0.01266629 0.0033111868 0.09679372 0.012342789 0.066880114 0.013458406 0.16039632 0.018736405
0.009662388 0.014975066 0.015608525 0.0164408 0.01740009 0.0153437145 0.006569788 0.018603252
0.0048066187 0.009504583 0.015248727 0.013980642 0.011343942 0.013058975 0.09663421 0.013939366
0.06518611 0.005680619 0.15969653 0.016140055 0.014027699 0.014954973 0.012230271 0.016491381
0.017400248 0.015657742 0.015227592 0.008337497 0.015135634 0.017448854 0.008191693 0.013980676
0.021573357 0.005556042 0.096773475 0.014790497 0.06525785 0.013458406 0.16027081 0.01579714
0.014027472 0.014975066 0.015761852 0.016491381 0.0081462525 0.014865925 0.015280495 0.018603252
0.01513511 0.017457752 0.0057447385 0.011101607 0.02161941 0.013062981 0.09535711 0.014803754
0.06506043 0.008134206 0.16044207 0.01125338 0.003948204 0.014975033 0.00624325 0.007983246
0.008618562 0.015673123 0.015278457 0.018588586 0.015135638 0.007346538 0.01524869 0.004364463
0.013866509 0.008927335 0.09319602 0.014803759 0.066849984 0.013458406 0.16057393 0.018760698
0.008734418 0.008260604 0.008009899 0.011655473 0.01739452 0.01524285 0.015280495 0.011736612
0.004739249 0.01745775 0.0058928267 0.013980676 0.0151329385 0.013040043 0.093677156 0.009654605
0.06642646 0.008114322 0.16061808 0.018758519 0.0045260265 0.014959289 0.0066833072 0.016491367
0.017400255 0.006978505 0.010828244 0.00849599 0.015135626 0.01745775 0.015248727 0.006675057
0.021619402 0.012738813 0.09680007 0.014803759 0.06683247 0.013453332 0.1597193 0.009611951
0.014026612 0.0149750635 0.015666438 0.00766553 0.00796481 0.0052150204 0.0072322977 0.0128023
0.015135445 0.015270028 0.00636876 0.013980491 0.0128487535 0.013061881 0.096763425 0.014803753
0.06669451 0.011337762 0.1602569 0.01876031 0.014027674 0.0149750635 0.008301316 0.01649138
0.017400255 0.015602504 0.015280491 0.018603252 0.015114936 0.009008729 0.015248727 0.009678005
0.02161911 0.012195992 0.09515124 0.014803649 0.06648264 0.0033575979 0.16058375 0.018645981
0.0050503872 0.014975065 0.010305315 0.0064527476 0.017400244 0.015673123 0.015280491 0.01859669
0.015135641 0.008334334 0.006654176 0.0077098417 0.015952345 0.007332867 0.09668522 0.014773582
0.06688153 0.0035321196 0.16061807 0.018760871 0.014027694 0.014874092 0.015762076 0.016436148
0.0071891854 0.008765927 0.006787106 0.018603252 0.005672988 0.017447356 0.0063171824 0.013980649
0.02160896 0.003136736 0.09677853 0.006870136 0.06592145 0.013424675 0.16054475 0.008636803
0.013482554 0.0149678625 0.015762068 0.016491393 0.017400239 0.015517735 0.015280495 0.01860322
0.015135628 0.017442618 0.005549107 0.0067654313 0.021619407 0.013061838 0.096785165 0.014803368
00000000: 6fd4 653c 474e 753c af50 b73b 0255 ee3b
00000010: f98a 8e3c dc46 553c 3961 0f3c 7a65 983c
00000020: 9100 9d3b 2903 8f3c ccd5 793c b0d8 623c
00000030: a0ee 523c 9725 a43b 6fbf c53d 778b 723c
00000040: 85f3 873d 80ca 393c 6a70 243e 557a 233c
00000050: cb84 643c 68c8 a73b 741f 813c 1561 1e3c
00000060: 8186 393c 7a87 cb3b a546 7a3c a8f5 953c
00000070: 78fb 773c 77c8 703c ccd5 793c 8104 653c
00000080: 4586 4f3c 7f00 593b c93b c63d 6939 4a3c
00000090: 71f8 883d a580 5c3c ef3e 243e 177d 993c
000000a0: fe4e 1e3c fb59 753c e6ba 7f3c dbae 863c
000000b0: a28a 8e3c 3464 7b3c 6047 d73b d965 983c
000000c0: d780 9d3b 1cb9 1b3c ccd5 793c 100f 653c
000000d0: f1db 393c 50f5 553c 28e8 c53d f061 643c
000000e0: 4c80 853d 7c24 ba3b 7d87 233e 2638 843c
000000f0: 6fd4 653c b405 753c 7961 483c ef18 873c
00000100: f78a 8e3c aa44 803c 267d 793c ff99 083c
00000110: 73fb 773c e6f0 8e3c 7336 063c 350f 653c
00000120: 9cba b03c 750f b63b 2c31 c63d d753 723c
00000130: e8a5 853d a580 5c3c 081e 243e 0169 813c
00000140: 7bd3 653c fb59 753c 001f 813c ef18 873c
00000150: dc77 053c 3590 733c 0b5b 7a3c d965 983c
00000160: 41f9 773c 8f03 8f3c 5c3e bc3b 84e3 353c
00000170: 301b b13c 1d06 563c 974a c33d 728b 723c
00000180: 673e 853d 5545 053c ed4a 243e 1960 383c
00000190: f05f 813b d759 753c 2d94 cc3b 29cc 023c
000001a0: de34 0d3c ec64 803c 7e52 7a3c 1747 983c
000001b0: 78fb 773c 3abb f03b a4d5 793c c503 8f3b
000001c0: 5b30 633c f543 123c 8edd be3d 778b 723c
000001d0: a5e8 883d a580 5c3c 7e6d 243e 09b0 993c
000001e0: ce1a 0f3c 7c57 073c f43b 033c 99f6 3e3c
000001f0: f47e 8e3c 26bd 793c 0b5b 7a3c eb4a 403c
00000200: b44b 9b3b 8e03 8f3c 9d18 c13b 350f 653c
00000210: 25f0 773c e8a5 553c cfd9 bf3d 592e 1e3c
00000220: 990a 883d eff1 043c 1179 243e 77ab 993c
00000230: 104f 943b ce17 753c a5ff da3b e718 873c
00000240: fb8a 8e3c f1ab e43b f268 313c c432 0b3c
00000250: 6bfb 773c 8e03 8f3c ccd5 793c 70ba da3b
00000260: 2c1b b13c 74b6 503c 1d3f c63d 778b 723c
00000270: 76df 883d 5d6b 5c3c 758d 233e 727b 1d3c
00000280: e0cf 653c f859 753c e756 803c 202f fb3b
00000290: d67e 023c c3e2 aa3b e9fc ec3b bdc0 513c
000002a0: a8fa 773c 242f 7a3c 08b1 d03b 6e0e 653c
000002b0: 9483 523c 8001 563c e72b c63d 718b 723c
000002c0: 2297 883d 05c2 393c 631a 243e 39af 993c
000002d0: 54d4 653c f859 753c 3e02 083c ee18 873c
000002e0: fb8a 8e3c a5a1 7f3c 065b 7a3c d965 983c
000002f0: a3a4 773c 5999 133c ccd5 793c 7f90 1e3c
00000300: 8f1a b13c b3d1 473c a7de c23d 018b 723c
00000310: 0d28 883d 250b 5c3b 1170 243e 75bf 983c
00000320: b87d a53b fa59 753c a0d7 283c 9271 d33b
00000330: f58a 8e3c ec64 803c 065b 7a3c 1658 983c
00000340: 7bfb 773c bb8c 083c 460b da3b d7a2 fc3b
00000350: 7eae 823c 8c48 f03b e702 c63d e50c 723c
00000360: 2ff9 883d 227b 673b 1079 243e 66b0 993c
00000370: 6ad4 653c 77b2 733c 781f 813c 1aa5 863c
00000380: 4293 eb3b f69e 0f3c 5f66 de3b d965 983c
00000390: 79e4 b93b c2ed 8e3c 5e00 cf3b 180f 653c
000003a0: 4605 b13c b391 4d3b d233 c63d e11e e13b
000003b0: d301 873d 2bf3 5b3c d865 243e 6181 0d3c
000003c0: eee5 5c3c c43b 753c 741f 813c f518 873c
000003d0: f28a 8e3c 193e 7e3c 0b5b 7a3c c865 983c
000003e0: 6dfb 773c d2e3 8e3c 49d5 b53b 8db0 dd3b
000003f0: 2f1b b13c 5201 563c 4d37 c63d d389 723c
