best_para_path/ciao100.10.20.70.250.251.05.00.5_p10_20gatv2_spill_var2_explicit_seed0_ex1_0.01_1e-05_0.1_0.01_0.05_0.001.pt (torch, 449515 bytes, 4 tensors)

user_embedding.weight f4 [2541, 20]
00000000: 8521 75bd 1038 60bf 605b 27be 4fd1 39b8
00000010: ca10 01be 4962 3bbe beb7 a5be b518 913d
00000020: b19a a1bd 4f5b dabe aa70 5abf 23b3 b63d
00000030: b4cc 213f 8769 3dbe 8a8a 2bc0 3579 9e3e
00000040: 542d 393f 5b73 883d 3fd4 52bd 3c38 d2be
00000050: 60e9 643e 5468 b23e ea04 4c3f 7e83 a8be
00000060: 5c1c 1fbe 157a d2be c821 ca3e cfde 313f
00000070: 4d0c 823e 56c9 9fbf 5f0e 6cbf 527d c0be
00000080: 0245 0e3e 6966 b6be bd57 0bc0 4e57 a63e
00000090: c465 093e 7f7e bb3b b65c f7be 4794 3dbe
000000a0: bb32 aa3d 9550 9c3e ffe9 9dbe b421 18be
000000b0: 8a9a b7be 8760 b53d b4d3 65bd 3caf 923e
000000c0: 84ee adbe 030f 473d 5baa 843d 2bbc c83d
000000d0: 543f 1fbc 297e 1f3e 82a2 fdbf c91d dabd
000000e0: 07df 70bf 6b02 893d dbb7 61bf 5fa8 e4bd
000000f0: b945 fabd dfc6 80bc 09fa b23c b684 f2bd
00000100: 4b85 ffbe 6be6 44be e056 6ebd 7f46 91be
00000110: 17b6 743e 08df 5b3f ff3d 913e 9bdc 493e
00000120: 3761 273f d501 113e 1958 edbf 067b 81be
00000130: 73ad 193f ed8f 573e c48f f83d 87a0 7b3e
00000140: d0e4 9b3d 7e02 b03f 49d3 bc3e 866b 36bc
00000150: 4f9a 2abf 860b 03bd 0434 163f a6d2 b93e
00000160: ccf7 09bf 54a9 b3be 9f36 b9bf 71f4 c23e
00000170: a085 a13e 98b3 ecbe 5539 04bf ad5d 463e
00000180: d175 4dbf d510 f5be af67 a33e 1baa 39be
00000190: 4974 8dbf 5647 02bf c530 463e 218a 5c3e
000001a0: 9d56 febd bd3f 433e ad69 82be ddbf ab3e
000001b0: 98f2 adbe 8072 a2be e682 133f 0d2e fe3e
000001c0: ade7 ec3e 2ebd 5d3f f494 04c0 ddbd d23c
000001d0: 05f2 c83d 19cb c33e 2fdb ae3a a498 523e
000001e0: 6272 2e3e 4578 b0be 2500 d2bc a27f 38be
000001f0: 2da3 a7bd 4f7a d33e bc4e 263f 1de8 7cbe
00000200: 6160 893c e113 c0be fbe9 83bf e883 053f
00000210: 235e 21bf 351d abbe 57f2 c1bf dd1b 123f
00000220: b02b 0c3f 7248 3c3e 9a5c 72ba e46a 9a3e
00000230: 7e2a f0bd 249b 773f a5e1 2cbe 7146 ac3e
00000240: 14a5 c33e 7aa7 a23e 8a80 293f 35af 2a3e
00000250: 57aa d93e 773f 17bc bde8 fcbe d0a3 1cbe
00000260: fdd6 97bf 9999 15bf 5e92 96bf 4b4b 1fbf
00000270: bfa6 62bf 9c4e 3cbe 4682 d8be 1b11 5fbf
00000280: 696e c03c 63ef 4a40 5de5 29bf 0030 2cbf
00000290: 1c8b 9bbe e069 c2be af3a a4be 0038 20bd
000002a0: cede d2bd e3be 96bf 29c4 cdbe dc8f a63f
000002b0: 0d79 60bd d0ef 42bf e35f 913f b4db 4a3f
000002c0: 02d9 0a3f a276 e53e 4461 fb3e 5be4 5a3e
000002d0: 0e8a 85be 79ca f73f 89ab dd3d 5738 1cbf
000002e0: 731a 3c3d 1d9f 8c3e 3e23 c23e 30e1 6b3e
000002f0: f39a bcbe 540d 963f 8d61 71bf ec8a 13bf
00000300: 29db 37bf 3624 893f e035 c8bf 0924 983f
00000310: 472c b0bf f12d f3be a995 1fbd 3d6b 3dbf
00000320: c09d 47bf 0754 bcbe a2b7 b53e d0ef 92bf
00000330: 1926 1dbf f7f5 76bf 0135 803e 7343 a6be
00000340: 0483 ef3e 5f52 1ebe 4075 01bf 0a64 6a3d
00000350: 40d7 0dbf bbe6 33bf 1c3b 0fc0 9823 133f
00000360: b8d0 25bf ee6f 7ebe 7121 dabe a69b c6be
00000370: 50d9 953f 6d11 363f f394 a0be d965 61bc
00000380: ba40 5c3d c45b d0be 3a58 1d3e c330 8d3d
00000390: f36b 35bf 4ddf 0d3f 6c0e 36be 20fd 50bf
000003a0: 7a61 833e 3466 2fbe fd71 09c0 8d6d fc3e
000003b0: 9b8c 2cbe 1894 51be 1a7c c63d 7866 483f
000003c0: 9bec cebe ad1d 6c3f 67a0 a3bd 1add 513e
000003d0: e3f1 83bd 2255 753e 99cc 76be 2772 8d3e
000003e0: 0a5e 713e b59d 61be a3da 823c ca6e c7be
000003f0: 3007 2abd 1b0b 413e 1225 c8bf 2962 8d3e
-0.05984642 -0.87585545 -0.1634345 -4.430237e-05 -0.12604061 -0.18299212 -0.32366747 0.070847906
-0.07890833 -0.42647788 -0.8532816 0.08920886 0.6320298 -0.18497287 -2.6803308 0.3095185
0.7233479 0.06662627 -0.051471945 -0.41058528 0.2235465 0.3484522 0.79695 -0.3291282
-0.15538162 -0.41108766 0.39478898 0.69480604 0.2540001 -1.2483318 -0.9220943 -0.37595612
0.13893512 -0.35625008 -2.1772301 0.32488483 0.13417727 0.0057218666 -0.4831292 -0.18513595
0.08310457 0.3053023 -0.30842587 -0.14856607 -0.3586009 0.08856302 -0.0561101 0.28649318
-0.33971035 0.0485983 0.06477805 0.09801515 -0.009719688 0.1557547 -1.9815218 -0.10650212
-0.9409031 0.06689914 -0.88171166 -0.11164927 -0.1222033 -0.01571983 0.021847742 -0.11841719
-0.49906382 -0.19228522 -0.05818832 -0.28374097 0.23897587 0.85887194 0.28367612 0.1971306
0.65382713 0.14160855 -1.854251 -0.25289172 0.6003029 0.21050997 0.12136796 0.24572955
0.07612002 1.375076 0.36879948 -0.011134034 -0.66641706 -0.03199341 0.5867312 0.36293525
-0.53893733 -0.35090125 -1.4469794 0.3807712 0.3154726 -0.4623077 -0.5164998 0.19371672
-0.802579 -0.47864404 0.31915042 -0.18131296 -1.1051112 -0.508901 0.19354542 0.21537067
-0.12418864 0.19067283 -0.2547125 0.33544818 -0.33974147 -0.31727982 0.5762161 0.4964451
0.46270505 0.8661679 -2.0715914 0.0257253 0.098117866 0.3824089 0.0013340468 0.2056604
0.17035821 -0.34466758 -0.025634835 -0.18017438 -0.0818542 0.41304252 0.6496389 -0.24697919
0.01676959 -0.37515166 -1.030578 0.521544 -0.63034266 -0.3342072 -1.5152081 0.57073766
0.5475416 0.1838701 -0.0009245366 0.30159676 -0.11726855 0.967211 -0.16882952 0.33647493
0.38211882 0.317684 0.6621176 0.16668399 0.4251277 -0.00923144 -0.49396315 -0.15296865
-1.1862484 -0.58437496 -1.1763418 -0.6222426 -0.88535684 -0.18389362 -0.4228689 -0.87135476
0.023490148 3.170861 -0.66365606 -0.6726074 -0.3037957 -0.379714 -0.32076022 -0.039115906
-0.10296403 -1.1777004 -0.4018872 1.3012652 -0.054802943 -0.76147175 1.1357387 0.7924149
0.5423738 0.44817072 0.49097645 0.21376173 -0.2608189 1.9358665 0.10823733 -0.6102347
0.04592366 0.27465144 0.37917513 0.23035121 -0.36836967 1.1722817 -0.94289476 -0.5763385
-0.71818787 1.0714176 -1.5641441 1.1885997 -1.3763512 -0.47495988 -0.038961086 -0.7399176
-0.7797508 -0.36782858 0.35491663 -1.1479435 -0.6138626 -0.9646906 0.2504044 -0.32473335
0.46779644 -0.1546111 -0.50569534 0.05722431 -0.5540657 -0.7027394 -2.2379827 0.57476187
-0.64771605 -0.24847385 -0.4260364 -0.38790625 1.1706944 0.7112034 -0.3136364 -0.0137571925
0.053772666 -0.40695012 0.15365687 0.06894066 -0.7086784 0.55418855 -0.17778939 -0.8163624
0.25660306 -0.17128831 -2.1475823 0.4930233 -0.16850512 -0.2046665 0.09691639 0.78281355
-0.4041489 0.9223278 -0.07989579 0.204945 -0.064426206 0.23958257 -0.24101485 0.27626154
0.2357103 -0.22032817 0.015973395 -0.38951713 -0.04151076 0.18851893 -1.5636313 0.27613953

item_embedding.weight f4 [3019, 20]
00000000: e260 50be 63a0 80bf 013e 1ebe a163 47bd
00000010: c4a0 a83e c9a2 e53d a74f ea3d 87d2 8c3d
00000020: 4006 bcbb 2978 2a3d 3f8f 94bc 9479 eebd
00000030: 5704 523d 2d8e 483e 4c35 1d3f be5e bb3d
00000040: f292 9c3d ac16 3ebe 8acb f0bd 63d9 57be
00000050: 7b75 24be c361 93bf b3c9 b2bd de2c 353e
00000060: 485f 9abd 9df1 4f3d 76d8 06be 7ead 2a3e
00000070: a880 f8bd 31dc 37be d7a8 963d 27c6 053e
00000080: 563a 4bbc 37d7 3fbb b859 debe 1f0f cb3b
00000090: 32c4 eebe d399 1f3e b18f cdbd 5f54 2bbd
000000a0: 0a7e 013e 933f 78bf 249c fc3d 33ff d3bb
000000b0: d4a2 03bd 914b 493d 051f 19be fb43 313d
000000c0: 6fc7 473a c47f 1b3e a084 1a3d 9e00 80bc
000000d0: 1c28 253d 193b 033a 89c0 0b3f 9478 743e
000000e0: 397f d03e ff02 c13d 4f08 2e3e d2f5 ad3d
000000f0: bdbb 2b3e 71fc 6e3e 4ba1 e7be 609e 4d3d
00000100: 7792 7fbe e1de 21be c550 bbbe 508c 9cbd
00000110: 8544 5b3d 84e3 f63d 260f 913b 2fb6 8dbd
00000120: 2955 3abd 7026 21be 5a37 d03e 48b7 863e
00000130: 5c5f 04bf 7298 30be c215 d83d 7bef c4be
00000140: ec96 38be 1aef 64bf e514 cd3d 71aa 853d
00000150: e7c2 8b3d 8bd4 7abd d4a9 313b 2d75 f03d
00000160: 2ff4 e03d a15f 88bd 2ca3 d9bd 68e0 dcbd
00000170: 78c9 f83d 51f5 1b3b 8b53 4a3e b1f3 89bd
00000180: 9f38 fc3e 7488 153e 8f7d 073e 7654 1dbe
00000190: 28ba 36bf b2bb 7dbf 8904 6dbf 4f3d 81bd
000001a0: 0207 d53e 5148 27be 8ab6 d8be 12ae 71bf
000001b0: 2f2f 3fbf ef14 15bf 2e3e 06bf e7a1 8b3e
000001c0: 9248 8cbf 4095 673f eae6 cebf 0d89 cfbe
000001d0: 4af9 b0be c336 b6be 5146 993e 9cef 1abf
000001e0: f743 093f f027 153f 05bc 723d 77b6 0abd
000001f0: 29de 76bd e482 853d fc3d 8abe 5648 813c
00000200: b1b1 b03c 78eb 52be 90ee 253d e71d a2bd
00000210: b5b0 8cbd 362e 5d3e 3efd d9bf d0d4 b03e
00000220: 6ac3 19bf ee76 93be 2fb9 e2be 3024 533e
00000230: d49d 773e d389 26bf 63ee 083e d329 d1be
00000240: b471 853c b010 41bd 646c f03d b030 573e
00000250: 565d 333d a75c 163e 46b6 323c a3e9 4bbd
00000260: 6b18 67be d710 803e 51fc cdbe 2af6 923e
00000270: 8b6d 953e 003d 513e 7451 953d 4c47 b2bd
00000280: b20b 003e 6abd 35bf c19e 5a3d 796e cdbb
00000290: dc3d c2bc c841 373e c6f9 16bb 6f12 723e
000002a0: 461f 953c 42b7 8abc 7f88 fbbd e981 38bd
000002b0: 67b0 4abe 466c a9bd 289a 4d3f 9413 ef3c
000002c0: bed7 a9be ddea a33c 0f99 53bd 1683 99bb
000002d0: b2d2 1fbe ce83 06bf 0ad2 b4bd 704d 063d
000002e0: 51c3 6c3e 550c a73d c2ce f73d 6501 e93c
000002f0: a8ee 0dbd 55cd 613d 7b06 92bd 9176 4abe
00000300: f224 27be ec3f afbd 11df ccbe 8dc8 2a3c
00000310: 4de0 53bf fe6a 563d 6a2c b8bd ba27 953c
00000320: 1550 a43e 1c3a 0ebf 9f2f 05be 503a dcbd
00000330: bac5 9abe bfcb ab3c 98ed 65be cf35 8e3e
00000340: 6ea9 efbd fced bd3e efa3 f13d f560 09bd
00000350: 1ff7 6ebe 7671 87be 05cf 33be 528a 5fbe
00000360: 7598 beba 59f9 f23c 07c0 a4be 580d 35be
00000370: da84 14be 4c6c 08bf 60c9 653e 64d6 c2bc
00000380: 18d9 76be 4ac4 febc 37a3 893d 8b9d 5b3d
00000390: 4683 be3c 7e02 ae3e 2c14 eabc 5722 823e
000003a0: 923a e83d ddc5 593e 33f2 be3c d930 1b3e
000003b0: 51ec 1fbf e485 2f3e 07fb 463d f67a 3fbe
000003c0: fd18 9abd bb58 59bf d645 653d e082 3b3b
000003d0: cd73 ccbc 2890 0dbd d11a 9bbb 7604 e0bd
000003e0: 506c a5bd 1cc4 713c 7eb3 98bd 6f13 b63d
000003f0: 2317 88bc a5d5 87be 3a31 693f 4b63 603d
-0.20349458 -1.0048946 -0.1545334 -0.048678998 0.32935154 0.112126894 0.11440974 0.068760924
-0.0057380497 0.0416185 -0.018134711 -0.11644283 0.05127367 0.19585486 0.6140945 0.0914893
0.07645215 -0.18563336 -0.11757572 -0.2107902 -0.1606044 -1.151421 -0.08729877 0.17692897
-0.07537705 0.05076753 -0.13168511 0.16667745 -0.12133914 -0.1795509 0.073564224 0.1306387
-0.012404045 -0.0029272565 -0.43427825 0.006196871 -0.4663406 0.15586023 -0.100371726 -0.04182851
0.12645736 -0.96972007 0.12334469 -0.006469631 -0.032137707 0.04914433 -0.1495324 0.04327772
0.00076209655 0.15185457 0.037724137 -0.015625294 0.040321454 0.00050060597 0.5459066 0.23874122
0.40722063 0.094243996 0.16995357 0.08494152 0.16770835 0.23338486 -0.45240244 0.050199866
-0.24958216 -0.15807678 -0.3658506 -0.0764395 0.053532142 0.12055114 0.0044268547 -0.069195144
-0.04549137 -0.15737319 0.4066723 0.26311707 -0.51708007 -0.17245653 0.10551025 -0.3846396
-0.18026322 -0.8942734 0.10013751 0.0652665 0.06824284 -0.061237853 0.0027109282 0.117410995
0.10984074 -0.06658865 -0.10626826 -0.107849896 0.12147802 0.0023797343 0.19758432 -0.067359336
0.49261948 0.14602834 0.1323149 -0.1536425 -0.713778 -0.99114525 -0.92585045 -0.06310522
0.4160691 -0.1633618 -0.42326766 -0.94406235 -0.7468137 -0.5823507 -0.5243863 0.2727196
-1.0959647 0.9046211 -1.6164219 -0.4053425 -0.34565192 -0.35588655 0.2993646 -0.60521865
0.5361933 0.58264065 0.05926134 -0.03386542 -0.060270462 0.06519106 -0.27000415 0.015781563
0.021569105 -0.20597637 0.040510714 -0.0791586 -0.06869642 0.2159966 -1.7030408 0.34537363
-0.60063803 -0.28801674 -0.4428191 0.20619273 0.241813 -0.65054053 0.13372187 -0.40852222
0.01628957 -0.047135055 0.11739424 0.21014667 0.043790184 0.14683782 0.010907715 -0.04978336
-0.22567908 0.25012848 -0.40231565 0.28703433 0.29185137 0.20433426 0.072909266 -0.08705005
0.12504461 -0.7099215 0.053374056 -0.006269273 -0.023711137 0.17896187 -0.002303706 0.23639844
0.018203389 -0.016933087 -0.12281894 -0.045045767 -0.19793855 -0.08272605 0.8031335 0.02918414
-0.3317241 0.020009452 -0.05165964 -0.004684816 -0.15607718 -0.5254487 -0.08829124 0.032788694
0.23121382 0.08156649 0.12099983 0.028443048 -0.03465143 0.05512746 -0.07130142 -0.19771792
-0.16322687 -0.08557114 -0.40013936 0.010423792 -0.8276413 0.05234813 -0.08992846 0.01820742
0.32092348 -0.5555742 -0.13006447 -0.1075331 -0.30228978 0.020971177 -0.22453916 0.27775428
-0.11702238 0.3709563 0.11798846 -0.03353973 -0.23336457 -0.2645375 -0.1755944 -0.21830109
-0.0014541285 0.029659914 -0.32177755 -0.17680871 -0.14503804 -0.5329025 0.224401 -0.02378387
-0.24106252 -0.031099457 0.06720584 0.05361704 0.023255955 0.33986276 -0.028574072 0.25416824
0.113392964 0.21266885 0.023308849 0.15155353 -0.62469965 0.17140919 0.048579242 -0.1869925
-0.075242974 -0.84901017 0.055974804 0.0028611943 -0.024957562 -0.034561306 -0.0047334214 -0.10938351
-0.080772996 0.014756229 -0.074561104 0.088904254 -0.016612595 -0.26530185 0.9109074 0.054782193

linear_att_out.weight f4 [1, 40]
00000000: a427 ff3c 21f4 573e 7f5a 1dbd 2154 92bd
00000010: 5193 1ebd 4b96 f8bd a9b9 f6bc f07a c1bd
00000020: 513f 9ebc e718 3ebb 6070 abbd 86c5 97bc
00000030: e072 793d 8398 563d f63a 30be 1ee8 bebc
00000040: 2acd a23d ffe5 e2bc fdbe 27bd 0ba8 2bbd
00000050: b90d eb3a f182 2a3d 8d06 973a 25ee 2e3a
00000060: 1049 bcba 4f6e 5aba bb77 2d3b 4886 5abb
00000070: 21db 193b 890d 893b 5398 de3a 4259 40bc
00000080: 6ed4 6d3b c846 b138 a787 1abd 57e0 09bb
00000090: 2b7a 013d 92f8 e8b9 ba84 81bb 93ce 09bb
0.031146832 0.21089222 -0.038416382 -0.071449526 -0.03871471 -0.12138041 -0.030117827 -0.094472766
-0.019317301 -0.0029006542 -0.08371043 -0.018526804 0.06090057 0.05239154 -0.17209992 -0.023304041
0.07949288 -0.027697561 -0.040953625 -0.041908305 0.0017933167 0.04162878 0.0011522338 0.00066730595
-0.0014365036 -0.00083324773 0.002646907 -0.0033344198 0.0023476558 0.0041825217 0.0016982652 -0.011740031
0.0036289948 8.453202e-05 -0.037727024 -0.0021038258 0.03161065 -0.00044435688 -0.00395259 -0.002102767

linear_trans_neigh.weight f4 [20, 20]
00000000: de53 f53c a946 1b3f 9bfc dd3c fca9 7c3c
00000010: 585b 933c c733 8eba 9d5f d93c d85e 853c
00000020: 1113 193c e05c 953b db3f 133c cd80 8e3c
00000030: 67b3 763c 04ba 133c a4b2 153f b481 0b3d
00000040: f592 ec3e 9361 663c 0d3d cd3c c197 5a3c
00000050: 585e c33c 2134 1b3f 5c44 e43c 09d4 7e3c
00000060: 5531 4f3c f645 aeba a594 db3c 6114 823c
00000070: cbff 873c 8849 843b 8bfd 143c bc44 903c
00000080: 2e7e 763c 393e 123c 5cad 153f 92c9 ea3c
00000090: 9839 ec3e 23be 803c 6c7e cc3c 4d1b 5e3c
000000a0: a817 c33c 9a49 1b3f 6004 df3c b05c 813c
000000b0: d0bd 633c fc20 99ba 4899 d83c f8e3 b03c
000000c0: ff1a 193c 4074 7e3b db75 1c3c b59b 933c
000000d0: 56d5 753c 8a3f 193c 44af 153f 54a8 eb3c
000000e0: 6d0c ed3e c9d1 653c 894f cb3c 04ac 5b3c
000000f0: 33ad fa3c fb44 1b3f 61cb de3c 8fb4 8a3c
00000100: b9b5 9a3c 9462 8fba bb83 dc3c e31d 7a3c
00000110: a1ee 273c 0fc3 8e3b 04dd 1c3c 7c73 b33c
00000120: 26e8 7f3c 532c 143c 09ae 153f 59fd ea3c
00000130: 2f08 ed3e 64ce 803c e65c cc3c 689f 5b3c
00000140: f813 c63c 9d49 1b3f 5c0f e03c e444 9b3c
00000150: 4759 4c3c e2b4 9aba 4997 053d f8e3 b03c
00000160: ef95 213c 43d8 2b3c 4ba6 1c3c 3fed 8d3c
00000170: 3c33 a63c aec5 3f3c 91bd 153f 09de 0a3d
00000180: 6013 ed3e a701 663c 2496 cc3c 70bc 5a3c
00000190: f8f8 c03c e248 1b3f e224 de3c bcab 7c3c
000001a0: 5f70 4d3c 7b52 1f3b c75c dc3c adab 813c
000001b0: 25ff 873c d767 793b 7bda 1c3c c4e7 8c3c
000001c0: fa9d 773c 176d 153c 39c3 153f 6bcf 0b3d
000001d0: 014a ec3e 820e 6a3c baf3 cc3c 5941 6d3c
000001e0: f38b c23c ed41 1b3f e195 de3c 8358 803c
000001f0: acc6 5a3c 689d 99ba 4697 053d ef71 7e3c
00000200: d948 193c f118 2c3c 8baa 1c3c 442f b53c
00000210: 72a5 783c d52f 163c 5ecd 153f 7ce1 e93c
00000220: c28b ec3e 1f01 663c d310 ec3c 1e4e 643c
00000230: 3b98 c13c 2e45 1b3f 474a de3c 61f1 8d3c
00000240: bbb5 9a3c c826 a8ba cdf6 d93c edef 793c
00000250: 8e95 283c 3916 2c3c 9946 173c 8c91 8d3c
00000260: 2135 a63c 005d 153c 21ad 153f 53c9 0b3d
00000270: bc62 ec3e f52a 663c 8bd0 cb3c 053c 5a3c
00000280: b99f c63c 7d48 1b3f 5288 df3c 4727 7c3c
00000290: ffc1 4c3c 7a51 b3ba 7edb d83c d64a 7f3c
000002a0: f047 253c 2e1c 823b d3ce 1c3c 5103 943c
000002b0: e6ac 763c 51a9 193c 26ae 153f 5406 f33c
000002c0: 9f92 ec3e 8161 663c 2059 cc3c 0aa5 663c
000002d0: c8d9 fa3c ac49 1b3f cca1 de3c 4797 973c
000002e0: bbb5 9a3c a192 95ba 4215 f43c 5de0 af3c
000002f0: 0ad9 1e3c 7c53 7d3b 830f 123c 688c 8e3c
00000300: f77f 823c 0c23 153c 2cb8 153f 0bd9 ef3c
00000310: 47a4 ec3e 3e48 663c 8d77 ce3c 84eb 5c3c
00000320: 4d87 c13c 4c49 1b3f 7bba de3c 8da3 793c
00000330: 0f8f 653c 9452 1f3b d635 e93c cf48 823c
00000340: be6e 4e3c 140e 7e3b 7fc9 1c3c c8a8 8d3c
00000350: 8b75 783c b5dc 143c caae 153f 3caf ed3c
00000360: e63e ec3e 51e9 653c da73 e63c cc8b 973c
00000370: 041e d03c c243 1b3f 2a44 e43c 9252 813c
00000380: 6776 4b3c 3a0b 9dba 8caf d83c 1749 b03c
00000390: 3a82 1a3c f067 863b 8abc 1c3c 2ae7 933c
000003a0: 2565 7c3c 8465 123c c6ad 153f 660c e93c
000003b0: cfd1 ec3e 07fb 653c 09bc cc3c e421 5a3c
000003c0: 4c5d c43c d845 1b3f 4e48 e33c 9d12 a73c
000003d0: 486e 9a3c 2bb5 81ba d3b9 023d 15af b03c
000003e0: 2e0f 273c 6fe2 853b 8cba 1c3c 1e9a 8d3c
000003f0: 3123 a63c 8aa6 193c 82ad 153f 4a14 ef3c
0.029947218 0.60654694 0.02709799 0.015421387 0.017987892 -0.0010849171 0.02653485 0.016280577
0.009342925 0.0045581907 0.008987392 0.017395401 0.015057421 0.009016518 0.5847571 0.03405924
0.4620587 0.014061349 0.025053525 0.013341845 0.023848698 0.6062642 0.027864628 0.015553483
0.012646039 -0.0013295996 0.026804278 0.015878858 0.016601464 0.004037086 0.0090936525 0.0176109
0.015044732 0.008925968 0.5846765 0.02866057 0.4613769 0.015715664 0.024962626 0.013556314
0.023814991 0.6065918 0.027223766 0.015791267 0.013900235 -0.0011682804 0.026440278 0.021593079
0.009344815 0.0038826615 0.009549583 0.018018583 0.0150044765 0.009353528 0.5847056 0.028766789
0.46298543 0.014027067 0.024818199 0.013407711 0.030600166 0.6065213 0.027196588 0.0169318
0.01888548 -0.0010939413 0.026918283 0.015265915 0.010249765 0.004356749 0.009574179 0.021905653
0.015619313 0.009043771 0.5846868 0.028685259 0.46295306 0.015723415 0.024946641 0.013404705
0.024179444 0.606592 0.027351074 0.018953748 0.012472457 -0.0011803175 0.03261498 0.021593079
0.009862407 0.0104885725 0.009561132 0.017325042 0.020288102 0.011704845 0.5849238 0.033903155
0.46303844 0.01403848 0.024973936 0.013350591 0.023556218 0.60658085 0.027117196 0.015421804
0.012538998 0.0024310637 0.026899708 0.015828932 0.016601155 0.0038056278 0.009573574 0.017200358
0.015113348 0.009120247 0.5850101 0.034133356 0.4615021 0.0142856855 0.025018562 0.014480912
0.023748374 0.6064747 0.027171077 0.015667206 0.013353031 -0.0011719884 0.03261497 0.015530094
0.009355747 0.010503993 0.009562145 0.022117265 0.015176164 0.0091666775 0.5851649 0.028549902
0.46200377 0.014038353 0.028816616 0.01393464 0.02363216 0.60652435 0.027135028 0.017327012
0.018885484 -0.001282894 0.026606942 0.015254957 0.010289563 0.010503345 0.00923314 0.017281316
0.020289006 0.009116411 0.584673 0.034127545 0.46169078 0.014048328 0.024879714 0.013319974
0.024246084 0.60657483 0.027286682 0.015390224 0.012497424 -0.0013680898 0.02647185 0.015581807
0.010087952 0.0039706444 0.009570795 0.018067988 0.015055871 0.009378747 0.58468854 0.029666103
0.46205613 0.014061333 0.024944842 0.014077434 0.030621424 0.6065929 0.02717676 0.018504752
0.018885484 -0.0011411497 0.029795293 0.02146929 0.009695301 0.0038654497 0.008914831 0.017400935
0.015930159 0.009102594 0.5848415 0.029278299 0.46219084 0.01405531 0.02520349 0.013483886
0.023624087 0.6065872 0.02718853 0.015236747 0.014011159 0.0024310695 0.028468054 0.015903858
0.012599645 0.0038765715 0.009569525 0.017292395 0.015164743 0.009085824 0.5846983 0.029014222
0.46141738 0.014032678 0.028131414 0.018499278 0.025404938 0.60650265 0.027864534 0.015786443
0.012418366 -0.0011981495 0.026450895 0.021519227 0.0094304625 0.004101746 0.009566436 0.018054564
0.015404974 0.008935336 0.5846828 0.028448295 0.4625382 0.0140369 0.024992006 0.013313744
0.023970269 0.6065345 0.027744438 0.020394618 0.018851414 -0.0009895911 0.031915497 0.02156786
0.01019649 0.004085831 0.009565961 0.017285403 0.020280452 0.009378085 0.58467877 0.02918448
