best_para_path/ciao100.10.20.70.250.251.030.00.5_p10_20gatv2_spill_var2_explicit_seed0_ex1_0.05_0.0001_0.001_0.01_0.01_1e-05.pt (torch, 449539 bytes, 4 tensors)

user_embedding.weight f4 [2541, 20]
0	0x3c00e366	0.007866716
1	0xbeb1499f	-0.3462648
2	0x3d92e9ee	0.07173525
3	0xbde2fe99	-0.11083717
4	0x3d15ee99	0.036604498
5	0xbe50349a	-0.20332566
6	0x3e047bf4	0.1293791
7	0x3c7f8a4a	0.0155969355
8	0xbfa10257	-1.2578839
9	0xbe97e519	-0.29666975
10	0x3d85e7de	0.06538366
11	0x3c4ae7f3	0.012384403
12	0x3d9abb24	0.075552255
13	0x3c030825	0.007997547
14	0xbce1c6ea	-0.02756067
15	0x3e8b2bfd	0.27181998
16	0xbe5f3c36	-0.21800312
17	0x3d21bc9e	0.03948652
18	0xbcbd8be9	-0.023138003
19	0xb9aa9598	-0.00032536383
20	0x3a3538d0	0.0006913068
21	0x3f1e11d8	0.6174598
22	0x3bc30422	0.0059514204
23	0xbc21e95b	-0.009882296
24	0x3b4b34ef	0.0031006893
25	0xbc953f15	-0.018218556
26	0x3c3b7b2d	0.011442942
27	0x3aaedc01	0.0013340713
28	0xbf631f46	-0.88719594
29	0xbebaa6d6	-0.3645541
30	0x3bb87320	0.0056289583
31	0x3a8d22e1	0.0010767841
32	0x3bd91204	0.006624462
33	0x3a3f28c7	0.0007292148
34	0xbb180d31	-0.0023201222
35	0xbc6e9bf0	-0.014563546
36	0xbcab7dce	-0.020934012
37	0x3b65bc62	0.0035054912
38	0xbb04fdc0	-0.0020292848
39	0xb7e10be9	-2.6827636e-05
40	0xb95336d8	-0.00020142959
41	0x3e8fddc2	0.28098875
42	0xbb3dfe39	-0.002899064
43	0x3b5d148e	0.0033734175
44	0xb9b0dd68	-0.00033734296
45	0x3bfe89d3	0.007767895
46	0xbb7713cf	-0.0037701016
47	0xba0bcd18	-0.00053329905
48	0xbf4b55c5	-0.7942775
49	0x3eb50ffd	0.3536376
50	0xbb28524a	-0.0025683814
51	0xb9db5a33	-0.0004183814
52	0xbb3ed914	-0.0029121088
53	0xb994f1ba	-0.0002840886
54	0x3a83a306	0.0010043092
55	0x3d3f3127	0.046677735
56	0x3c26fd0c	0.010192167
57	0xbad86415	-0.0016509319
58	0x3aa0bd7d	0.0012263503
59	0x37362e6d	1.0858855e-05
60	0xbab93d60	-0.0014132671
61	0x3e11a96e	0.14224789
62	0xbc5b7125	-0.013393675
63	0x3c998c67	0.018743707
64	0xbbb6422f	-0.005562089
65	0x3d3c0c03	0.045909893
66	0xbcc8c128	-0.024506167
67	0xbb71759b	-0.003684378
68	0xbf03c16e	-0.51467025
69	0xbe79ff28	-0.2441374
70	0xbc33a1e1	-0.010963888
71	0xbb20ce43	-0.0024537004
72	0xbc819767	-0.015819265
73	0xbadb32ca	-0.001672351
74	0x3ba80632	0.0051276917
75	0x3e184f41	0.14873983
76	0x3d6ef0b8	0.058335036
77	0xbc04b6cb	-0.008100222
78	0x3b955f29	0.004558463
79	0x3885fff7	6.3896114e-05
80	0xba438a9c	-0.0007459314
81	0x3f1e10c3	0.61744326
82	0xbbd46dda	-0.006482822
83	0x3c2ee9f7	0.010675899
84	0xbad5c1e5	-0.0016308395
85	0x3c6bbe05	0.014388566
86	0xbc4654a8	-0.012105145
87	0xbac41d18	-0.0014962284
88	0x3d3f7074	0.046738103
89	0x3e46aa8d	0.19400997
90	0xbbccd85e	-0.006251379
91	0xba99c504	-0.0011731689
92	0xbbd3702b	-0.0064525804
93	0xba3bd209	-0.00071647816
94	0x3b2e1d18	0.0026567634
95	0x3d215b6a	0.03939382
96	0x3c196722	0.009362968
97	0xbb6412ab	-0.0034801166
98	0x3b13d6f9	0.0022558554
99	0x37ed58a5	2.829388e-05
100	0x38b4f985	8.6295455e-05
101	0xbd38a3e7	-0.045078184
102	0x3a56cd1d	0.00081940164
103	0xbb14c720	-0.0022701696
104	0x3aa56512	0.0012618622
105	0x3bad5606	0.005289796
106	0x3b07c807	0.002071859
107	0x3992514b	0.00027907858
108	0xbf5e1c3f	-0.8676185
109	0xbf227270	-0.6345587
110	0x3aa0365b	0.001222323
111	0x38e06402	0.0001069978
112	0xb917d86f	-0.0001448111
113	0x3904cba9	0.0001266437
114	0xb9e67ce2	-0.00043962064
115	0x3c8349d0	0.016026407
116	0x3c68ca79	0.0142084295
117	0x3880d5f4	6.1433675e-05
118	0xb8eb0734	-0.00011207015
119	0xb5b615de	-1.3566421e-06
120	0xbb8537b1	-0.004065477
121	0xbe5e1c58	-0.216905
122	0xbd142b4e	-0.03617411
123	0x3d600821	0.054695252
124	0xbc8d1582	-0.01722217
125	0x3dc5610e	0.09637652
126	0xbd82917d	-0.06375406
127	0xbc00e24a	-0.0078664515
128	0xbf19421c	-0.598665
129	0x3e176512	0.14784649
130	0xbd083581	-0.03325415
131	0xbbcb3d7b	-0.0062023974
132	0xbd1c54c0	-0.03816676
133	0xbb81a814	-0.003956804
134	0x3c66a6ab	0.014077823
135	0x3c27f53d	0.01025134
136	0x3dc3f567	0.09568291
137	0xbca48d05	-0.020086775
138	0x3c4040c6	0.011734193
139	0x393286c9	0.00017025614
140	0xba9e0630	-0.0012056287
141	0x3f080662	0.5313474
142	0xbc2e1a4f	-0.01062639
143	0x3c88f94d	0.016720438
144	0xbb9d9d1a	-0.0048099877
145	0x3cd72e1d	0.026267106
146	0xbc9e9ab7	-0.019360883
147	0xbb1a6f77	-0.0023564973
148	0xbee4cc52	-0.44687134
149	0x3e8cc0f4	0.27490962
150	0xbc252312	-0.010079162
151	0xbaf4ed48	-0.0018686438
152	0xbc31ecda	-0.0108596925
153	0xba9a9a47	-0.0011795246
154	0x3b88b770	0.004172258
155	0x3d9fc7c4	0.07801774
156	0x3ca9768d	0.020686412
157	0xbbbcbd8d	-0.005759901
158	0x3b65ad81	0.0035046043
159	0x384ae1c7	4.8370825e-05
160	0x3b98c8dd	0.0046626166
161	0x3f9a94e4	1.2076688
162	0x3d2cb7f4	0.04216762
163	0xbd832e91	-0.06405366
164	0x3cbe5f54	0.023238815
165	0xbde975fc	-0.11399457
166	0x3d980808	0.07423407
167	0x3c14c8cd	0.009081078
168	0x3f28810f	0.6582193
169	0xbf0e2b49	-0.555348
170	0x3d1d38f8	0.038384408
171	0x3bed43a7	0.007240731
172	0x3d33cb68	0.043895155
173	0x3b9bc32f	0.0047534923
174	0xbc841454	-0.016122974
175	0x3e223f93	0.15844564
176	0xbdebc21b	-0.11511632
177	0x3cbc88b0	0.023014396
178	0xbc5c7520	-0.013455659
179	0xb949127e	-0.00019175743
180	0xbaeb0a0e	-0.0017932074
181	0x3fa4c9dd	1.2874104
182	0xbc82e671	-0.015979024
183	0x3ccef3e6	0.025262784
184	0xbbdb0206	-0.006683591
185	0x3d3cf54c	0.04613237
186	0xbcf4d7e9	-0.02988811
187	0xbb6998eb	-0.0035644125
188	0xbdd73d32	-0.10509719
189	0x3e7d5982	0.24741176
190	0xbc72d641	-0.01482159
191	0xbb39af4a	-0.002833324
192	0xbc8e0a2b	-0.017338833
193	0xbae843fa	-0.0017720454
194	0x3bccfebc	0.0062559526
195	0x3e1441dd	0.1447825
196	0x3d37d5f2	0.04488177
197	0xbc13d5f9	-0.009023183
198	0x3bab7947	0.0052329632
199	0x389cb0be	7.4715805e-05
200	0x3b7ca9eb	0.0038553427
201	0x3f56f5b7	0.8396868
202	0x3d0dc2ea	0.034609713
203	0xbd5d815a	-0.054078437
204	0x3c9746e2	0.018466417
205	0xbdbbe076	-0.09173672
206	0x3d803266	0.06259613
207	0x3bfa5424	0.007639425
208	0xbf595b1c	-0.84904647
209	0x3e9b1052	0.3028589
210	0x3d030734	0.03198929
211	0x3bc61808	0.006045345
212	0x3d13c8aa	0.03608004
213	0x3b807a57	0.003920834
214	0xbc5c8247	-0.013458795
215	0xbcdbf46b	-0.026849946
216	0xbdb4c875	-0.08827297
217	0x3c9a975c	0.018871002
218	0xbc39a18f	-0.0113300225
219	0xb923033a	-0.00015546093
220	0xb8c96b39	-9.604399e-05
221	0x3f05ce8f	0.5226831
222	0xba499f40	-0.00076912716
223	0x3a86191a	0.001023087
224	0xb93ab802	-0.0001780689
225	0xb9ee40be	-0.00045443134
226	0xba8c8027	-0.0010719345
227	0xb92a5f37	-0.00016247934
228	0xbf66fc2e	-0.90228546
229	0xbe03c402	-0.1286774
230	0xba6a7993	-0.00089445076
231	0xb8f191f7	-0.000115189636
232	0xb9b21cf7	-0.00033972386
233	0xb83dd4c6	-4.5259272e-05
234	0x39a4ea2c	0.0003145499
235	0x3a79ac48	0.0009524268
236	0xbb55a7af	-0.0032601168
237	0xb982ec58	-0.00024971622
238	0x39984e3a	0.00029049983
239	0x365e0e9c	3.3089082e-06
240	0xba081bb7	-0.0005192118
241	0x3f209919	0.6273361
242	0xbb915d9c	-0.004436208
243	0x3bee588e	0.00727374
244	0xba6d2556	-0.0009046396
245	0x3c1f4f2b	0.009723465
246	0xbc0bd333	-0.008534241
247	0xba88a717	-0.0010425773
248	0xbf0cd22b	-0.5500819
249	0x3ea551dd	0.3228902
250	0xbb9146c2	-0.004433484
251	0xba57c291	-0.0008230592
252	0xbb950db9	-0.004548755
253	0xb9fb6f01	-0.00047957155
254	0x3af09dac	0.0018357537
255	0x3c52dba0	0.0128697455

item_embedding.weight f4 [3019, 20]
0	0xb903389f	-0.00012514227
1	0xbee72073	-0.45141944
2	0xba8a0420	-0.0010529794
3	0x3adf8a55	0.0017054776
4	0xba233e87	-0.0006227274
5	0x3b5850cd	0.0033007145
6	0xbafaf114	-0.0019145333
7	0xb9709ec4	-0.00022947328
8	0xbc86509d	-0.016395861
9	0x3d591935	0.053002555
10	0xba75aa49	-0.0009371383
11	0xb9410d9f	-0.00018410989
12	0xba8e631f	-0.0010863281
13	0xb8f73059	-0.00011786883
14	0x39ce125f	0.0003930507
15	0xbca71abd	-0.020398492
16	0x3b69ea9e	0.0035692821
17	0xba1cd3aa	-0.0005982468
18	0x39b4edcd	0.0003450945
19	0x3690b6ce	4.3128157e-06
20	0xba15ccba	-0.00057144056
21	0xbea920fd	-0.3303298
22	0xbc258da8	-0.010104574
23	0x3c1dd40d	0.009633076
24	0xbb439591	-0.0029843787
25	0x3c45254f	0.012032821
26	0xbc395536	-0.01131182
27	0xba8df62c	-0.0010830811
28	0xbeb1a398	-0.34695125
29	0x3e87e38f	0.265408
30	0xbbb6b5ec	-0.005575886
31	0xba8d9035	-0.0010800423
32	0xbb8169c2	-0.003949375
33	0xba137f67	-0.00056265894
34	0x3b1bc8f1	0.0023770893
35	0x3cf91fe5	0.030410716
36	0x3c8a58be	0.016888019
37	0xbb8ed765	-0.004359173
38	0x3b18ee99	0.0023335575
39	0x3834a74c	4.307115e-05
40	0xb989562f	-0.00026194888
41	0xbf0addce	-0.542447
42	0xbb1effd9	-0.0024261384
43	0x3b6c9336	0.0036098487
44	0xbacf6844	-0.001582392
45	0x3bdf6ad0	0.006818153
46	0xbb890d51	-0.0041824956
47	0xba048029	-0.0005054498
48	0x3bc4e2ce	0.0060084825
49	0xbdbb81da	-0.091556266
50	0xbb0cd26d	-0.0021487728
51	0xb9d7c706	-0.0004115628
52	0xbb251e65	-0.0025195119
53	0xb98534df	-0.0002540713
54	0x3a750f35	0.00093482743
55	0x3d1b0dde	0.03785502
56	0x3bef2897	0.00729854
57	0xbab0ee23	-0.0013498705
58	0x3a463472	0.00075609155
59	0x37314549	1.0566154e-05
60	0x381f8876	3.8035643e-05
61	0x3c86337e	0.016381975
62	0x39931159	0.0002805095
63	0xba1ffa79	-0.0006102692
64	0x38c7aa35	9.520763e-05
65	0xb9b053d1	-0.00033631784
66	0x3a357d9a	0.0006923318
67	0x385a2fa4	5.201962e-05
68	0x3dbf3719	0.09336681
69	0x3dbe951f	0.09305786
70	0x399792a2	0.00028910214
71	0x3887ecda	6.481419e-05
72	0x3918794e	0.00014541039
73	0x381eef1a	3.7892816e-05
74	0xb940cc4c	-0.00018386653
75	0x3bfdb321	0.007742301
76	0x39c3c38f	0.00037339
77	0x38b4628b	8.601424e-05
78	0xb85ead58	-5.3090364e-05
79	0xb2d4b046	-2.4760208e-08
80	0xba1cbecf	-0.00059793604
81	0xbee22255	-0.44166818
82	0xbbb5b09c	-0.005544735
83	0x3c0a3918	0.008436464
84	0xbb34c16c	-0.0027581109
85	0x3c93ce78	0.018042788
86	0xbc1f09c6	-0.00970692
87	0xba973c8a	-0.0011538428
88	0xbe048d45	-0.12944515
89	0xbd709273	-0.058733415
90	0xbb9c6999	-0.0047733304
91	0xba773e6d	-0.00094316044
92	0xbbcded13	-0.006284365
93	0xba20655e	-0.00061186205
94	0x3b087367	0.0020820738
95	0x3c2ae4bf	0.010430514
96	0x3ca3a954	0.019978203
97	0xbb4e0f34	-0.0031442167
98	0x3adb771e	0.0016743874
99	0x37e79595	2.7607e-05
100	0x3a9b19aa	0.001183321
101	0xbca6d353	-0.02036444
102	0x3c32dfdf	0.010917633
103	0xbc887632	-0.016657922
104	0x3ba605ca	0.005066608
105	0xbd1270d0	-0.035752118
106	0x3ca250d9	0.019813942
107	0x3b1a2e6f	0.0023526212
108	0xbf5e669d	-0.86875325
109	0x3eff58d8	0.4987247
110	0x3c1fa11a	0.009742999
111	0x3af6e960	0.0018837862
112	0x3c45a787	0.012063867
113	0x3a9a2cd1	0.0011762624
114	0xbb88400e	-0.0041580265
115	0xbe3f84c5	-0.18702991
116	0xbd3b99cf	-0.04580098
117	0x3bcb3dc0	0.0062024295
118	0xbb620448	-0.0034487415
119	0xb851cade	-5.0018418e-05
120	0x399cb016	0.00029885833
121	0x3f193585	0.5984729
122	0x3b2c9e32	0.002633941
123	0xbb87045f	-0.004120394
124	0x3b05c6c8	0.0020412672
125	0xbbbdb09d	-0.005788876
126	0x3b92e2aa	0.004482587
127	0x3a184116	0.00058080384
128	0xbecdf47c	-0.4022559
129	0xbdaee61a	-0.08539982
130	0x3b22c521	0.0024836736
131	0x39f06eb6	0.00045858853
132	0x3b213079	0.0024595542
133	0x39a4be12	0.0003142213
134	0xba868df1	-0.001026569
135	0xbb8148fd	-0.0039454685
136	0xbbc69af7	-0.0060609537
137	0x3aad930a	0.0013242674
138	0xba647997	-0.0008715628
139	0xb76c8943	-1.4098655e-05
140	0x37a0fe87	1.919201e-05
141	0xbe18386a	-0.1486527
142	0x394c9450	0.00019510207
143	0xb96d4432	-0.00022627486
144	0x39d08fe5	0.0003978006
145	0x39ce4c85	0.00039348393
146	0x39bf5178	0.00036491058
147	0x388d0de9	6.725995e-05
148	0xbdfda206	-0.12384419
149	0x3d091e64	0.03347625
150	0x39588de7	0.00020652228
151	0x37fde351	3.0265803e-05
152	0x3856cedd	5.1214232e-05
153	0x39227fa7	0.00015497078
154	0xb84a501a	-4.8235153e-05
155	0x3c13c5e1	0.009019346
156	0xb909395f	-0.0001308671
157	0x32d107ee	2.4334408e-08
158	0x38ffc8b0	0.000121967285
159	0xb80891b8	-3.2560638e-05
160	0xbae479d0	-0.0017431322
161	0xbe8b6189	-0.2722285
162	0xbc84719e	-0.016167458
163	0x3cc87203	0.024468428
164	0xbc0b9fc0	-0.008521974
165	0x3d3edff6	0.046600305
166	0xbce9a534	-0.028521158
167	0xbb619cc5	-0.0034425717
168	0x3ead09d0	0.3379655
169	0x3d7bd2ca	0.06148032
170	0xbc6a669d	-0.0143066915
171	0xbb32c0fc	-0.0027275672
172	0xbc8ec658	-0.017428562
173	0xbae7ada5	-0.0017675651
174	0x3bc9f2cb	0.0061629764
175	0x3d699a72	0.057032056
176	0x3d58eaec	0.052958414
177	0xbc111b51	-0.00885661
178	0x3ba9863c	0.0051734727
179	0x389a4a32	7.357112e-05
180	0xb7e44c41	-2.7215227e-05
181	0xbb249bf4	-0.002511737
182	0xb90a2399	-0.00013173967
183	0x39be5fe7	0.00036311077
184	0xba200465	-0.00061041705
185	0x3a98ddf2	0.0011662825
186	0xba0eecae	-0.0005452138
187	0xb8bc32ae	-8.9739784e-05
188	0xbe978c7e	-0.29599375
189	0x3ec1d6fc	0.37859333
190	0xb99620da	-0.00028634706
191	0xb8696cea	-5.5652963e-05
192	0xba0e4efc	-0.00054286397
193	0xb84d615d	-4.8966485e-05
194	0x38b336f8	8.545624e-05
195	0x3b4c474e	0.003117043
196	0x3a9e4fcd	0.0012078226
197	0xb96f9dd0	-0.00022851606
198	0x38e324ea	0.00010831079
199	0x36835947	3.9144975e-06
200	0xb91a89d8	-0.00014737935
201	0xbe856d4a	-0.26059943
202	0xbaa7b830	-0.0012795981
203	0x3b0054b4	0.0019581737
204	0xba4e560a	-0.0007871097
205	0x3ba2dae3	0.004969941
206	0xbb1bf5ef	-0.002379771
207	0xb99489dc	-0.00028331473
208	0xbdb1c34a	-0.086798266
209	0xbdac9a00	-0.08427811
210	0xba98860f	-0.0011636632
211	0xb95e37f6	-0.00021192417
212	0xbad4fcff	-0.0016249715
213	0x39bffaf8	0.00036617345
214	0x3a03e010	0.00050306413
215	0x3b4fccce	0.0031707766
216	0x3bb92754	0.00565044
217	0xba4543a0	-0.00075250305
218	0x39dcde8e	0.00042127486
219	0x364143e4	2.8798759e-06
220	0xba5d5dbb	-0.0008444448
221	0xbe1563ef	-0.14588903
222	0xbbf5c1e3	-0.0074999197
223	0x3c41313e	0.011791525
224	0xbb867519	-0.0041033146
225	0x3cac16c1	0.021006944
226	0xbc61b7c5	-0.013776724
227	0xbadb7133	-0.001674211
228	0x3dff25d5	0.12458388
229	0x3e640a36	0.2226952
230	0xbbe604d2	-0.0070196176
231	0xbac587f7	-0.0015070428
232	0xbc02d798	-0.007985972
233	0xba64bf2b	-0.0008725996
234	0x3b419f8f	0.0029544567
235	0x3d5d6673	0.05405278
236	0x3cb370aa	0.021904308
237	0xbb88b724	-0.0041722227
238	0x3b213c26	0.0024602502
239	0x380fd9c3	3.4296663e-05
240	0x3951e4e7	0.00020017066
241	0xbefafcc5	-0.49020973
242	0x3afe7cbc	0.0019415836
243	0xbb3931a6	-0.0028258353
244	0x3a0736eb	0.0005158025
245	0xbba408e0	-0.005005941
246	0x3b5f784d	0.0034098804
247	0x39cdd8bc	0.00039262127
248	0x3e856dd5	0.26060358
249	0xbdf00198	-0.11719054
250	0x3ae24a74	0.001726462
251	0x39a5d208	0.00031627738
252	0x3af840f4	0.0018940256
253	0x394808ea	0.00019076807
254	0xba3a1634	-0.00070986454
255	0x3c3571fe	0.011074541

linear_att_out.weight f4 [1, 40]
0	0x3c150a04	0.009096626
1	0x3ea88163	0.32911214
2	0x3da86ea4	0.08224228
3	0xbe027937	-0.12741552
4	0x3d2e25b1	0.042516414
5	0xbe60d276	-0.21955284
6	0x3e17b68b	0.14815728
7	0x3c933080	0.017967463
8	0xbdfbc255	-0.12292925
9	0xbe7cf385	-0.2470227
10	0x3d9a85ec	0.07545075
11	0x3c69f049	0.01427848
12	0x3daf7e55	0.08569018
13	0x3c16c354	0.009201843
14	0xbd022cb5	-0.031780917
15	0xbd421f0c	-0.04739289
16	0xbe5798be	-0.2105436
17	0x3d37bb55	0.044856388
18	0xbcd9d1f3	-0.02658937
19	0xb9c27781	-0.000370916
20	0x38bc2350	8.971116e-05
21	0x3d9926e8	0.07478124
22	0x3a54693e	0.00081028405
23	0xbaa1c370	-0.001234157
24	0x3d8f546a	0.069985226
25	0xbb0b7d1f	-0.0021284295
26	0xbc1ed905	-0.009695296
27	0x3931926f	0.00016934586
28	0xbcc46fe5	-0.023979137
29	0xbd56d218	-0.052446455
30	0x3a3d5bec	0.0007223475
31	0x390c4a45	0.00013379108
32	0x3a53a8e7	0.00080741796
33	0x3b30b2d5	0.002696206
34	0xb9a45046	-0.00031340326
35	0xbb11cb8f	-0.0022246575
36	0xbd7621a6	-0.060090683
37	0x39e6d9d4	0.00044031313
38	0xb985f2c0	-0.000255486
39	0xb66ccbf8	-3.5285466e-06

linear_trans_neigh.weight f4 [20, 20]
0	0x3e0abe3e	0.13549134
1	0x40c969d2	6.2941675
2	0x3deac179	0.11462683
3	0x3d857713	0.06516852
4	0x3d4a2742	0.049353845
5	0x3f59449d	0.8487032
6	0x3ea34a02	0.318924
7	0x3e3645bd	0.1780004
8	0x40e5200d	7.1601624
9	0x40b2cae4	5.587267
10	0x3d6eb1a9	0.0582749
11	0x3e09c2c2	0.134532
12	0x3f1698f0	0.58827114
13	0x3defb8d7	0.11705177
14	0x3dddcf1f	0.10830521
15	0x3ff4d29b	1.9126772
16	0x3fa6135a	1.2974656
17	0x3ee22a62	0.4417296
18	0x3db9e466	0.09076767
19	0x3e3aeda1	0.1825471
20	0x3dc156cf	0.094403856
21	0x40c12585	6.03583
22	0x3e54cc94	0.20781165
23	0x3e4ef3d4	0.202102
24	0x3d5e0d45	0.054211874
25	0x3f6c5f53	0.92332953
26	0x3e52d686	0.20589647
27	0x3e4645a3	0.19362502
28	0x40d80215	6.750254
29	0x40b6819e	5.7033224
30	0x3d7068c0	0.058693647
31	0x3e1a5a30	0.15073466
32	0x3f1821e2	0.594267
33	0x3e15e9fd	0.1464004
34	0x3e1d925d	0.15387864
35	0x4001bd00	2.0271606
36	0x3f972149	1.1807033
37	0x3ebbbad4	0.36665976
38	0x3d473ee3	0.048643958
39	0x3e8e9d90	0.27854586
40	0x3e2ef979	0.17087354
41	0x40cb82b2	6.359704
42	0x3e3bbf5b	0.18334715
43	0x3dfc07b8	0.1230616
44	0x3d442601	0.047887806
45	0x3f37ff47	0.718739
46	0x3eb47fff	0.35253903
47	0x3e231899	0.15927352
48	0x40e4e399	7.152783
49	0x40b89b57	5.7689624
50	0x3d7a674a	0.06113366
51	0x3e554c39	0.20829858
52	0x3e5c3d58	0.21507776
53	0x3dc296d2	0.09501423
54	0x3e4d9309	0.2007562
55	0x4000f021	2.0146563
56	0x3fb12e84	1.384232
57	0x3ef29d99	0.47385862
58	0x3e66b345	0.22529323
59	0x3e752e69	0.23943485
60	0x3e0134c5	0.12617786
61	0x40c8a497	6.2700915
62	0x3e309c40	0.17247105
63	0x3e2c0c11	0.16801478
64	0x3d4cb3ba	0.049976088
65	0x3f3db1af	0.7409925
66	0x3e927915	0.28608003
67	0xbd2307cf	-0.03980237
68	0x40d95f49	6.7928815
69	0x40b53cd6	5.6636763
70	0x3d097c1d	0.03356563
71	0x3e4386fa	0.19094458
72	0x3f030609	0.51181084
73	0x3d0d8def	0.034559187
74	0x3e120dc8	0.1426307
75	0x3fe754e3	1.807278
76	0x3fb0a218	1.3799467
77	0x3ebbdaf4	0.36690485
78	0x3d14c142	0.036317118
79	0x3e7352ab	0.23762004
80	0x3de038ce	0.10948335
81	0x40cc1408	6.377445
82	0x3e65c546	0.22438535
83	0x3e133ea1	0.1437936
84	0x3d6d65b2	0.057958312
85	0x3f36640c	0.7124641
86	0x3e7323a4	0.23744065
87	0x3e233016	0.15936312
88	0x40d5f7d8	6.6865044
89	0x40b378c0	5.60849
90	0x3dad441b	0.08460256
91	0x3df47151	0.11935676
92	0x3ee6aada	0.45052224
93	0x3d9ea927	0.07747107
94	0x3e7b4dc2	0.24541381
95	0x3ff188f2	1.8869917
96	0x3fb21f68	1.3915834
97	0x3ee8cd6a	0.45469218
98	0x3e2ebdef	0.17064641
99	0x3ed6aa9f	0.4192705
100	0xbc1b60dd	-0.009483543
101	0x40caa762	6.3329325
102	0x3e89a379	0.26882532
103	0x3e5e2c87	0.21696673
104	0x3d1a66d2	0.037695713
105	0x3f480f4c	0.7814834
106	0x3e56cae9	0.20975842
107	0x3df63b20	0.12022996
108	0x40d7aa4c	6.739538
109	0x40befdaa	5.968465
110	0x3d82d267	0.06387787
111	0x3d5d9ac9	0.054102693
112	0x3f118356	0.5684103
113	0x3dd82e4e	0.10555707
114	0x3c897082	0.01677728
115	0x3ff13fdb	1.8847612
116	0x3f904c07	1.1273202
117	0x3ecc2cb2	0.3987785
118	0x3daadba1	0.08342672
119	0x3e9b7fe5	0.30371013
120	0x3d999571	0.07499207
121	0x40d08bc3	6.5170608
122	0x3e7f8b71	0.24955536
123	0x3e476242	0.19471076
124	0x3d508823	0.05091108
125	0x3f3787cd	0.7169159
126	0x3e7ef258	0.24897134
127	0x3e66c3f5	0.22535689
128	0x40c8faf5	6.2806344
129	0x40b39aef	5.612663
130	0x3daa7707	0.08323484
131	0x3e418241	0.18897344
132	0x3f0dd81f	0.554079
133	0x3d73fee5	0.05956926
134	0x3e916e73	0.2840458
135	0x400301a5	2.0469754
136	0x3fa58a23	1.2932781
137	0x3ee8dac3	0.45479402
138	0x3dfc265b	0.12312003
139	0x3eb8ba8a	0.36079818
140	0x3d00e78a	0.031470813
141	0x40c8bbbe	6.2729177
142	0x3e85aa58	0.26106524
143	0x3e0fe7ab	0.14053218
144	0x3d4ccf7f	0.05000257
145	0x3f655ea8	0.8959756
146	0x3e9d7d5f	0.30759713
147	0x3ea45ab5	0.32100454
148	0x40d6ab55	6.7084146
149	0x40b393e9	5.6118054
150	0x3d5d4b0b	0.054026645
151	0x3e7fcc44	0.24980265
152	0x3eea957e	0.45817178
153	0x3d5a7419	0.053333376
154	0x3e251482	0.16121104
155	0x3ff1a2eb	1.8877844
156	0x3f8dde7e	1.1083524
157	0x3ea72477	0.32645008
158	0x3a5de30d	0.0008464314
159	0x3eea76d2	0.45793778
160	0x3e1ac0aa	0.15112558
161	0x40cd8a1e	6.42311
162	0x3e6c338e	0.23066542
163	0x3e63c604	0.22243506
164	0x3d106980	0.035256863
165	0x3f08c30a	0.53422606
166	0x3eac7255	0.33680978
167	0x3e5f3fc7	0.21801673
168	0x40d9c244	6.804964
169	0x40af7c27	5.4839053
170	0x3ce43eb1	0.027861925
171	0x3e240004	0.16015631
172	0x3f16c631	0.58896166
173	0x3dc09c0a	0.09404762
174	0x3e3fd1f1	0.1873243
175	0x3ff9e498	1.9522886
176	0x3f879940	1.0593643
177	0x3ee22b59	0.44173697
178	0x3d0fee31	0.035139266
179	0x3e9942ad	0.29933682
180	0x3e04b696	0.12960276
181	0x40cb5d8b	6.355169
182	0x3e7e0d09	0.2480966
183	0x3e126745	0.14297207
184	0x3d4a182d	0.049339462
185	0x3f3ab780	0.7293625
186	0x3e67cfdc	0.22637886
187	0x3e18a345	0.14906032
188	0x40d506d4	6.6570835
189	0x40b92c13	5.78663
190	0x3d60417e	0.05474996
191	0x3e7166c2	0.23574355
192	0x3ed6d25b	0.41957363
193	0x3d4fd621	0.05074132
194	0x3d71174a	0.0588601
195	0x3ffc3c7a	1.9705956
196	0x3f8410a7	1.0317582
197	0x3f114ada	0.5675484
198	0x3e19a342	0.15003684
199	0x3e88d2e6	0.26723403
200	0x3e4dc694	0.20095283
201	0x40cb2454	6.3481846
202	0x3e2c66be	0.16836068
203	0x3e8f8902	0.28034216
204	0x3d4c9369	0.04994527
205	0x3f4a4446	0.79010427
206	0x3e866316	0.26247472
207	0x3dfe5e84	0.12420371
208	0x40d754dc	6.729109
209	0x40ab6693	5.3562713
210	0x3da0e9ef	0.07857119
211	0x3ddbbba8	0.10729152
212	0x3eac0915	0.3360068
213	0x3ddde6c1	0.108350284
214	0x3e496cc0	0.19670391
215	0x3fff11ee	1.9927347
216	0x3f9a9608	1.2077036
217	0x3e44e9ba	0.19229785
218	0x3df864cf	0.12128603
219	0x3ea670b6	0.32507867
220	0x3df1361b	0.11777898
221	0x40c8105f	6.2519984
222	0x3e5552c4	0.20832354
223	0x3dfb6bd8	0.12276429
224	0x3ce73be8	0.028226808
225	0x3f5e854b	0.8692214
226	0x3eb15af3	0.346397
227	0x3e18f510	0.14937234
228	0x40defda0	6.96846
229	0x40b19196	5.5490217
230	0x3da4604c	0.0802618
231	0x3e543f2e	0.20727226
232	0x3ecc0692	0.39848763
233	0xbbc2fcd4	-0.0059505496
234	0x3e14ffd8	0.14550722
235	0x4005d620	2.0911942
236	0x3faafc9f	1.3358344
237	0x3ea17cab	0.31540427
238	0x3d95056e	0.07276426
239	0x3f07c986	0.53041875
240	0x3e258183	0.16162686
241	0x40c90919	6.2823606
242	0x3e5c86fc	0.21535867
243	0x3e1fae0b	0.15593736
244	0x3d4b6612	0.04965789
245	0x3f55fb06	0.83586156
246	0x3e83cf87	0.25744268
247	0x3e212f6d	0.15740748
248	0x40d97c75	6.7964425
249	0x40b16fb4	5.5448856
250	0x3cabdfcb	0.020980736
251	0x3e7f1439	0.24910058
252	0x3eebbad8	0.46040988
253	0x3dc0a990	0.094073415
254	0x3e19292b	0.1495711
255	0x3feb2e79	1.8373557
