best_para_path/ciao100.10.20.70.250.251.010.00.5_p10_20gatv2_spill_var2_explicit_seed0_ex1_0.1_1e-05_0.001_0.01_0.005_0.0001.pt (torch, 449539 bytes, 4 tensors)

user_embedding.weight f4 [2541, 20]
000000 e9 2c 97 3e 12 e3 92 3f 6c e5 c3 3e 4b 2b e4 bf
       0.2952645 1.1475546 0.38260972 -1.7825712
000010 c7 d0 67 be 6d f9 c6 be 31 b3 11 3f 49 e3 87 3e
       -0.22638236 -0.38862172 0.5691405 0.26540592
000020 bf 73 1c be 97 26 1a bf 6a 7f 44 3e 0f 13 27 bd
       -0.15278529 -0.60215133 0.1918923 -0.04078966
000030 bd 42 9c bd 6e b7 7d 3d 77 89 00 bf 39 ae 12 3f
       -0.07629917 0.06194251 -0.50209755 0.5729709
000040 85 8b bd 3f f9 d6 03 c0 9b bd 8f bd 8f 82 d6 3e
       1.4808203 -2.059996 -0.07018586 0.41896483
000050 23 f6 c6 be 96 8a a3 3e 44 95 39 3e d5 72 4b be
       -0.38859662 0.3194167 0.18123347 -0.19868024
000060 41 19 a9 3f d7 ab 01 bf 93 bb cd be 8f 8b f8 3c
       1.3210832 -0.5065283 -0.4018217 0.030339984
000070 b5 48 48 3e aa bb a3 3e 10 dc ea bb 9b 15 c6 be
       0.19558986 0.31979114 -0.007167347 -0.3868836
000080 0b 51 02 bf 9e 81 1d bf 8e 69 58 3e fc 3d 9a 3e
       -0.5090491 -0.61525905 0.21134016 0.30125415
000090 47 af d7 be 7f 60 07 c0 32 42 c6 3e 13 5c f3 3e
       -0.42125914 -2.1152647 0.38722378 0.47531185
0000a0 b7 a7 9c be ba 29 01 bc 77 cc ed 3e 5c 9a 8b 3e
       -0.30596706 -0.007883484 0.46445057 0.27266204
0000b0 92 8f 27 3e 0d 94 0f 3f 8c 56 a1 3d d0 01 02 3f
       0.16363361 0.5608528 0.07877836 0.50784016
0000c0 12 29 ef be d6 f2 46 bf 06 e3 c6 bd 7f 89 f0 3d
       -0.46711022 -0.7771429 -0.0971127 0.11744975
0000d0 1a f6 c7 3e a3 65 89 3e b6 17 dc be 37 33 7a 3f
       0.39054948 0.26835355 -0.4298684 0.977344
0000e0 a9 f5 bd be d3 0f be bf 4a 89 9b 3c 30 40 89 3e
       -0.37101486 -1.4848579 0.018986363 0.26806784
0000f0 24 66 26 be 75 2e 10 3e 61 da 8f be 52 03 51 bf
       -0.16249901 0.14080222 -0.28096297 -0.8164569
000100 62 8f 27 bf 36 0a 19 3f 21 d3 da 3d 67 dc 88 3d
       -0.6545316 0.59781206 0.10684801 0.066826634
000110 fe 04 80 be 7f 75 56 bc ae 8b e8 3d d9 48 92 3e
       -0.2500381 -0.013089537 0.11354767 0.28571203
000120 e0 bf 63 3e 4b 97 5c 3d f9 47 43 be 19 e7 ff 3d
       0.22241163 0.05385522 -0.19070424 0.1249525
000130 5e 72 e1 3e c6 1e c2 bf 5b 30 9f 3e 51 4f 9b be
       0.44032568 -1.5165641 0.3109158 -0.3033395
000140 45 9a 0c bf 5f b9 bd bd 08 a9 a2 3d 2a 61 a6 3d
       -0.54922897 -0.09263872 0.079423964 0.08124001
000150 ba 98 4d 3e 2c a1 e3 3e 37 12 30 bf 4a 40 32 3b
       0.20077792 0.44458902 -0.68777794 0.0027198964
000160 23 a6 1b 3f c5 77 90 bf 68 82 50 be 40 f2 11 bf
       0.6080038 -1.1286551 -0.20362246 -0.5701027
000170 5c 38 d6 3e cf de b5 bd 14 41 47 3e 3b f5 0a 3f
       0.41839874 -0.08880388 0.19458419 0.5428044
000180 cb 0c 66 bf 79 2c 84 be 5c dd 45 bf 80 f5 71 3f
       -0.8986327 -0.2581518 -0.7729089 0.9451523
000190 86 87 6c be df 96 11 ba a3 08 52 3c 27 ec b2 be
       -0.23098573 -0.00055537926 0.012819442 -0.34945795
0001a0 73 e7 64 be a4 d7 b5 3d af 85 3b bf 81 f2 5a 3f
       -0.22353916 0.08879021 -0.7325086 0.8552628
0001b0 67 75 14 bf 72 6c 64 bf 9d 7a 15 3e 2b 8e e2 bc
       -0.5799164 -0.89227974 0.14597555 -0.027655682
0001c0 63 e2 83 3f 49 f6 0d 3f 09 b5 cd 3e 8c bf c3 3e
       1.0303463 0.55453926 0.4017718 0.38232076
0001d0 fe 30 03 3f 2b b5 ab bf f5 7f e2 3d 1f ad e1 be
       0.5124663 -1.3414663 0.11059562 -0.44077393
0001e0 c4 0f cf bd c6 8f 33 3e 3e cc 7b 3e 72 ad 70 3e
       -0.10110429 0.17535314 0.24589631 0.23503664
0001f0 5a f1 e1 3f a1 15 87 3e 06 6f d2 be 8a 0c e6 3d
       1.765178 0.2638369 -0.4110033 0.112328604
000200 04 1f be bd d2 ae a9 be 39 81 e7 bd f8 1d 97 bd
       -0.092832595 -0.3314119 -0.11303944 -0.07378763
000210 81 8a c8 3e 72 a8 20 3d 0c ca 04 bf 17 cb 4d 3e
       0.3916817 0.039223142 -0.518708 0.20097004
000220 3e 09 92 3d 9a b6 82 bf 34 9d bc bd 0f d6 7f 3e
       0.07130669 -1.0211976 -0.092096716 0.24984
000230 f3 48 2d 3a 4a ff 4d 3d 21 2b a1 be f1 6d 2f 3e
       0.00066102966 0.05029229 -0.31478217 0.17131783
000240 4c 27 a6 3e 93 91 96 3e f7 a1 ba be fb c2 89 be
       0.32451856 0.2940794 -0.36451694 -0.2690657
000250 c5 90 81 3e ad ce e4 3d fb 95 88 bd 86 8a e8 be
       0.25305763 0.11172233 -0.066692315 -0.45418185
000260 9a fc ec 3e 79 f5 23 be 60 1e 58 bf 28 81 9c 3f
       0.4628647 -0.16011609 -0.8442135 1.2226915
000270 d5 67 4a bf a2 55 66 bf db 64 a2 be 57 72 89 3e
       -0.79064685 -0.89974415 -0.31717572 0.26845047
000280 30 c6 6f bf b3 f8 9c 3f 44 66 6f 3f be 2d 7a bf
       -0.93661785 1.2263397 0.9351542 -0.9772605
000290 b6 65 ac bf 60 09 ca 3e f9 c9 1a be 15 08 a9 3e
       -1.346854 0.39460278 -0.15116109 0.3301398
0002a0 03 3a f6 be 09 14 ad bd 64 6a 97 3e 8b 1c c8 be
       -0.48091134 -0.08451087 0.29573357 -0.39084277
0002b0 60 85 2b 3f 65 e1 51 be 30 c8 02 3f 34 c3 73 be
       0.6700039 -0.20496137 0.5108671 -0.23804933
0002c0 13 f5 27 c0 2e 10 73 3e f9 e5 78 3e 6b 45 f5 bd
       -2.6243331 0.23736641 0.24306478 -0.11976131
0002d0 0c 32 58 bf d9 e1 d9 be 17 42 3b 3f 59 96 15 bf
       -0.84451365 -0.4255512 0.7314772 -0.5843254
0002e0 bd a5 9c bf 9f e9 02 3f 2f 36 45 bd 90 d4 09 3f
       -1.2238079 0.5113773 -0.048147377 0.5383997
0002f0 bf f1 60 3e ea c3 55 3e 21 9f 8e 3f 57 6b 16 3f
       0.21967219 0.20875517 1.1142312 0.5875754
000300 70 3e aa 3d fc 9f 48 3f b1 0c 92 be b4 36 e9 3f
       0.0831269 0.78369117 -0.28525308 1.8219819
000310 5b 24 cb bf e4 32 66 bf 7b d4 d9 be ae 61 bd be
       -1.587047 -0.899214 -0.42544922 -0.36988586
000320 95 fa 82 3e 58 2a 2c bf 0a a6 1d 3d 9a ea 94 bd
       0.25581804 -0.6725211 0.038488425 -0.07271309
000330 ec 8c 3e 3d 8a 61 ed be 97 fa 0f 3f 94 bb de be
       0.046521112 -0.4636348 0.56241745 -0.43502486
000340 33 65 8d 3f ad 20 dc 3e 4f a0 63 3f cc 6f 16 3f
       1.1046509 0.4299368 0.88916487 0.5876434
000350 88 ac 42 be 66 d0 50 bf 9d 55 95 bc 07 19 7e 3f
       -0.19011128 -0.8156799 -0.0182293 0.9925694
000360 5c 68 b6 3e 14 84 d4 bf c1 cc b6 3e ac 02 9b 3e
       0.35626495 -1.6602807 0.3570309 0.30275476
000370 ad 01 75 3f 45 bb 9d 3b d4 c6 4e be f5 13 a8 3e
       0.9570568 0.004813584 -0.20193034 0.32827726
000380 20 3f d4 3e 6b 6b a8 be ca eb 1f 3e 2a 2f 76 3f
       0.4145441 -0.32894453 0.1561729 0.96165717
000390 9c b8 18 3f f6 cd a1 be ae 35 6e 3e ff c5 0e be
       0.5965669 -0.31602448 0.23262665 -0.13942717
0003a0 fa 89 b5 3e 13 5d 98 bd c0 2f a1 3f 55 fe 79 3f
       0.3545683 -0.074396275 1.2592697 0.97653705
0003b0 1a f7 62 be 21 ba bb bf 5e 6f 82 be 37 32 f4 bd
       -0.22164574 -1.4666177 -0.2547559 -0.1192364
0003c0 3d 28 17 be b9 ad 64 be 90 59 9b 3d dd f2 7c 3d
       -0.14761443 -0.22331895 0.07585442 0.06175505
0003d0 f7 f3 f0 3d bb fc b4 3e 27 fe c7 be d4 42 b0 bc
       0.117652826 0.35349068 -0.3906109 -0.021516241
0003e0 39 a2 fd bb 64 68 63 bd 37 ad 9e 3e 6e c6 7a 3d
       -0.0077402857 -0.055519477 0.30991527 0.061224394
0003f0 99 f5 7d be 9e 3a 1e 3e 45 e7 80 be f4 90 4e 3f
       -0.2480072 0.15452048 -0.25176445 0.8068993

item_embedding.weight f4 [3019, 20]
000000 e4 21 89 bb 5d cd 5e bb 7f 65 14 be 5e a8 3e 3e
       -0.0041849483 -0.0033996918 -0.14491843 0.18618914
000010 be 51 a1 be 31 02 2c 3e 56 78 e8 bd 29 3c 65 3e
       -0.31507677 0.16797711 -0.11351077 0.2238623
000020 4d b9 5c be cd fe de bc 22 d7 95 bc 66 53 23 bd
       -0.21555062 -0.027221108 -0.01829106 -0.039874457
000030 eb ce 4d 3d ec 9d 20 3d 36 70 9b 3e de bc ed be
       0.05024616 0.039213106 0.30359048 -0.46433157
000040 95 70 5c 3f d7 74 ad 3e b4 c8 bc 3d 4d 75 5d 3d
       0.86109287 0.33878204 0.092179686 0.054066945
000050 70 36 1a be af 3d 9d bd a3 25 25 be 3a af eb 3d
       -0.15059829 -0.07677781 -0.16127639 0.11508031
000060 63 8a 83 be b2 04 99 bd 1b 70 3a bd 17 0d 3f 3d
       -0.25691518 -0.07471599 -0.04551707 0.046643343
000070 2d 5a 78 be 55 23 df bd 99 69 58 bd 0d 2f 02 3e
       -0.2425315 -0.10895411 -0.05283508 0.12713261
000080 21 66 86 be 52 21 8e 3d 4a a2 14 bd a8 49 d9 3e
       -0.26249793 0.06939949 -0.036287583 0.42439008
000090 d5 e0 96 3f 39 b8 a6 bd 95 81 dd 3d 78 2a 82 3e
       1.1787363 -0.081406064 0.108157314 0.25423026
0000a0 db 23 03 38 ef 6c 55 3d 28 64 72 bd ff 85 99 be
       3.1266227e-05 0.05210584 -0.059177548 -0.29985043
0000b0 30 1c 41 3e 14 48 1d 3e ef ec ca ba 82 d2 8b 3e
       0.18858409 0.15359527 -0.0015481989 0.27309042
0000c0 3e 7c 2d 3d c4 6e ea bd 62 66 83 bd c8 72 8b bc
       0.042354815 -0.11446908 -0.06416012 -0.017022505
0000d0 c5 44 5e 3d 83 08 0f be e5 d7 80 3c dc ff 09 bf
       0.054264802 -0.1396809 0.015727947 -0.53906035
0000e0 27 8e 66 3f 0c 40 e1 3e ea 6e dc 3c 00 43 9c 3c
       0.9006066 0.43994176 0.026908357 0.019074917
0000f0 b3 8e a1 3e 7d a6 36 3e 4e eb 29 bd 00 76 4d bd
       0.31554183 0.17836948 -0.04148417 -0.05016136
000100 7e 92 54 3e fb 65 20 3d dc 50 7a be 55 ad 1e be
       0.20759007 0.039159756 -0.24444908 -0.15495808
000110 13 dc fd be 80 4b 14 be 56 dc 02 be 7e 8a a8 be
       -0.49581966 -0.14481926 -0.12779364 -0.3291816
000120 73 71 45 3d 60 42 cb 3d f7 c4 6b be 69 4c a9 3e
       0.048203897 0.099247694 -0.23024355 0.3306611
000130 3f 98 a2 be 3b c2 09 3f 04 e9 19 3e c2 3d d7 bd
       -0.3175678 0.53812 0.15030295 -0.10509826
000140 c5 f4 a0 3d 3c 87 87 bd 57 e2 16 3d d0 8d e6 bd
       0.07859186 -0.06617591 0.03683695 -0.11257517
000150 ce 15 d8 3a 0b af 46 3e 5a 32 c0 3d 62 10 9f 3d
       0.001648599 0.19402711 0.09384604 0.07766797
000160 4c 49 1a ba 84 da c5 3c 29 cd 79 be c3 f8 0d bd
       -0.0005885556 0.024152048 -0.24394669 -0.034661066
000170 a6 c0 0c 3e 20 76 0c bd 58 38 10 3d 33 72 f7 be
       0.13745365 -0.03429234 0.035209984 -0.48329315
000180 48 eb 5d 3f 4d 89 02 3d bb c3 35 be e0 15 a1 3c
       0.86687136 0.03186922 -0.17750446 0.019663751
000190 b6 f0 04 be 29 f9 8f 3e 1f 12 3d 3f e8 2f 0f be
       -0.12982449 0.28119782 0.73855776 -0.13983119
0001a0 2e 1c 9d bd 4c 2e b7 be 4f 48 fa bd 71 24 a5 3e
       -0.076713905 -0.3577751 -0.12220823 0.32254365
0001b0 b6 ed ad 3d 3e 2e 72 3f cd db ea 3e 73 95 3f 3e
       0.084926054 0.9460181 0.4587082 0.18709354
0001c0 a6 b9 88 3f bb c1 70 3f e9 1a 97 3e b6 98 8c 3f
       1.0681655 0.9404561 0.29512718 1.0984104
0001d0 c1 21 7a 3f 8e ce 9e bf c3 90 98 be ba 1a 8d 3c
       0.97707754 -1.2406785 -0.29797944 0.017224658
0001e0 1b 2d 8a 3d 33 3c b5 3c 0e 0b 86 be 95 78 b9 be
       0.067468844 0.022123432 -0.2618031 -0.3622481
0001f0 7d e1 50 3e 12 19 3e bd c8 8b 31 bf 9d ee 81 3d
       0.20398517 -0.046410628 -0.69353914 0.0634434
000200 41 ea 14 3f aa ef 24 39 bf 2f 96 3d 79 3a 83 bd
       0.58169943 0.0001572954 0.073333256 -0.06407637
000210 68 6b 0f 3e 34 86 d0 3d 12 de fa 3e 00 4b 84 3f
       0.14005816 0.10181847 0.4899755 1.0335388
000220 14 71 cd be c0 27 a1 bf f2 99 70 be 01 35 95 3d
       -0.40125334 -1.2590256 -0.23496225 0.072855
000230 3d 5b ba bd c7 b4 1f 3d c6 19 71 be 9c 57 96 3d
       -0.090994336 0.038990762 -0.23544988 0.07340929
000240 6a b3 80 3e b0 a4 4e be a7 6a ac bd 98 55 f0 3e
       0.25136882 -0.20180011 -0.0841878 0.46940303
000250 59 9c de bd ff ae 06 be 9b 30 13 3d ec 6b 29 be
       -0.10869665 -0.13152693 0.035935026 -0.16545075
000260 61 75 59 be ad 5f 62 3e 03 df 68 be 3b 76 09 be
       -0.21236183 0.2210681 -0.22741322 -0.13424008
000270 6e 9a 22 3f 46 cf c9 be 4a 3f 84 bd 2e d3 54 be
       0.6351689 -0.3941595 -0.06457384 -0.20783684
000280 fb 67 06 3e 0e ad 03 be cb 92 ad 3d 9e c1 99 3e
       0.13125603 -0.12858984 0.08475264 0.3003053
000290 6d 5c 54 3e 0c eb 8e 3e f5 e6 9f bd 81 70 6f 3b
       0.20738383 0.27913702 -0.078077234 0.0036535563
0002a0 54 a2 f1 3c d1 2e d0 3c 60 0b cf 3d 2b b4 4a 3d
       0.02949635 0.025412949 0.101095915 0.049488228
0002b0 26 d6 d3 be 6e b3 ea bd 03 96 0a bb 72 8b 6f be
       -0.4137432 -0.11460005 -0.0021146543 -0.23393038
0002c0 6a 1c ee 3e f0 2c 5a 3f 9b de bc 3b 7f dc 2d be
       0.46506053 0.8522482 0.0057638413 -0.16978644
0002d0 4f 91 d6 bd d7 11 24 3a 13 65 38 be f2 28 59 3e
       -0.10476934 0.0006258762 -0.18007307 0.21207026
0002e0 39 53 13 be 08 74 d8 3d 3f 76 26 3e bd 52 aa bc
       -0.14387216 0.10569006 0.16256045 -0.020791406
0002f0 64 59 be 3d 3d 12 c0 bd 88 eb 00 bd 1e e4 20 be
       0.09294394 -0.09378479 -0.03147462 -0.1571202
000300 17 d2 e9 bd a0 68 5c 3d 8c 28 99 bd a9 6e 74 3f
       -0.114170246 0.053810716 -0.07478437 0.95481354
000310 1d 3c c2 3e 1f 88 8a bc 01 54 1a bd be 75 2c 3d
       0.37936488 -0.01691061 -0.03767777 0.042104475
000320 c6 fe f0 bd 0d a4 aa bd 69 4f 0f bd 29 0d 06 3f
       -0.11767344 -0.083320715 -0.03498784 0.5236383
000330 32 31 3c be 70 49 d9 3d 91 6e 04 3d 71 00 a0 be
       -0.18378142 0.1060971 0.032332007 -0.31250337
000340 59 cb df 3c 0b 7f 1c be 21 65 96 3e 4c 68 9f 3d
       0.027318643 -0.15282838 0.2937403 0.07783565
000350 7b 37 ca be 88 8c 42 3d ca 43 1f be fc 37 06 bd
       -0.39495453 0.047497302 -0.15553203 -0.032768235
000360 af b6 f0 3e d2 61 26 be 6b e1 8e 3e 7a 4a 23 be
       0.47014377 -0.16248253 0.27906355 -0.1594638
000370 cb 5c 37 3e 7b c6 1f be 5b c1 3c be 86 f9 1e 3c
       0.17906491 -0.15603058 -0.18433134 0.009703046
000380 33 46 56 3d 8c 79 23 3e cd bd 4e be 3b e4 3b bc
       0.05231304 0.15964335 -0.20189591 -0.011467989
000390 b4 4d eb bd b2 29 75 bd 18 7d 37 be ff 88 ac 3c
       -0.1148943 -0.059854217 -0.17918813 0.021061419
0003a0 87 be 06 be 25 9b 9f bd 09 d2 26 be 73 58 09 3f
       -0.13158618 -0.07793263 -0.1629106 0.5365059
0003b0 f5 13 2a 3f 47 b6 d6 3e 91 79 62 be c0 fb 1e 3e
       0.664367 0.41935942 -0.22116686 0.15525723
0003c0 70 a3 6c bd 7a d3 3a bd d0 c7 c5 3d 22 59 9c bd
       -0.057773054 -0.045611836 0.09657252 -0.07634188
0003d0 84 05 90 3d 13 dd c9 bd 79 c9 34 3c 27 fa 94 3d
       0.07032302 -0.0985662 0.011034363 0.07274275
0003e0 1c a5 a0 3c 93 4e 62 3d 66 87 ec 3b 4b 88 42 3d
       0.01960998 0.055250715 0.007218289 0.04749326
0003f0 90 23 3a 3e d8 a7 6c 3d 2b f8 15 3d 14 ec 36 bf
       0.18177629 0.057777256 0.036613625 -0.71453977

linear_att_out.weight f4 [1, 40]
000000 3c 9f b4 ba c4 cf 9e 3e ac 3a ba 3d 49 ec 01 be
       -0.0013780366 0.31017888 0.09093222 -0.12687792
000010 13 11 c7 3b 86 b4 ca bd 49 25 1a 3e 79 1f 3b 3c
       0.0060750335 -0.09897713 0.15053286 0.011421078
000020 f1 26 f0 bc 7f 1b 9e 3b c3 34 a5 3d fb 29 61 bc
       -0.029315444 0.004825055 0.08066704 -0.013742919
000030 38 98 0e 3d 6e 59 5b 3c 15 91 9a bc 7c dd 61 3c
       0.034813136 0.013388021 -0.018868009 0.013785716
000040 60 36 c2 bd 6b bd ec bd ea b8 01 bc 2f 9e 6b bc
       -0.094830275 -0.11559566 -0.007917622 -0.014380976
000050 f3 37 52 3a 56 34 9f 3b 8d 80 69 3a 12 d7 76 b9
       0.00080192013 0.004858534 0.00089074 -0.00023540508
000060 cc 3e 89 3e b4 fc 95 bc 59 92 f4 bd b2 b6 b3 b9
       0.26805723 -0.018308975 -0.11941976 -0.0003427766
000070 fe 08 15 3d 20 b0 03 3b 37 a9 e9 37 b5 f6 85 ba
       0.03638553 0.0020093992 2.7854561e-05 -0.0010220619
000080 1a 10 c4 3a c8 33 8e 3d 73 1c bc 38 ef bb fb bb
       0.0014958412 0.0694347 8.969838e-05 -0.0076823155
000090 86 24 85 be 7e fa 54 bd 87 2e bb ba a8 be 70 ba
       -0.26004428 -0.0519967 -0.0014280834 -0.00091836834

linear_trans_neigh.weight f4 [20, 20]
000000 37 e4 92 bc b7 e4 be be 6b 0b 14 be 6c d7 18 3f
       -0.017931087 -0.3728387 -0.1445748 0.5970371
000010 b0 5d 6c bf 1e 05 8c 3e e0 48 97 3e 40 d2 82 3e
       -0.92330456 0.27347654 0.29547787 0.25551033
000020 d6 a9 aa 3e 06 dc 02 3f 73 71 bb bc 48 f7 9d 3e
       0.333327 0.5111698 -0.022881245 0.30852723
000030 86 e2 4d 3f c2 54 e6 bd 68 71 bc 3e 6c 21 ac 3f
       0.8042377 -0.11246635 0.36805272 1.34477
000040 16 43 e3 3f 4b ac cd 3f 1f 4e f8 bb 30 5c 21 3e
       1.7754848 1.6068205 -0.007577672 0.15757823
000050 d3 40 ab bc 37 39 c3 be 6f 62 02 be fa 77 43 3f
       -0.020904934 -0.3812959 -0.12732862 0.76354945
000060 d1 c7 59 bf d2 41 92 3e 8f b5 6f 3e 87 61 83 3e
       -0.8507052 0.28565842 0.23409103 0.25660345
000070 fb b0 aa 3e 41 e6 0f 3f 6e aa ba bc 56 17 a2 3e
       0.3333815 0.56210715 -0.022786345 0.3165843
000080 e6 e0 4e 3f 93 af e1 bd a6 ac ce 3e bd 6a ba 3f
       0.8081192 -0.11019816 0.40366095 1.4563824
000090 2a b0 d0 3f cc ce b9 3f 88 e9 01 bd a3 72 47 3e
       1.6303761 1.4516234 -0.031716853 0.19477324
0000a0 ab 49 98 bc f5 ae bd be 1e 2e 04 be f7 ca 2d 3f
       -0.018589815 -0.37047544 -0.12908217 0.67887825
0000b0 5a 9e 6e bf 19 1d 5f 3e 10 35 9c 3e 0b d1 80 3e
       -0.93210375 0.21788444 0.30509233 0.25159487
0000c0 26 d9 aa 3e ce 16 12 3f 08 be b6 bc f7 5e af 3e
       0.33368796 0.5706605 -0.02230741 0.3425214
0000d0 55 9b e5 3e 88 fa e6 bd b3 74 e0 3e 2a e4 b8 3f
       0.4484507 -0.11278254 0.43839034 1.444463
0000e0 cb 6f ef 3f 96 49 d4 3f 77 78 3d 3d f5 07 3a 3e
       1.8705992 1.6584957 0.046257462 0.18167098
0000f0 55 6f 94 bc 2c 39 bf be d7 64 05 be 1d 02 3e 3f
       -0.018119493 -0.37348306 -0.13026749 0.74221975
000100 a2 db 69 bf 71 61 69 3e 63 45 91 3e 7e ac 09 3e
       -0.9135076 0.22791077 0.2837325 0.13444707
000110 80 cf ac 3e 6a 01 0e 3f 74 f7 14 bd 6c 50 ad 3e
       0.3375206 0.5547091 -0.036368802 0.3385042
000120 79 e9 3f 3f c7 92 ee bd dc 55 ca 3e 81 e7 9a 3f
       0.74965626 -0.11649089 0.3951863 1.2101899
000130 7a da ee 3f 76 f0 b9 3f bd b2 23 bd 4c 57 39 3e
       1.8660424 1.4526508 -0.03996538 0.18099707
000140 e8 5e 9e bc 55 cf bc be 1a d6 01 be ab 34 35 3f
       -0.019332364 -0.36876932 -0.1267933 0.7078349
000150 be 4f 50 bf 4a 1e 5c 3e b0 ef 83 3e 6c d3 80 3e
       -0.81371677 0.2149593 0.25768805 0.25161302
000160 a2 86 a2 3e 33 c8 08 3f 29 6d a0 bc 30 bd 99 3e
       0.31743342 0.5343048 -0.019583302 0.3002715
000170 9d 67 2d 3f 9c 04 e7 bd 45 f1 e6 3e 10 71 a9 3f
       0.67736226 -0.11280176 0.4510595 1.3237629
000180 f6 6e f0 3f da 5f d0 3f e1 9e f7 3c 8a 39 62 3e
       1.8783863 1.6279252 0.030227127 0.22092262
000190 19 3e 5e bd 45 58 be be 8b 4d 00 be 73 fd 44 3f
       -0.05425844 -0.3717672 -0.1252958 0.7694923
0001a0 1e 58 78 bf 0a 8b 7f 3e be 98 72 3e 9e 03 74 3e
       -0.97009456 0.24955383 0.23691079 0.23829505
0001b0 34 e9 a7 3e aa 65 14 3f a1 35 b3 bc 1a 11 83 3e
       0.32795107 0.5796763 -0.021876158 0.25598985
0001c0 65 7f 4a 3f f5 dd e6 bd 7e 61 8c 3e 77 06 a8 3f
       0.7910064 -0.11272804 0.2741813 1.3126973
0001d0 90 76 c3 3f df 3a c4 3f 5a 32 3a bc 05 fd 4e 3e
       1.5270557 1.5330466 -0.011364544 0.20213707
0001e0 a4 cc c3 bc 60 ea b9 be 7d 43 01 be 9a 8a 42 3f
       -0.023901291 -0.36311626 -0.12623401 0.7599274
0001f0 59 76 61 bf 82 3f 5e 3e 48 8f 88 3e 76 78 83 3e
       -0.8807121 0.21703914 0.26671815 0.25677842
000200 c5 ac 56 3e 43 f9 09 3f 00 cf a1 bc f4 06 ad 3e
       0.20964344 0.5389597 -0.019752026 0.33794367
000210 5d f5 47 3f 44 75 e8 bd 43 7f e9 3e 3c cf bc 3f
       0.7810877 -0.11350492 0.45604905 1.4750743
000220 96 a6 e2 3f 30 65 d0 3f 6f 0a f6 3b cc a6 5e 3e
       1.7707088 1.628088 0.007508568 0.21743315
000230 f4 f1 11 bd 3f 2f bf be 3c c4 00 be d5 d5 33 3f
       -0.035631135 -0.37340733 -0.12574857 0.70248157
000240 ad 59 6a bf 2b 5a 90 3e 5d 5d 95 3e fa 36 7e 3e
       -0.91543084 0.28193793 0.29172793 0.2482566
000250 19 71 a4 3e 14 1d 07 3f 77 74 cc bc c5 fb b1 3e
       0.32117537 0.52778745 -0.024957879 0.34762397
000260 c0 2c 31 3f 5a 72 e9 bd 70 0c d3 3e b3 da a7 3f
       0.6920891 -0.11398764 0.41220427 1.3113617
000270 4e ee bf 3f 9b cf ad 3f b7 26 89 bd a5 65 62 3e
       1.49946 1.3578981 -0.066968374 0.22109087
000280 61 7d 94 bc 6a e8 bb be ca bb 01 be 51 71 45 3f
       -0.018126192 -0.36700755 -0.12669292 0.7712603
000290 0d e9 79 bf d0 1b dc 3d 64 09 9a 3e 82 8d 83 3e
       -0.9762123 0.10747492 0.3008529 0.256939
0002a0 52 2f ad 3e 6e ff f3 3e 8e 1b 27 bd 71 5e a4 3e
       0.33825165 0.47655815 -0.040797763 0.32103303
0002b0 ed ff 4d 3f f8 f9 e6 bd f2 85 dd 3e 47 20 b1 3f
       0.80468637 -0.112781465 0.43266255 1.3837975
0002c0 23 e7 b7 3f bf ac cd 3f 85 0c 27 bd 85 ab 4d 3e
       1.4367412 1.6068343 -0.040783424 0.20084961
0002d0 fe 53 93 bc 2d 59 bd be 22 50 01 be 9f d7 34 3f
       -0.017984387 -0.36982098 -0.12628224 0.7064151
0002e0 4c 83 68 bf 5a 13 64 3e 23 77 7f 3e 5f 1b 7e 3e
       -0.90825343 0.22273007 0.24947791 0.24815129
0002f0 4a ea 9f 3e 6a 87 12 3f 63 e8 c7 bc 68 67 b1 3e
       0.31233436 0.57237875 -0.024402803 0.34649205
000300 04 db 24 3f 71 f3 e9 bd 61 78 a4 3e da 6b b3 3f
       0.6439669 -0.11423386 0.32123092 1.4017289
000310 01 9d b3 3f 86 7b e6 3f d9 9c c0 3c 2e d7 43 3e
       1.4032289 1.8006446 0.02351229 0.19125053
000320 82 56 9d bc ac 17 be be f2 f3 05 be b2 44 47 3f
       -0.01920629 -0.37127435 -0.13081339 0.77839196
000330 7c e7 63 bf 1b 66 83 3e f6 f2 8b 3e 35 78 75 3e
       -0.8902509 0.25663838 0.27333802 0.23971637
000340 e3 73 a6 3e 91 42 db 3e 41 0b a6 bc 2a 1a 96 3e
       0.3251029 0.42824224 -0.020269038 0.29316837
000350 83 3f 11 3f 96 c8 e6 bd 7b a1 df 3e ca 2f b6 3f
       0.56737536 -0.112687275 0.43677887 1.4233334
000360 67 4d d5 3f f2 83 91 3f 81 cd da 3b 77 0e 59 3e
       1.6664246 1.1368392 0.00667733 0.21196924
000370 16 0a 99 bc 21 79 bf be 1f 45 02 be c6 b1 2d 3f
       -0.018681567 -0.37397102 -0.1272168 0.67849386
000380 8d 66 7d bf 02 16 8e 3e a9 62 9b 3e 47 3b 7e 3e
       -0.98984605 0.27751166 0.3034871 0.248273
000390 f8 45 ae 3e 33 29 ff 3e 09 94 a4 bc 9b 44 af 3e
       0.34037757 0.4983612 -0.02009012 0.3423203
0003a0 1a f1 1f 3f 9e 9d 04 be 36 6d cb 3e 65 0b c2 3f
       0.62477267 -0.12950751 0.3973176 1.5159727
0003b0 cc bf e8 3f d9 6b ab 3f 14 a1 8c bc 38 1e 60 3e
       1.8183532 1.3392287 -0.017166652 0.21886528
0003c0 2d 68 96 bc 1a 0e bf be b7 fb 01 be 0f f1 3a 3f
       -0.018360222 -0.37315446 -0.12693678 0.73024076
0003d0 34 c2 68 bf dd 8c 8a 3e 13 b5 8a 3e e7 94 80 3e
       -0.9092133 0.27060595 0.27091274 0.25113603
0003e0 7d ed ac 3e 17 78 fe 3e 23 fe 40 bd 05 f6 b1 3e
       0.3377494 0.49700996 -0.047117364 0.3475801
0003f0 ae aa 31 3f fb f9 e6 bd b6 f9 cc 3e ae 53 9f 3f
       0.6940106 -0.11278149 0.40034264 1.2447412
