best_para_path/ciao100.10.20.70.250.251.020.00.5_p10_20gatv2_spill_var2_explicit_seed0_ex1_0.1_0.0001_0.005_0.01_0.005_1e-05.pt (torch, 449539 bytes, 4 tensors)

user_embedding.weight f4 [2541, 20]
000000 8a a5 e1 38 06 92 7d bf 65 e4 b7 39 9c ff 41 3b
       0.0001075967 -0.9905094 0.00035074647 0.0029601818
000010 5c d0 65 39 b3 5d c8 ba cb ec 74 ba eb 2e 8e b9
       0.00021916762 -0.0015286714 -0.0009343146 -0.00027119307
000020 fa 58 73 39 0b 26 00 bb a7 05 78 ba 4d 72 8e b9
       0.00023207432 -0.0019553925 -0.00094612915 -0.0002716951
000030 1c 66 82 ba 7d f1 42 b7 36 d3 26 38 c0 91 28 3f
       -0.0009948644 -1.1619527e-05 3.977419e-05 0.65847397
000040 67 59 93 3f c1 ab e4 bc 3e 19 82 b9 a6 d8 92 39
       1.1511658 -0.02791393 -0.0002481434 0.00028008706
000050 d7 a9 4f 38 0b 43 8e bf 77 42 08 ba be dc 24 39
       4.951082e-05 -1.111421 -0.00051978923 0.00015722492
000060 c9 26 74 bb 3b 78 01 3a 34 62 f9 b6 19 6f 34 b9
       -0.0037254563 0.0004938875 -7.4322106e-06 -0.00017207525
000070 04 95 55 ba e4 a0 ce b9 f5 20 5d b8 0e 37 39 b9
       -0.000814751 -0.00039411255 -5.27212e-05 -0.00017663484
000080 43 c9 15 39 da 1e 17 39 b8 83 80 38 43 63 ba 3d
       0.00014284723 0.00014411975 6.12805e-05 0.09100964
000090 5c b7 8f bd bf 62 d0 be 7d 8b b5 b7 f9 50 4d 39
       -0.07017395 -0.40700337 -2.1641836e-05 0.00019580488
0000a0 a6 bb 36 3a a1 d3 6c bf 97 62 b6 3a fe fb 60 3a
       0.0006970711 -0.9251042 0.001391488 0.00085824716
0000b0 66 58 b0 ba db c7 2c ba 98 da 3f 3b 72 35 81 3b
       -0.0013454079 -0.000659106 0.002927458 0.0039431388
0000c0 cc 67 5f 37 a8 ef 29 3a ad a1 38 ba 7d f9 da 39
       1.3316003e-05 0.000648255 -0.00070431345 0.00041766083
0000d0 b5 0b 61 b9 e9 5d ca 39 ab 38 a3 b9 cb 1a b7 bc
       -0.00021462033 0.0003859841 -0.00031132004 -0.022351643
0000e0 64 7a 96 3d 55 fe 5a 3d 1b d0 a9 ba 68 08 9e 38
       0.07347563 0.053465206 -0.0012955697 7.535593e-05
0000f0 dd 71 1e bb 8b 85 f9 be 39 32 0e 3b df db e1 b9
       -0.0024176755 -0.48734698 0.0021697416 -0.0004307916
000100 f0 d7 76 bb 24 83 a3 39 81 2d 14 b9 6e 26 88 bb
       -0.003766533 0.0003118749 -0.00014131331 -0.004154972
000110 92 2e 2e 3a 9f ff 48 bb 84 30 58 bb 66 fc 00 b9
       0.0006644513 -0.003066994 -0.0032987902 -0.00012301057
000120 b2 07 bd ba b9 63 eb b9 2b a1 31 39 67 bf c0 bd
       -0.0014421849 -0.00044896992 0.00016940075 -0.09411507
000130 4d 76 49 3e 31 5a 9a be a2 e6 51 ba ea a5 05 bb
       0.19674034 -0.30146936 -0.0008007084 -0.0020393082
000140 3c 6b 40 b8 be cf c1 be b1 14 47 b9 52 66 41 b8
       -4.5876237e-05 -0.37853807 -0.00018985827 -4.611008e-05
000150 cf 25 0a 3a e7 9c 3b 3a 8f c0 15 b9 5f 23 3a b9
       0.0005269916 0.0007156864 -0.00014281481 -0.00017751519
000160 7d fe 04 b8 2c f2 4f 3b a2 a1 fa 39 24 2a c6 39
       -3.1708263e-05 0.003173004 0.00047804142 0.000377969
000170 49 38 7d b9 00 3d 20 b6 59 64 0f 3a 71 47 c6 bc
       -0.00024148928 -2.3877365e-06 0.000546997 -0.024203988
000180 fb 57 08 bf 2f 05 21 3e ee 4f 36 b9 24 c7 28 39
       -0.5325925 0.15724634 -0.00017386649 0.00016095914
000190 e0 14 7e b9 e6 4c 33 bf 10 a4 d4 3a e5 af 26 ba
       -0.00024231104 -0.7003921 0.0016223211 -0.0006358608
0001a0 d0 55 64 ba 35 be c4 39 5f 11 dd b7 81 5c e2 b8
       -0.0008710297 0.00037525748 -2.6353342e-05 -0.0001079375
0001b0 1a 6f ed 39 bf 49 da b9 e0 85 23 3a e7 be d2 b8
       0.0004528694 -0.00041635145 0.00062379055 -0.00010049139
0001c0 c7 ad 7a 39 5e 0d 04 b9 a3 21 0a b9 0d b1 62 3c
       0.00023906595 -0.0001259348 -0.00013173236 0.0138361575
0001d0 53 17 05 3f 52 38 27 bf 09 ee 0c ba cb 9c 3f 38
       0.51988715 -0.6532031 -0.0005376046 4.5683973e-05
0001e0 2b c3 88 b6 db 42 bd be 6f b7 b7 3a 73 03 f4 3a
       -4.0758364e-06 -0.3696507 0.001401646 0.0018616751
0001f0 f2 66 e2 b9 60 26 07 bb fb cf 48 b9 1f 29 1d 39
       -0.0004318278 -0.0020622239 -0.00019150965 0.00014988006
000200 08 96 0c 38 65 42 ba 3a 1d c6 ce 39 fa 32 de b8
       3.351833e-05 0.0014210461 0.00039438988 -0.0001059528
000210 c8 2a c3 37 34 25 67 b9 27 8a 56 39 48 e1 41 be
       2.3265733e-05 -0.00022043736 0.00020460096 -0.18933594
000220 70 15 03 3f 50 5f 47 3e 95 22 ac 39 6d 12 4e b9
       0.51204586 0.19469953 0.00032832162 -0.00019652555
000230 cb 44 c4 39 cb b9 30 bf 98 01 bb 39 f1 66 85 b9
       0.00037435288 -0.690335 0.00035668607 -0.00025444434
000240 87 67 70 b8 fd ad 0b 38 98 ec 23 39 33 54 f0 b8
       -5.7316876e-05 3.330222e-05 0.0001563303 -0.00011459775
000250 03 0f 9f 39 17 14 c6 39 0c 2a 25 ba aa a8 05 ba
       0.00030338028 0.0003778047 -0.0006300516 -0.000509868
000260 c6 d8 e4 39 cb 7d bf b7 da 5a c4 37 aa 8e 24 bd
       0.00043649058 -2.2827551e-05 2.3407327e-05 -0.040175118
000270 a2 53 b3 bd 27 9b 8c 3e a6 19 3b b9 92 16 12 b9
       -0.08756186 0.27462122 -0.00017843265 -0.00013932053
000280 c8 5a 0b 39 31 03 d2 bd b0 0f b1 3a d8 ab 8d b9
       0.00013289892 -0.10254515 0.0013508704 -0.0002702165
000290 77 01 12 39 f3 87 52 3a 20 dc 9b 38 cc 7a 55 b9
       0.0001392419 0.0008031122 7.4319774e-05 -0.00020359008
0002a0 3a 29 d2 b9 96 1a 1a 3b b1 90 d4 b8 e2 ce 4f b9
       -0.00040085037 0.0023514382 -0.000101358986 -0.00019818128
0002b0 b5 8b 0f 39 84 09 41 39 fa 95 82 b9 51 b3 7d 3e
       0.00013689588 0.00018409459 -0.00024907273 0.24775435
0002c0 b9 84 c0 bf b3 b2 e5 be 80 c0 82 b8 25 c9 0e 39
       -1.5040504 -0.448629 -6.234739e-05 0.00013617107
0002d0 36 af a6 39 a4 42 65 bf 79 ed 66 3a 44 93 2f 3a
       0.0003179253 -0.8955481 0.000880919 0.00066976645
0002e0 99 f4 2f bb 0e e0 6e b9 a7 aa 59 39 ea d5 d6 38
       -0.0026848672 -0.00022780916 0.00020758306 0.0001024416
0002f0 e9 29 3e 3a e8 d1 5f ba 6f fe 0d ba 6a e9 be b8
       0.000725417 -0.00085380534 -0.00054166367 -9.103383e-05
000300 40 c1 ea b8 c4 27 80 b8 b8 40 94 39 15 6a b4 bb
       -0.00011193985 -6.1109225e-05 0.0002827698 -0.00550581
000310 24 b7 85 bf b5 08 e5 3e 4b b9 58 b8 6c 26 8d b9
       -1.0446515 0.44733205 -5.167098e-05 -0.00026922242
000320 4b fa 51 39 f1 3b 98 bf 48 d3 3b ba 2a 17 f0 b9
       0.00020025035 -1.1893293 -0.0007164967 -0.00045793626
000330 5b 73 9a 3a 95 0d 29 3a 76 28 1a b9 a2 65 12 b8
       0.0011783646 0.0006448862 -0.00014701657 -3.4903765e-05
000340 6e 21 b6 ba 32 08 4f ba 7f c3 a3 3a 0b 87 da 38
       -0.0013895461 -0.00078976445 0.0012494175 0.00010420204
000350 1a c2 2a 39 8e a3 a6 38 89 9e 45 b9 9a fb 60 3e
       0.00016284772 7.945961e-05 -0.00018846443 0.21970978
000360 47 93 32 be fc ee 5b 3e 58 46 61 3a da 6c de b8
       -0.17438994 0.21477884 0.0008593551 -0.0001060606
000370 00 ad 81 b8 c4 08 86 bf 2c d3 1a 39 8a 60 ab 38
       -6.183423e-05 -1.0471425 0.00014765252 8.171897e-05
000380 40 12 01 39 ee 2f c2 b8 fc 2f 09 38 76 2c 08 b9
       0.00012309197 -9.2595685e-05 3.2708034e-05 -0.00012986534
000390 03 fa a2 b9 f1 c2 9f 3b 6c 75 63 b9 a3 00 45 39
       -0.0003108532 0.0048755337 -0.0002169215 0.00018787621
0003a0 26 b6 3e 39 e3 a3 b0 37 73 e5 4a 39 18 5c 12 3d
       0.00018187668 2.105715e-05 0.00019349698 0.03573236
0003b0 28 f1 90 3d 16 eb 39 bd 36 1d ce b7 97 d1 67 39
       0.07077247 -0.04539021 -2.4570716e-05 0.00022107955
0003c0 3f a0 23 37 9f ee 47 bf 14 53 ee 39 53 17 f0 37
       9.752867e-06 -0.7809848 0.00045456795 2.862109e-05
0003d0 30 40 82 3a a9 23 13 39 d4 7b 7f b9 15 5c dd 37
       0.0009937342 0.00014032297 -0.00024364825 2.6388132e-05
0003e0 10 dc 0f 3a 33 1a a4 3a 70 80 8f b8 5f 38 1a 38
       0.0005487809 0.0012520015 -6.842695e-05 3.676896e-05
0003f0 59 24 e2 3a 81 c2 bf b7 5e b4 90 b8 3b 9a 28 bd
       0.0017253264 -2.2859547e-05 -6.900051e-05 -0.04116271

item_embedding.weight f4 [3019, 20]
000000 9a 0f ee b8 33 71 9b 3e 93 6c 5e bb 3f 3d 89 ba
       -0.000113516304 0.30359802 -0.0033939227 -0.0010470523
000010 a9 49 4a ba 80 38 3e 38 97 2d e3 38 2c 14 5b 39
       -0.00077166647 4.535215e-05 0.00010832695 0.00020892982
000020 c9 72 a8 39 be 4d 5d 38 3b 56 2c 39 d3 c5 ae b9
       0.0003212898 5.276291e-05 0.00016435322 -0.00033335257
000030 e7 ee 96 39 79 c4 3d 38 c8 e3 4f 38 6f cd 11 bc
       0.00028788226 4.524409e-05 4.9564784e-05 -0.008899077
000040 ec 74 b6 3e 0d 76 2c 3d d4 51 b9 b7 fc ee e1 37
       0.3563608 0.04210477 -2.2091823e-05 2.6933376e-05
000050 29 6e 97 38 94 a2 2c be ec b4 0a bb 82 ea 2b bb
       7.22076e-05 -0.16858894 -0.0021164967 -0.0026232307
000060 ca ff 16 3a 87 98 04 ba 25 26 2d b9 04 38 ca b9
       0.00057601614 -0.0005058129 -0.00016512776 -0.00038570177
000070 0d f8 34 3b 39 c3 63 3b 6a de b5 3b e9 1c ed 39
       0.002761367 0.0034753813 0.0055501955 0.00045225702
000080 1c ac 53 39 71 25 16 b8 2a f4 54 ba 25 bc 30 bd
       0.00020186644 -3.5797657e-05 -0.00081235415 -0.04314818
000090 37 87 d3 3e 7c bd 92 3e e3 e9 cd 3a 70 01 b4 38
       0.41314098 0.2866019 0.0015709962 8.5833366e-05
0000a0 5b 1b d1 38 60 dc ac 3e bd a1 b1 39 fe a8 1a b9
       9.970992e-05 0.33761883 0.00033880575 -0.00014749539
0000b0 64 8c eb 3a 2a d2 a1 3b f2 5e ae b8 33 e4 72 39
       0.0017970917 0.0049383836 -8.3146515e-05 0.0002316393
0000c0 68 34 ba 39 2e dd 08 39 34 c7 01 b6 52 c8 96 b8
       0.0003551573 0.00013052367 -1.933845e-06 -7.18987e-05
0000d0 7c 82 bf 38 00 08 bb 39 60 26 1f b9 24 5f b0 bc
       9.131894e-05 0.0003567338 -0.00015177717 -0.021529742
0000e0 7b 41 db 3e 6e 5f a5 bd 7d 69 a2 b9 d7 27 7a b8
       0.42823395 -0.080748424 -0.00030977643 -5.964175e-05
0000f0 72 26 0b bb 6a 41 66 3d 22 d0 86 ba fe 64 42 39
       -0.0021232632 0.056214727 -0.0010285417 0.00018538904
000100 8e 1e 6f 3a c0 ec a1 ba cd e2 07 bb db c2 8e 3a
       0.00091216795 -0.0012353882 -0.002073455 0.0010891812
000110 be cd 1b 3a 9f 0a 44 ba d4 bb 28 ba 47 4e 3d bb
       0.0005943439 -0.00074783893 -0.000643668 -0.0028885768
000120 24 d3 01 ba 1f 4f 05 bb 72 65 e0 b9 fe 97 cf b9
       -0.0004952422 -0.002034135 -0.00042800192 -0.0003959536
000130 fd 9b 65 bd b3 d8 c3 3d 7b 7e 8c bb 51 33 1a bb
       -0.056056965 0.095628165 -0.0042875386 -0.0023529122
000140 27 e7 6e b7 cb 95 45 3e 29 a2 c2 3b 6e 25 5b b9
       -1.4239725e-05 0.19295423 0.005939741 -0.00020899411
000150 50 3c 3e 38 89 e6 67 3b 65 fb 81 3a db 24 9a ba
       4.53557e-05 0.0035385212 0.000991684 -0.0011760251
000160 58 e0 1a b8 a7 a5 3e b7 5e f2 7f ba a3 1b 72 38
       -3.6925398e-05 -1.1363451e-05 -0.00097635936 5.7723035e-05
000170 d7 dc 9a b9 cb 55 54 b7 0f a5 0a 3b a9 88 24 bd
       -0.00029537707 -1.265616e-05 0.0021155511 -0.04016939
000180 9e 2d db 3e d2 ee 60 bd 5a cb 00 3b f5 e6 ae 39
       0.4280824 -0.054915257 0.0019652457 0.00033359943
000190 1a 12 1b 37 47 c9 35 bf d4 f2 24 b9 d1 02 9e b9
       9.2429345e-06 -0.7101025 -0.0001573072 -0.00030138207
0001a0 6a 59 39 3b d4 74 a9 39 a6 5a a2 b8 62 03 26 b9
       0.0028282055 0.00032321236 -7.7416466e-05 -0.00015832254
0001b0 24 b7 a2 b9 0c 38 a7 3a 6e f3 b2 39 5c 03 e2 36
       -0.00031035498 0.0012757792 0.00034132175 6.735716e-06
0001c0 20 d6 42 39 2e b4 37 38 f0 ab b1 39 22 98 c2 3b
       0.0001858105 4.3798405e-05 0.00033888174 0.005938546
0001d0 f7 ee 24 3f 8f dc d4 3e 53 11 7e b8 35 3a 18 b9
       0.6442713 0.41574523 -6.0574454e-05 -0.00014517533
0001e0 59 b2 22 b9 b0 3a 33 bf 3d 44 84 ba 22 f6 8b ba
       -0.00015515964 -0.70011425 -0.0010091137 -0.0010678212
0001f0 b7 38 e7 3a b7 a9 59 b9 e7 8b b7 b8 05 a5 b5 b9
       0.0017640804 -0.00020757956 -8.752179e-05 -0.0003464596
000200 f6 77 95 ba 81 85 86 b9 07 80 a5 39 e6 86 4f b9
       -0.0011403549 -0.0002565794 0.0003156664 -0.00019791312
000210 82 c5 0c 3a ce 16 a5 b8 83 13 89 b9 f5 8a 83 bb
       0.0005370007 -7.872061e-05 -0.00026145214 -0.0040143677
000220 c1 20 5a be 8f cb d1 bd b3 d5 ed b8 02 a7 ab b9
       -0.21301557 -0.10243904 -0.00011340845 -0.00032740092
000230 6d e0 3a 36 1e b1 90 3c c2 b1 b2 bb 94 27 d5 b9
       2.7846793e-06 0.017662581 -0.0054533193 -0.00040656014
000240 f8 51 ce 37 fa 13 2a bb 38 a1 02 bb 02 81 7f ba
       2.4595283e-05 -0.0025951848 -0.001993252 -0.00097467017
000250 88 f9 1c 3b dc 3b 8a bb 41 4a 6d ba ee 3f 18 b9
       0.0023952443 -0.0042185616 -0.0009051897 -0.00014519665
000260 47 d4 49 3a 28 58 3b bb 0f 49 8b b8 63 10 a9 ba
       0.00076991733 -0.002858648 -6.641645e-05 -0.001289856
000270 d4 62 33 3e 3a 4c d9 3c d0 88 04 3b d3 80 e1 bb
       0.17518169 0.026525605 0.0020223148 -0.006881812
000280 24 38 34 39 9b 5b df 3e 28 9c 97 ba a8 9f 1f b9
       0.00017187052 0.43624577 -0.0011566924 -0.00015222898
000290 1a a7 30 ba 41 c4 90 b9 de 07 c7 39 ef 08 81 3a
       -0.0006738767 -0.0002761204 0.000379621 0.0009844581
0002a0 2f c9 22 3a 30 73 71 b9 67 45 7d ba fd 36 f8 39
       0.0006209788 -0.00023026462 -0.0009661526 0.00047343216
0002b0 d3 09 6b 3a c5 f0 55 3a 33 02 9d b9 92 4a f2 bd
       0.00089660025 0.00081611826 -0.00029947012 -0.118306294
0002c0 85 2f e1 3c 5c 08 b4 3c ba 5c 3b 39 f1 32 fd b9
       0.02748848 0.021976642 0.00017868253 -0.00048293875
0002d0 18 93 00 3b b2 1b 84 be 01 16 8d bb a7 f5 1e bb
       0.0019618925 -0.2580238 -0.0043056016 -0.0024255307
0002e0 d2 0f 10 3a e3 be 22 b9 ce dc 6c b9 28 1b 87 39
       0.00054955215 -0.00015520635 -0.0002258897 0.0002576944
0002f0 b1 75 fd 39 8d de ce 39 22 37 ef 3b b4 08 26 3b
       0.00048343607 0.00039457195 0.0073002735 0.0025334777
000300 82 bd 17 3b a6 81 b4 39 57 cd ca ba 37 3f b8 bb
       0.0023153727 0.0003442887 -0.0015472573 -0.00562277
000310 89 d9 32 3e ea 37 c3 3e f4 c1 9e 3a 47 3c b6 3a
       0.17465796 0.38128597 0.0012112246 0.0013903462
000320 38 b0 73 37 59 2f 99 3d 17 a2 f3 ba 03 47 f6 ba
       1.4524958e-05 0.07479734 -0.0018587735 -0.0018789474
000330 75 e3 32 bb 47 eb 18 bb 20 d2 9d b9 f5 b5 28 bb
       -0.002729622 -0.0023333596 -0.0003010193 -0.002574322
000340 ea 83 fd 3a f3 e7 0f ba e6 b4 a9 3b a7 b2 34 3a
       0.0019341682 -0.000548958 0.0051790355 0.00068930764
000350 b6 05 af b8 cf 51 ca b8 bf b5 0d ba 91 fb 3c bc
       -8.345714e-05 -9.6473486e-05 -0.00054058054 -0.0115345875
000360 cb 4f 8f 3e d3 93 47 3c 60 ee e8 3a 3c 6d 10 bb
       0.27990565 0.01218124 0.0017771237 -0.0022037765
000370 34 d1 46 3b 75 c0 38 3e 9d ae b9 ba 59 86 a7 ba
       0.0030337097 0.18042167 -0.0014166419 -0.0012781128
000380 b5 69 0e 3b 9a c5 2e 3b 70 ae bd 39 46 fb fb ba
       0.0021730487 0.0026668073 0.00036178855 -0.0019224666
000390 30 db 31 bb c7 0a 0e 3c 50 70 37 3a 5d 23 69 3a
       -0.0027138703 0.008669562 0.0006997632 0.0008893514
0003a0 76 9a c5 3a 3d 0d 51 b9 35 d1 f8 bb 14 6f 28 bd
       0.001507594 -0.00019936725 -0.007593299 -0.041121557
0003b0 3a 0c 85 3d 25 31 6e 3e 2a 00 57 3b f0 95 69 3b
       0.06496473 0.23260935 0.0032806494 0.0035642348
0003c0 e6 9a 5e b8 db 43 f9 3e d8 f1 39 39 14 d6 a5 38
       -5.3073185e-05 0.48684582 0.00017733069 7.907688e-05
0003d0 a5 c0 c5 3a 4e 61 bb b7 ee e5 40 38 bc e8 29 b8
       0.001508732 -2.2337448e-05 4.5990506e-05 -4.050949e-05
0003e0 f1 1d f8 b8 f9 5c 2c 3a 1e 43 45 b9 7c 80 ae b7
       -0.000118311385 0.00065751333 -0.00018812387 -2.0802247e-05
0003f0 68 ea b2 36 24 be 83 b7 88 85 0f b8 f0 9d 20 3c
       5.332102e-06 -1.5704958e-05 -3.4218217e-05 0.00980328

linear_att_out.weight f4 [1, 40]
000000 97 eb bf b8 53 e5 87 be f2 10 c2 36 99 43 47 38
       -9.151472e-05 -0.26542148 5.7836232e-06 4.7508252e-05
000010 9d 76 f5 b8 9e 27 0c b8 68 a2 23 38 45 67 ce b8
       -0.00011704604 -3.3415497e-05 3.901348e-05 -9.842081e-05
000020 3f 9f dc 36 d5 da c4 39 2d e7 88 b8 2a 6c 4b b8
       6.5750496e-06 0.00037547076 -6.528045e-05 -4.8499707e-05
000030 be a4 ce b8 50 fe 3f 38 c2 b3 e2 36 62 5e dc 3e
       -9.853531e-05 4.5774796e-05 6.7562514e-06 0.43040758
000040 d5 bf 57 be b5 2c 7d be a3 6d af b8 b0 a0 9f 38
       -0.21069272 -0.24724086 -8.365072e-05 7.611641e-05
000050 9d a9 b1 b5 17 6d 79 bd e0 a9 97 35 f1 47 07 36
       -1.3236892e-06 -0.06089505 1.1299817e-06 2.0158443e-06
000060 71 7a 70 b5 d6 72 47 36 c7 e9 5c b5 83 c6 49 b7
       -8.9585143e-07 2.9720154e-06 -8.229658e-07 -1.2026753e-05
000070 f8 9b 97 36 8c 63 51 b7 8c dc f8 b6 dc df 8d b8
       4.518308e-06 -1.2480548e-05 -7.416651e-06 -6.765101e-05
000080 5d 16 9c b7 0d 89 04 36 b7 55 10 b5 ee 50 82 3b
       -1.8607063e-05 1.9749307e-06 -5.376891e-07 0.0039769327
000090 3a 33 47 bd b9 0a 67 bd c7 23 88 b6 0e c3 01 b7
       -0.048632838 -0.05640671 -4.057281e-06 -7.734414e-06

linear_trans_neigh.weight f4 [20, 20]
000000 0f 1b 85 3d 7e 54 ce 40 46 f7 ea b8 94 3f 86 bc
       0.06499302 6.447814 -0.00011204048 -0.016387738
000010 98 9a ef b8 e3 ed 94 3b 7c 4d 2a 3e ba c9 1b 3d
       -0.000114252034 0.00454496 0.1663112 0.03803418
000020 22 63 b0 3c 3e 2f 24 3c 3f 8c 68 3c cd 8f bd 3c
       0.021531645 0.010021029 0.0141935935 0.023139859
000030 a3 9a 6b 3d 03 b7 c4 3d f3 09 13 bc 3c 75 60 3f
       0.05752052 0.09605219 -0.00897454 0.87678885
000040 68 5d a5 40 03 86 9e 40 f3 65 3c 3a ae 93 00 bc
       5.167652 4.953859 0.00071868225 -0.00784771
000050 5e 7f 95 3c ba 96 c6 40 8d f3 80 b8 6d ce 75 3d
       0.01824921 6.2058992 -6.1488805e-05 0.060011316
000060 ee 73 f1 b8 b1 8e bc 3b 08 5c 50 3d a3 0f 39 3d
       -0.00011513369 0.005754315 0.050869018 0.045180928
000070 9c 05 11 3c 9e b6 1a 3d 04 f1 6e 3c 72 ec 17 3d
       0.008851435 0.037771814 0.01458383 0.037090726
000080 48 41 70 3d 58 40 07 3e e8 ec 64 3c 4c 49 82 3f
       0.058656007 0.13208139 0.0139724985 1.0178618
000090 21 9f 9f 40 68 6d 98 40 2b c0 b6 bc a6 b7 6b 3c
       4.988175 4.7633553 -0.02230843 0.014387047
0000a0 31 0c c6 3d 65 0c d1 40 c0 2e 91 b8 34 d7 32 3c
       0.09670294 6.532763 -6.922847e-05 0.010915566
0000b0 1f 42 ef b8 ce 40 ac 3a 17 48 47 3e e8 ca d5 3c
       -0.00011408724 0.0013141872 0.19461094 0.02609773
0000c0 e2 bc ae 3c 7f bf 3c 3d 4e de 88 3c 94 f6 e1 3d
       0.0213303 0.046081062 0.016707566 0.11033359
0000d0 9a 7c b3 bc 97 b8 8b 3d 3f 81 4b 3d 70 65 80 3f
       -0.02191 0.06822317 0.049683806 1.0030956
0000e0 d9 32 a9 40 2e 88 a0 40 50 b3 af 3d c8 18 ae 3b
       5.287457 5.0166235 0.08579123 0.0053130127
0000f0 94 aa 49 3d 8c 9b cd 40 b0 54 99 b8 34 0b 2f 3d
       0.04923494 6.4252377 -7.311383e-05 0.042735294
000100 0a f2 ef b8 dd 8c e9 3a 66 23 0d 3e 7f f6 80 bd
       -0.000114414914 0.001781847 0.13783035 -0.062970154
000110 de a5 30 3c 2d 38 04 3d 54 e0 10 bc 64 dd bd 3d
       0.010781733 0.032280136 -0.0088425465 0.092707425
000120 30 bd 2e 3d b1 4d 9e bc 21 15 01 3c e4 b7 37 3f
       0.042660892 -0.019324156 0.007878573 0.7176497
000130 03 03 a9 40 f3 76 98 40 e8 93 ef bc 98 64 a0 3b
       5.2816176 4.76452 -0.029245332 0.004894804
000140 3c 70 f8 3c 71 3a d3 40 ac 22 6e b8 aa 89 bc 3c
       0.030326955 6.600884 -5.6775913e-05 0.023014862
000150 57 c9 f1 b8 4b da 9a 3a 9f ee af 3d 53 5b d6 3c
       -0.00011529278 0.0011814324 0.08590435 0.026166594
000160 be 20 97 3b a9 73 a4 3c ea 7c 0c 3d 43 82 2a 3c
       0.0046120575 0.020074682 0.034298815 0.010407033
000170 f4 16 c8 3c e8 d0 ee 3c 23 d9 95 3d 01 6d 57 3f
       0.024425007 0.029152349 0.07316806 0.841507
000180 1d 85 a9 40 d3 56 9f 40 cf b8 5d 3d 18 14 68 3d
       5.297499 4.9793487 0.054131325 0.056659788
000190 46 25 79 bd e3 8e cf 40 f9 0c 5b b8 5b 99 89 3d
       -0.060826562 6.486192 -5.222575e-05 0.06718703
0001a0 6e a1 ec b8 5f 80 3d 3b 35 28 60 3d 7b 32 5b 3b
       -0.000112834256 0.0028915626 0.054725844 0.0033446837
0001b0 ac ed e6 3b 91 97 8e 3d a6 08 9b 3c e4 bf 31 bd
       0.0070473757 0.06962503 0.018925022 -0.04339589
0001c0 d9 1c 5c 3d b8 5a a7 3d db ce 5b bd a5 d3 55 3f
       0.05373845 0.081716 -0.05366407 0.8352607
0001d0 ab b8 9b 40 f1 b5 9b 40 60 fe 4e bb 1a 3a a9 3c
       4.8662925 4.8659596 -0.0031584725 0.020657588
0001e0 6a 89 63 3b 2d 54 d8 40 bc db 62 b8 fa 02 67 3d
       0.0034719356 6.7602754 -5.4087242e-05 0.056399323
0001f0 66 ec f0 b8 a4 34 a7 3a 5a d0 d1 3d 53 d8 71 3d
       -0.000114881244 0.0012756777 0.10244818 0.059044193
000200 ac 28 1b bc 7e d5 b8 3c fc 69 08 3d 15 5c b9 3d
       -0.009470146 0.022562739 0.0333042 0.090507664
000210 6b d6 50 3d 4c 73 08 3c fa b0 be 3d db 42 85 3f
       0.050985735 0.00832827 0.09311099 1.0411028
000220 1f 2d a5 40 7c 58 9f 40 94 88 8c 3c 14 74 2e 3d
       5.161758 4.9795513 0.01715497 0.04259117
000230 56 85 f0 bc 0a b1 cd 40 32 3c 5e b8 69 dc a8 3c
       -0.029360455 6.427861 -5.2984986e-05 0.020612912
000240 8f e1 ef b8 45 75 ae 3b b4 60 20 3e 44 72 cc 3d
       -0.00011438422 0.005324038 0.1566189 0.09982732
000250 81 e6 b0 3b a1 95 8a 3c ba aa ea 3b c8 f9 17 3e
       0.005398572 0.016917052 0.0071614655 0.14841378
000260 ed ee e3 3c 58 2d b7 3a 0a d7 a9 3c 20 95 55 3f
       0.02782389 0.0013975305 0.020732421 0.8343067
000270 23 bb 9a 40 ce 11 95 40 a4 59 4a bd bc 33 86 3d
       4.835344 4.6584234 -0.049401894 0.06552836
000280 c0 98 a3 3d 29 0d d5 40 49 fc 6a b8 19 f7 8e 3d
       0.07988119 6.6578565 -5.6024906e-05 0.06980724
000290 6d e7 eb b8 fe 75 5c bb e6 ca 39 3e 35 d8 64 3d
       -0.000112487796 -0.0033639665 0.18143806 0.055870254
0002a0 2a b9 37 3c 05 53 fe ba 04 0a 4f bc 07 14 3b 3d
       0.01121358 -0.0019403404 -0.012636665 0.045673396
0002b0 b9 23 6c 3d ab 20 89 3d 3a 46 2d 3d 5b 79 6d 3f
       0.057651255 0.06695684 0.0423033 0.927633
0002c0 20 82 98 40 23 86 9e 40 e7 06 f5 bc 50 84 9f 3c
       4.7658844 4.953874 -0.029910518 0.019472271
0002d0 89 38 61 3d 87 ae d1 40 ea 72 63 b8 47 3f b7 3c
       0.054985557 6.5525546 -5.422804e-05 0.02236904
0002e0 20 3f f0 b8 a0 87 c9 3a cf 59 95 3d f8 86 8c 3c
       -0.0001145585 0.0015375502 0.0729252 0.017154202
0002f0 51 20 6e 3b e1 92 45 3d 98 92 0c 3c 73 03 0b 3e
       0.003633518 0.048235778 0.008579873 0.13575535
000300 7a c5 8b 3c c9 aa c0 ba 10 aa 06 bd 1d 40 73 3f
       0.017061938 -0.0014699335 -0.032877028 0.95019704
000310 ad 55 97 40 20 42 a6 40 14 72 2b 3d 48 56 40 3c
       4.7292085 5.195572 0.04185684 0.011739321
000320 5f 8b f8 3d c0 20 d0 40 95 d1 9c b8 4d 39 c7 3d
       0.12135958 6.503998 -7.477697e-05 0.09727726
000330 41 b2 f0 b8 2a 86 5d 3b e2 b8 ed 3d 7f 72 a4 3b
       -0.00011477294 0.0033801892 0.11607529 0.005018532
000340 03 c4 ce 3b f9 d4 81 bc cd ff f4 3c 73 12 cc 39
       0.0063099875 -0.015848624 0.029907132 0.00038923658
000350 64 a2 a1 3a 8b 8a ae 3d 9e 83 42 3d 1f 1b 7a 3f
       0.0012331721 0.08522519 0.0474888 0.97697634
000360 4e 20 a1 40 47 78 8d 40 2c 7b 84 3c e8 99 03 3d
       5.0351934 4.4209323 0.016172014 0.0321292
000370 92 7d 1b 3d 5d 12 cd 40 1b b0 7e b8 60 6a 30 3c
       0.03796155 6.4084916 -6.072233e-05 0.010767549
000380 01 cc e9 b8 ec 3f a0 3b c3 06 42 3e 57 4d 8e 3c
       -0.000111483045 0.0048904326 0.18947892 0.017370863
000390 f9 e3 84 3c d9 b3 ad 3b 82 19 ff 3c 5f f0 df 3d
       0.016221987 0.0053009805 0.031140093 0.10934519
0003a0 f1 9f 54 3c e4 2d 84 bd f3 67 19 3c aa d4 8b 3f
       0.012977586 -0.064540654 0.009363162 1.0924275
0003b0 bd 12 a7 40 7b 69 94 40 9f 35 12 bc 92 93 a7 3d
       5.2210374 4.637876 -0.008923917 0.08182444
0003c0 51 23 b6 3d 4d f9 cd 40 f3 a1 73 b8 34 6b 11 3d
       0.08893455 6.436682 -5.808654e-05 0.035502627
0003d0 f1 17 f0 b8 8e 90 8d 3b 62 9d e3 3d 99 52 c9 3c
       -0.00011448551 0.004320211 0.11114003 0.024575518
0003e0 52 c5 32 3c 19 24 9e 3b a1 e1 8c bc dc 54 17 3e
       0.010911303 0.0048260805 -0.017197432 0.14778465
0003f0 73 82 ec 3c 70 32 89 3d b6 ce 3c 3c 88 dd 41 3f
       0.028870797 0.06699073 0.011523893 0.75728655
